saved_models/stable_ddpg/policy_net_checkpoint_a3.pth (torch, 3223 bytes, 4 tensors)

b f4 [100]
0.0 0.0 0.055743117 0.0 0.0 0.0 0.0 0.0
0.0 0.0 0.0 0.0 0.0 0.0 0.0 0.0
0.0 0.0 0.0 0.0 0.0 0.0 0.0 0.0
0.0 0.0 0.0 0.0032468506 0.0 0.0 0.012395247 0.0
0.0 0.0 0.0 0.0 0.0 0.0 0.014083421 0.0
0.0 0.0 0.0 0.0 0.0 0.0 0.0 0.0
0.0 0.0 0.0 0.0 0.0 0.0 0.015383105 0.0
0.0 0.0 0.01907401 0.0 0.0 0.0 0.0 0.0
0.0 0.02106639 0.0 0.0 0.0 0.0 0.007116865 0.0004014185
0.00032805625 0.0002708159 0.0 0.0 1.756353e-05 0.0 0.00017281304 5.8653543e-05
0.0 0.0 0.00017644346 0.0 0.0 0.0 3.502586e-05 0.00012519008
0.0 0.0 0.0 0.0 0.0 8.834337e-05 3.8222634e-06 5.5036173e-05
3.6101363e-05 4.516918e-05 4.244298e-05 3.410911e-05
00000000: 0000 0000 0000 0000 e552 643d 0000 0000
00000010: 0000 0000 0000 0000 0000 0000 0000 0000
00000020: 0000 0000 0000 0000 0000 0000 0000 0000
00000030: 0000 0000 0000 0000 0000 0000 0000 0000
00000040: 0000 0000 0000 0000 0000 0000 0000 0000
00000050: 0000 0000 0000 0000 0000 0000 0000 0000
00000060: 0000 0000 0000 0000 0000 0000 1dc9 543b
00000070: 0000 0000 0000 0000 6f15 4b3c 0000 0000
00000080: 0000 0000 0000 0000 0000 0000 0000 0000
00000090: 0000 0000 0000 0000 26be 663c 0000 0000
000000a0: 0000 0000 0000 0000 0000 0000 0000 0000
000000b0: 0000 0000 0000 0000 0000 0000 0000 0000
000000c0: 0000 0000 0000 0000 0000 0000 0000 0000
000000d0: 0000 0000 0000 0000 6b09 7c3c 0000 0000
000000e0: 0000 0000 0000 0000 1941 9c3c 0000 0000
000000f0: 0000 0000 0000 0000 0000 0000 0000 0000
00000100: 0000 0000 6c93 ac3c 0000 0000 0000 0000
00000110: 0000 0000 0000 0000 9734 e93b 7b75 d239
00000120: f7fe ab39 4bfc 8d39 0000 0000 0000 0000
00000130: 6555 9337 0000 0000 2635 3539 c302 7638
00000140: 0000 0000 0000 0000 ae03 3939 0000 0000
00000150: 0000 0000 0000 0000 bbe8 1238 7545 0339
00000160: 0000 0000 0000 0000 0000 0000 0000 0000
00000170: 0000 0000 fc44 b938 fe40 8036 a4d6 6638
00000180: 8b6b 1738 0a74 3d38 ce04 3238 6110 0f38

c f4 [100]
0.003042969 7.015638e-05 0.0026625353 0.000573436 0.0010707981 0.0019466738 0.00010566663 0.00031954126
0.0011637834 0.0021365618 2.118004e-05 0.0021773025 0.0008313248 0.0015528231 0.0028267875 0.0018652718
0.00067446 0.0009118439 0.0014599258 0.0012020803 0.0026762402 0.0015462056 0.002998487 0.0020187614
5.343177e-05 0.0015617566 0.0008139101 0.00042498283 0.00024206359 0.0002100237 0.0029089174 0.001595746
0.0020276029 0.0030687228 0.0027031777 0.0028239614 0.0012934627 0.00074481237 0.0003386705 0.0009550597
0.0016657215 0.0017427503 0.002017664 0.0029317196 0.001307195 0.0010694441 0.0026484346 0.0014607765
0.0027181115 0.0008741575 0.00027129575 0.0023611258 0.0027707014 0.00029616378 0.00042695148 0.0020462517
0.000627374 0.00049370114 0.0013660904 0.0005266013 0.0008190798 0.0029570528 0.0031034707 0.00011536633
0.0006425588 0.0028751958 0.0016780662 0.00057104585 0.00049157685 0.0014490153 0.00013704326 0.0013581252
0.0005718594 0.003029561 0.0006351823 0.0026558558 0.0014364419 0.0011520763 0.0028472755 0.0029309012
0.001346165 0.0021934547 0.0015531846 0.0022516176 0.0026470474 0.0027439906 0.0012070611 0.0026337737
0.0007615165 0.0023878813 0.00048131205 0.0011724683 0.00053731084 0.0016874134 0.00086724607 0.0016513116
0.0006961099 0.0010571313 0.0026134278 0.0008105095
00000000: 8c6c 473b eb20 9338 ee7d 2e3b a352 163a
00000010: 065a 8c3a 8927 ff3a 5799 dd38 1a88 a739
00000020: 178a 983a 8f05 0c3b caab b137 13b1 0e3b
00000030: 43ed 593a 1988 cb3a a041 393b 237c f43a
00000040: 3fce 303a cf08 6f3a fb5a bf3a 1f8f 9d3a
00000050: dc63 2f3b 0daa ca3a 4482 443b 324d 043b
00000060: ed1b 6038 dbb3 cc3a 955c 553a 3bd0 de39
00000070: 73d2 7d39 cf39 5c39 89a3 3e3b 5a28 d13a
00000080: 88e1 043b a01c 493b cc27 313b 3612 393b
00000090: 6889 a93a 833f 433a 968f b139 f95c 7a3a
000000a0: 5754 da3a ff6c e43a c93a 043b 1822 403b
000000b0: 3056 ab3a 972c 8c3a 5c91 2d3b 8777 bf3a
000000c0: 5822 323b b727 653a b33c 8e39 1ebd 1a3b
000000d0: a894 353b 6e46 9b39 75d8 df39 681a 063b
000000e0: 5b76 243a b96b 013a 630e b33a 9d0b 0a3a
000000f0: 84b7 563a 1dcb 413b 9963 4b3b d4f0 f138
00000100: 6471 283a c86d 3c3b 8ff2 db3a 3db2 153a
00000110: 2add 003a e3ec bd3a 45b3 0f39 1f03 b23a
00000120: d6e8 153a 998b 463b 5d82 263a de0d 2e3b
00000130: fe46 bc3a 4401 973a 5b99 3a3b 5d14 403b
00000140: cd71 b03a 10c0 0f3b 3a94 cb3a e08f 133b
00000150: 167a 2d3b 86d4 333b 4036 9e3a 649b 2c3b
00000160: 82a0 473a 007e 1c3b 9c58 fc39 82ad 993a
00000170: 52da 0c3a 332c dd3a e657 633a d370 d83a
00000180: 257b 363a 718f 8a3a 0b46 2b3b 5f78 543a

q f4 [1, 100]
0.87157863 0.60554904 1.7336522 0.86721754 0.7928569 0.8517575 0.5855185 0.7411505
1.1152323 0.6342396 -3.1240128e-05 0.7063951 0.2942533 0.4630148 0.4377466 0.8941394
0.9304654 0.8591265 0.22019036 0.30019665 0.13684568 0.0037497939 0.058629986 0.19911677
0.5192355 0.94050556 0.43884346 -8.849336e-31 0.6516592 0.5211452 2.391e-41 0.8608694
0.5349229 0.22021447 0.6510017 0.78769463 0.24873926 0.93780184 3.6146777e-13 0.6691412
0.2636151 0.21559739 0.9925077 0.45159963 0.19199379 0.50610006 0.43742347 0.69325846
0.8915989 0.87304544 0.67551017 0.5125031 0.32847333 0.8145527 -6.083e-42 0.1365691
0.9551396 0.2900863 -5.3297e-41 0.72806376 0.6329797 0.48124573 0.6930107 0.437077
0.9077837 8.35928e-33 0.8244971 0.42672712 0.9138073 0.73002756 0.03521576 0.45303217
0.7529315 0.88385415 0.36681458 0.622304 0.6811477 0.37425086 0.74021626 0.69478637
0.14505827 0.33328053 0.82528245 0.013456897 0.31992814 0.39224398 0.5690945 0.64855224
0.35337627 0.32011136 0.31606415 0.45088914 0.09969583 0.54213405 0.14071713 0.73764855
0.5684983 0.8741288 0.31771433 0.84036195
00000000: c71f 5f3f 4305 1b3f 51e8 dd3f f801 5e3f
00000010: abf8 4a3f c80c 5a3f 8ae4 153f 0abc 3d3f
00000020: efbf 8e3f 875d 223f d507 03b8 4fd6 343f
00000030: 5ea8 963e 4710 ed3e 5320 e03e 52e6 643f
00000040: fb32 6e3f b7ef 5b3f 9579 613e 60b3 993e
00000050: 4621 0c3e 1abf 753b ff25 703d 44e5 4b3e
00000060: 9eec 043f f9c4 703f 17b0 e03e b496 8f8d
00000070: 23d3 263f c669 053f a742 0000 f061 5c3f
00000080: b5f0 083f e77f 613e 0ca8 263f 5ba6 493f
00000090: 81b5 7e3e c813 703f ff7c cb2a d64c 2b3f
000000a0: 8ff8 863e 90c5 5c3e fc14 7e3f 1138 e73e
000000b0: 059a 443e c68f 013f f8f5 df3e 6379 313f
000000c0: d33f 643f e87f 5f3f 3cee 2c3f 6733 033f
000000d0: a82d a83e 8786 503f f510 0080 c5d8 0b3e
000000e0: 0784 743f 3186 943e 9294 0080 6362 3a3f
000000f0: f50a 223f d765 f63e 2669 313f 8ec8 df3e
00000100: 8364 683f 8e9d 2d0a 3e12 533f fa7b da3e
00000110: 46ef 693f 16e3 3a3f 673e 103d d5f3 e73e
00000120: 1ec0 403f 4444 623f 1fcf bb3e 514f 1f3f
00000130: b25f 2e3f cf9d bf3e d07e 3d3f 85dd 313f
00000140: 288a 143e bfa3 aa3e b645 533f 517a 5c3c
00000150: 9fcd a33e 34d4 c83e 2db0 113f 8507 263f
00000160: bced b43e a3e5 a33e 29d3 a13e f1da e63e
00000170: 542d cc3d 4cc9 0a3f 2718 103e 89d6 3c3f
00000180: 1b89 113f e8c6 5f3f 74ab a23e f621 573f

z f4 [1, 100]
0.2973081 0.3641358 0.40152687 0.29736018 0.04629278 0.7361041 0.4889421 0.3556679
0.53661996 0.21136135 0.6633901 0.7332735 0.29952317 0.23045367 0.0730288 0.668309
0.3671853 0.17902541 0.89195776 0.34465975 0.3850127 0.6779369 0.19067848 0.90618134
0.6045217 0.28399318 0.48981744 0.90450865 0.3263989 0.62099516 0.45940828 0.0501076
0.4447201 0.94832593 0.421601 0.3775577 0.7391585 0.9888457 0.80222785 0.28309524
0.22182208 0.057002485 0.6177631 0.80410475 0.08006799 0.43902677 0.67779356 0.31211603
0.85021013 0.28560662 0.96637326 0.5090589 0.5565064 0.6725322 0.21554327 0.6381227
0.98416835 0.6869113 0.30946225 0.45108056 0.5375968 0.28686768 0.4354022 0.4545414
0.16594976 0.076294005 0.5057063 0.24743187 0.96009856 0.84931296 0.16304785 0.110129714
0.5040767 0.06552279 0.87377465 0.19937247 0.5883536 0.203013 0.4067502 0.59507966
0.1426022 0.27575547 0.18509531 0.8881544 0.9405831 0.45242387 0.05176282 0.00038045645
0.5576674 0.78116065 0.15948784 0.665188 0.4258821 0.2865681 0.91799986 0.904932
0.19146162 0.20200336 0.47282314 0.107988775
00000000: c438 983e 0270 ba3e ee94 cd3e 983f 983e
00000010: 809d 3d3d 5171 3c3f 9e56 fa3e 1a1a b63e
00000020: ed5f 093f 1c6f 583e efd3 293f d0b7 3b3f
00000030: 1a5b 993e 0cfc 6b3e 2090 953d 4c16 2b3f
00000040: b6ff bb3e 7052 373e 5857 643f 3e77 b03e
00000050: 6220 c53e 468d 2d3f 3841 433e 80fb 673f
00000060: efc1 1a3f 8e67 913e 5ac9 fa3e e18d 673f
00000070: c21d a73e 8af9 1e3f 9037 eb3e a03d 4d3d
00000080: 5ab2 e33e 7dc5 723f 16dc d73e 3e4f c13e
00000090: 7e39 3d3f fe24 7d3f ce5e 4d3f dcf1 903e
000000a0: 5425 633e 707b 693d b925 1e3f cfd9 4d3f
000000b0: b0fa a33d 1ec8 e03e e183 2d3f accd 9f3e
000000c0: 5fa7 593f 083b 923e 3d64 773f af51 023f
000000d0: 3477 0e3f 122b 2c3f 60b7 5c3e 025c 233f
000000e0: 75f2 7b3f 6bd9 2f3f d671 9e3e 08f4 e63e
000000f0: f29f 093f 52e0 923e 0aed de3e a6b9 e83e
00000100: bcee 293e 0840 9c3d f875 013f c85e 7d3e
00000110: 05c9 753f 936c 593f 04f6 263e b08b e13d
00000120: 2c0b 013f d030 863d b2af 5f3f 4c28 4c3e
00000130: 579e 163f a4e2 4f3e 9041 d03e 2457 183f
00000140: 5006 123e d22f 8d3e a089 3d3e 165e 633f
00000150: 0eca 703f 1aa4 e73e 4005 543d 0078 c739
00000160: 4ac3 0e3f 25fa 473f c850 233e c349 2a3f
00000170: 380d da3e 0eb9 923e 0a02 6b3f a0a9 673f
00000180: 840e 443e f8d9 4e3e e015 f23e 3829 dd3d
