saved_models/stable_ddpg/policy_net_checkpoint_a2.pth (torch, 3223 bytes, 4 tensors)

b f4 [100]
0.0 0.0 0.0 0.0 0.0 0.0 0.0 0.0
0.0 0.0 0.0 0.0 0.0 0.0 0.0 0.0
0.0 0.0 0.0 0.0 0.0 0.0 0.0 0.0
0.0 0.0 0.076274686 0.023936428 0.0 0.0 0.0 0.0
0.0 0.0 0.0 0.0 0.017348029 0.0 0.0 0.0
0.0 0.0 0.0 0.0 0.0 0.0 0.0 0.0
0.0020866706 0.0 0.0 0.0 0.006398392 0.0 0.0 0.0
0.0 0.0 0.0 0.0 0.0 0.0 0.0 0.0
0.0 0.0 0.0 0.0 0.0 0.0 0.0 0.0
0.0 0.0 0.0 0.0 0.0 0.0 0.0 0.0059156734
0.0 0.0 0.0 0.0 0.0063887597 0.0 0.0 0.0062308973
0.002108596 0.0009812277 0.00069432653 0.0011959652 0.00015632765 7.6720346e-05 5.095305e-05 4.1775434e-06
3.8171132e-05 1.3566562e-05 3.1371674e-05 6.910877e-05
00000000: 0000 0000 0000 0000 0000 0000 0000 0000
00000010: 0000 0000 0000 0000 0000 0000 0000 0000
00000020: 0000 0000 0000 0000 0000 0000 0000 0000
00000030: 0000 0000 0000 0000 0000 0000 0000 0000
00000040: 0000 0000 0000 0000 0000 0000 0000 0000
00000050: 0000 0000 0000 0000 0000 0000 0000 0000
00000060: 0000 0000 0000 0000 e735 9c3d 5416 c43c
00000070: 0000 0000 0000 0000 0000 0000 0000 0000
00000080: 0000 0000 0000 0000 0000 0000 0000 0000
00000090: 741d 8e3c 0000 0000 0000 0000 0000 0000
000000a0: 0000 0000 0000 0000 0000 0000 0000 0000
000000b0: 0000 0000 0000 0000 0000 0000 0000 0000
000000c0: 86c0 083b 0000 0000 0000 0000 0000 0000
000000d0: 9aa9 d13b 0000 0000 0000 0000 0000 0000
000000e0: 0000 0000 0000 0000 0000 0000 0000 0000
000000f0: 0000 0000 0000 0000 0000 0000 0000 0000
00000100: 0000 0000 0000 0000 0000 0000 0000 0000
00000110: 0000 0000 0000 0000 0000 0000 0000 0000
00000120: 0000 0000 0000 0000 0000 0000 0000 0000
00000130: 0000 0000 0000 0000 0000 0000 44d8 c13b
00000140: 0000 0000 0000 0000 0000 0000 0000 0000
00000150: cd58 d13b 0000 0000 0000 0000 8e2c cc3b
00000160: 5f30 0a3b 8a9c 803a 7703 363a efc1 9c3a
00000170: e2eb 2339 ece4 a038 6cb6 5538 d32c 8c36
00000180: f119 2038 f19b 6337 1495 0338 7dee 9038

c f4 [100]
0.00050425954 0.0027880243 3.8079654e-06 0.0014451913 0.0020417438 0.0014752975 0.0010031987 0.0019946445
0.0022108264 0.0021695269 0.001683496 0.0009842981 0.0018801334 0.0021360482 0.0011220013 0.000639711
0.00055629615 1.5954849e-05 0.00039213046 0.001086417 0.00047558834 0.0028387466 0.0014280753 0.0013960409
0.0009847113 0.0005117453 0.003040693 0.0012837322 0.0012779143 0.0016682497 0.0015066807 0.0027992046
0.0020161716 0.0022537906 0.0015401071 0.00020472465 0.0016190408 0.0022071209 0.0006036211 0.0026344967
0.000785416 0.00052999676 0.0018297564 0.0022128504 0.00014677356 0.0016334052 0.0024140845 0.0007147362
0.00020768994 0.002236446 0.0021445581 0.003045443 0.0030266894 0.00042744356 0.0009410797 0.0017888593
0.0017783138 0.0014099487 0.0009379189 0.0023354143 0.002735314 0.0013256462 1.1900285e-05 0.001015632
0.002003316 0.0019423045 0.001187158 0.00038968667 0.0008951949 0.0011074295 2.0777657e-05 0.003043575
0.001981904 0.001246603 0.00065207493 0.0024968015 0.0025123889 0.0006385788 0.0028287224 0.0016016737
0.0008826164 0.0020202077 0.0018645673 0.0002332237 0.0020023577 0.0022286766 0.00086067425 0.0019642485
0.002248705 0.0030279106 0.0015774671 0.0014852709 2.9140954e-05 0.00022994829 0.002712464 0.0017802238
0.0014740385 0.0021009613 0.00085040805 0.0018198964
00000000: 4930 043a 49b7 363b 598c 7f36 936c bd3a
00000010: c7ce 053b c55e c13a c37d 833a 95b8 023b
00000020: 83e3 103b 9f2e 0e3b c1a8 dc3a 9003 813a
00000030: cf6e f63a f1fc 0b3b 1e10 933a 47b2 273a
00000040: 67d4 113a c7d6 8537 dc96 cd39 1b66 8e3a
00000050: 6358 f939 440a 3a3b 412e bb3a 5cfb b63a
00000060: 6e11 813a a526 063a 5d46 473b e842 a83a
00000070: b07f a73a 2ca9 da3a d17b c53a dc72 373b
00000080: bf21 043b 55b4 133b 6bdd c93a 5bab 5639
00000090: ff35 d43a 58a5 103b 543c 1e3a 85a7 2c3b
000000a0: 60e4 4d3a 7bef 0a3a 70d4 ef3a 7805 113b
000000b0: 3ae7 1939 fc17 d63a 9e35 1e3b 225d 3b3a
000000c0: 58c7 5939 5691 123b b78b 0c3b 0e96 473b
000000d0: 6c5b 463b 811a e039 cab2 763a 2878 ea3a
000000e0: 4f16 e93a 07ce b83a acde 753a c00d 193b
000000f0: f442 333b 4ec1 ad3a 56a7 4737 f41e 853a
00000100: 114a 033b ed94 fe3a 6a9a 9b3a dc4e cc39
00000110: 83ab 6a3a 2b27 913a ae4b ae37 b776 473b
00000120: d5e2 013b 0e65 a33a 02f0 2a3a 61a1 233b
00000130: e4a6 243b 4c66 273a 1662 393b 40ef d13a
00000140: 625f 673a 7665 043b 7f64 f43a 838d 7439
00000150: fd39 033b fd0e 123b df9e 613a 9fba 003b
00000160: 025f 133b e96f 463b 03c3 ce3a 6cad c23a
00000170: b973 f437 461e 7139 98c3 313b 6656 e93a
00000180: 8634 c13a 48b0 093b ebed 5e3a 9789 ee3a

q f4 [1, 100]
0.09612921 0.06364933 1.0183213 0.0038829008 0.4722547 0.86653763 0.9672864 0.35647988
-1.0483625e-05 0.32814863 0.56157315 0.077655144 0.7648895 0.54933196 0.6801854 0.3737299
0.5111222 0.6791795 0.56726754 0.37473202 0.70430195 0.3681825 0.9218516 0.7436854
0.45476788 0.09656864 1.8121635 1.4164271 0.49620166 0.22683528 0.7401169 0.7323736
0.64654034 0.74461746 0.6836476 0.6215666 1.3743762 0.22140905 0.15945497 2.5155575e-08
0.5167462 0.31878883 0.14813787 0.45237216 0.74702024 0.77528113 0.64036095 -0.013715104
1.256138 0.35665497 0.4617949 0.78586596 1.3049506 0.004751519 0.8818544 1.1185597
0.004935868 0.25973007 0.31733915 0.7846552 0.4339952 0.46051782 1.0133098 0.26416585
0.94326997 0.14134604 0.20431742 0.86376256 0.44727916 0.59156114 0.4897572 1.128678
1.0605105 0.8030324 0.17311536 0.37496004 -7.379471e-05 0.113741115 0.05871052 1.2702129
0.10757652 0.61864716 0.48783296 0.7293938 1.2538966 0.12728098 -3.596199e-10 1.0837017
0.8356001 0.5443257 0.4541014 3.2949785e-07 0.4291199 0.71231693 0.27778298 0.4341303
0.18588305 0.03875953 0.24260277 0.85078907
00000000: 64df c43d 945a 823d 5a58 823f 4478 7e3b
00000010: 5ecb f13e 69d5 5d3f 15a0 773f 8884 b63e
00000020: d4e2 2fb7 1903 a83e 42c3 0f3f a909 9f3d
00000030: cccf 433f 05a1 0c3f a120 2e3f 8759 bf3e
00000040: e8d8 023f b5de 2d3f 7238 113f e0dc bf3e
00000050: 224d 343f 6b82 bc3e 77fe 6b3f 2b62 3e3f
00000060: 56d7 e83e c7c5 c53d f9f4 e73f 7c4d b53f
00000070: 250e fe3e 8247 683e 4d78 3d3f d67c 3b3f
00000080: ab83 253f 409f 3e3f 8703 2f3f fd1e 1f3f
00000090: 8feb af3f 0eb9 623e 2a48 233e b215 d832
000000a0: 7b49 043f 4a38 a33e 74b1 173e 539d e73e
000000b0: b83c 3f3f d378 463f b2ee 233f 51b5 60bc
000000c0: 21c9 a03f 7b9b b63e 6270 ec3e 832e 493f
000000d0: 9f08 a73f a1b2 9b3b 36c1 613f f72c 8f3f
000000e0: 10bd a13b 57fb 843e 477a a23e 2adf 483f
000000f0: 9e34 de3e fec8 eb3e 23b4 813f bf40 873e
00000100: 247a 713f 04bd 103e 9638 513e 8b1f 5d3f
00000110: c601 e53e 8d70 173f 75c1 fa3e 8578 903f
00000120: cfbe 873f 8893 4d3f 2745 313e c3fa bf3e
00000130: 3cc2 9ab8 1af1 e83d 717a 703d 5696 a23f
00000140: 1451 dc3d a95f 1e3f 3ec5 f93e 8db9 3a3f
00000150: af7f a03f f255 023e 00b4 c5af bdb6 8a3f
00000160: e3e9 553f ee58 0b3f fb7f e83e d7e5 b034
00000170: 9bb5 db3e 675a 363f 9239 8e3e 5446 de3e
00000180: 2058 3e3e 50c2 1e3d dc6c 783e 50cd 593f

z f4 [1, 100]
0.4604231 0.38222408 0.11361754 0.5947439 0.4319901 0.20714206 0.3001951 0.25594246
0.8338919 0.89700675 0.054572165 0.90634775 0.8203082 0.17792535 0.40900218 0.9073468
0.54354906 0.8246693 0.7899743 0.45137155 0.026459157 0.45762163 0.42818564 0.3416252
0.4525479 0.7138888 0.46854734 0.119190395 0.37247056 0.16716182 0.31677085 0.9992612
0.32854372 0.98962456 0.26174152 0.6398768 0.2420628 0.7519353 0.83548135 0.7905682
0.8439432 0.55897295 0.65570104 0.08208299 0.95906395 0.20571136 0.28316027 0.66055053
0.42986232 0.7695052 0.66294897 0.5734269 0.07901746 0.15006238 0.748311 0.26536375
0.21851647 0.055722296 0.37959164 0.81006604 0.76425564 0.7463734 0.39540702 0.2169196
0.42143887 0.93430364 0.5942067 0.98876536 0.73749965 0.2692777 0.70591813 0.46658027
0.96152204 0.76736945 0.81544316 0.75424826 0.32875675 0.4711315 0.7271562 0.6707097
0.2770521 0.63276863 0.4023031 0.91573524 0.54928493 0.34638643 0.23634404 0.6705058
0.028111637 0.45555174 0.36322635 0.6452457 0.57090664 0.6051697 0.5911164 0.68675596
0.7964356 0.08874613 0.63306427 0.5791818
00000000: 94bc eb3e e0b2 c33e 50b0 e83d 2341 183f
00000010: ce2d dd3e 0c1d 543e 2cb3 993e e40a 833e
00000020: f179 553f 3ca2 653f 1087 5f3d 6806 683f
00000030: b8ff 513f 1032 363e bc68 d13e e147 683f
00000040: 0826 0b3f 871d 533f c13b 4a3f 2c1a e73e
00000050: e0c0 d83c 624d ea3e 263b db3e 80e9 ae3e
00000060: 5cb4 e73e 6bc1 363f 70e5 ef3e 181a f43d
00000070: 76b4 be3e 782c 2b3e ca2f a23e 95cf 7f3f
00000080: e236 a83e 0958 7d3f fc02 863e f7ce 233f
00000090: 50df 773e d57e 403f 1be2 553f ad62 4a3f
000000a0: a90c 583f da18 0f3f 06dc 273f 201b a83d
000000b0: 3785 753f 00a6 523e 62fa 903e d719 293f
000000c0: ea16 dc3e 4bfe 443f 06b7 293f 1bcc 123f
000000d0: e8d3 a13d f4a9 193e 4f91 3f3f c2dd 873e
000000e0: c8c2 5f3e 103d 643d d659 c23e 7d60 4f3f
000000f0: 42a6 433f 5412 3f3f ca72 ca3e 2c20 5e3e
00000100: d6c6 d73e 862e 6f3f ee1d 183f ba1f 7d3f
00000110: c7cc 3c3f c4de 893e 0db7 343f 9ce3 ee3e
00000120: 4f26 763f 5372 443f e2c0 503f 6a16 413f
00000130: ce52 a83e 2638 f13e e926 3a3f a2b3 2b3f
00000140: c6d9 8d3e 20fd 213f acfa cd3e a06d 6a3f
00000150: f09d 0c3f 9059 b13e 2c04 723e 45a6 2b3f
00000160: 604a e63c 143e e93e cef8 b93e d22e 253f
00000170: f026 123f 67ec 1a3f 6853 173f 3dcf 2f3f
00000180: 34e3 4b3f 88c0 b53d 8010 223f 4245 143f
