saved_models/stable_ddpg/policy_net_checkpoint_a1.pth (torch, 3223 bytes, 4 tensors)

b f4 [100]
0	0x00000000	0.0
1	0x00000000	0.0
2	0x00000000	0.0
3	0x00000000	0.0
4	0x00000000	0.0
5	0x00000000	0.0
6	0x00000000	0.0
7	0x00000000	0.0
8	0x00000000	0.0
9	0x00000000	0.0
10	0x00000000	0.0
11	0x00000000	0.0
12	0x00000000	0.0
13	0x00000000	0.0
14	0x00000000	0.0
15	0x00000000	0.0
16	0x00000000	0.0
17	0x00000000	0.0
18	0x00000000	0.0
19	0x00000000	0.0
20	0x00000000	0.0
21	0x00000000	0.0
22	0x00000000	0.0
23	0x00000000	0.0
24	0x00000000	0.0
25	0x3d9f8625	0.07789258
26	0x00000000	0.0
27	0x3ad17a53	0.001598189
28	0x3ac97da8	0.0015372531
29	0x00000000	0.0
30	0x00000000	0.0
31	0x3b8717b7	0.0041227
32	0x00000000	0.0
33	0x3ab2e78b	0.0013649327
34	0x00000000	0.0
35	0x00000000	0.0
36	0x3aaad9f6	0.0013034928
37	0x00000000	0.0
38	0x00000000	0.0
39	0x3b44e1eb	0.0030041884
40	0x00000000	0.0
41	0x00000000	0.0
42	0x00000000	0.0
43	0x3abfbe39	0.0014628834
44	0x00000000	0.0
45	0x00000000	0.0
46	0x3b4bf008	0.0031118412
47	0x37f339ce	2.8994775e-05
48	0x3b45456b	0.003010119
49	0x00000000	0.0
50	0x00000000	0.0
51	0x3be813bb	0.00708243
52	0x3ad48b47	0.0016215824
53	0x00000000	0.0
54	0x3ac6bb04	0.0015161936
55	0x00000000	0.0
56	0x3b01692a	0.001974652
57	0x3bacafee	0.005269996
58	0x3ba106c8	0.0049141385
59	0x3b374e1f	0.0027970148
60	0x3af96ab0	0.0019028988
61	0x3ab17e36	0.0013541642
62	0x00000000	0.0
63	0x00000000	0.0
64	0x00000000	0.0
65	0x3afd3075	0.001931681
66	0x3ad95ec0	0.0016584024
67	0x39eb80c6	0.00044918637
68	0x3a97a70a	0.0011570167
69	0x3a920d97	0.0011142966
70	0x3a20c078	0.00061321957
71	0x3a0fa61d	0.000547977
72	0x3a85430d	0.0010167077
73	0x3a93fcb2	0.0011290519
74	0x3a7df0ad	0.00096870476
75	0x3a5e59d5	0.0008482014
76	0x3a1c8210	0.00059703086
77	0x39d762e6	0.0004108168
78	0x3a4a1111	0.00077082316
79	0x3a12c837	0.00055992923
80	0x399a143a	0.0002938824
81	0x389de1eb	7.528424e-05
82	0x39820fa6	0.0002480719
83	0x39d7e82f	0.00041180986
84	0x3a095761	0.0005239156
85	0x39f5b9d6	0.000468685
86	0x398e7a3f	0.0002717543
87	0x39a9ea49	0.00032408748
88	0x38940f90	7.060089e-05
89	0x3a563147	0.0008170795
90	0x38fcc10d	0.00012052255
91	0x3a116e35	0.0005547733
92	0x3a9559de	0.001139458
93	0x39ef878e	0.00045686628
94	0x39de5fb6	0.0004241445
95	0x3a726e57	0.00092480093
96	0x39c2348d	0.00037041717
97	0x3a744571	0.0009318209
98	0x3995cf5e	0.00028573995
99	0x3a289352	0.0006430644

c f4 [100]
0	0x37af4cb8	2.089735e-05
1	0x3b1d3cff	0.0023992655
2	0x3aa9feef	0.0012969653
3	0x3ab9fdd8	0.0014190031
4	0x3acf5f43	0.0015821237
5	0x3b2681d2	0.0025406969
6	0x3b178abd	0.0023123466
7	0x3aac74fc	0.0013157423
8	0x3b1a57fb	0.0023550976
9	0x3b26875a	0.0025410266
10	0x3b2f3d0b	0.0026739265
11	0x3b37a6fd	0.0028023117
12	0x3b17d51f	0.0023167802
13	0x3a12b54c	0.00055964733
14	0x398bd825	0.00026673186
15	0x3a245233	0.0006268352
16	0x3ad2dc8a	0.0016087454
17	0x3ac38f9a	0.0014920116
18	0x3a6eac04	0.0009104612
19	0x3abfc5b4	0.0014631064
20	0x3a68c4a6	0.00088794006
21	0x3b196db9	0.0023411347
22	0x3adaa307	0.0016680666
23	0x3a6d17bd	0.000904437
24	0x3a027027	0.00049758184
25	0x3b05f018	0.0020437296
26	0x3b0dc02b	0.0021629434
27	0x3a3e2843	0.0007253924
28	0x3a148896	0.0005666105
29	0x3b3a0385	0.0028383445
30	0x3a1d2343	0.0005994329
31	0x3adf4d7c	0.0017036642
32	0x3b281f95	0.002565359
33	0x3b296896	0.0025849692
34	0x3b356a99	0.0027681945
35	0x3a72dcbf	0.0009264461
36	0x394381c3	0.00018644989
37	0x3a2e2ae5	0.0006643965
38	0x3a9fef9f	0.001220215
39	0x382514d9	3.935848e-05
40	0x3b324cad	0.0027206347
41	0x3b2739f7	0.0025516727
42	0x3b3a6b09	0.0028445146
43	0x3b067088	0.0020513851
44	0x3ab9bc1a	0.0014170439
45	0x3962f7ab	0.00021645303
46	0x3a8b4d8e	0.0010627971
47	0x3b3bbda8	0.002864698
48	0x39e91115	0.0004445395
49	0x3a965856	0.0011470418
50	0x3ab0b9e0	0.001348313
51	0x3a9a6031	0.0011777935
52	0x3b013ddd	0.0019720711
53	0x3b3c5bdf	0.0028741283
54	0x3a79789b	0.0009516568
55	0x3a9de611	0.0012046715
56	0x3b1bdd0b	0.0023782875
57	0x3ac551e8	0.0015054317
58	0x395e5243	0.00021202215
59	0x3ad22e24	0.001603548
60	0x3a932145	0.0011225125
61	0x3a2a35ba	0.0006492991
62	0x3aaefe59	0.0013350948
63	0x3a803cd5	0.0009783754
64	0x3a10bda2	0.00055214216
65	0x399295ec	0.0002795899
66	0x3a7acde9	0.0009567426
67	0x3acb953d	0.0015532147
68	0x3aaac730	0.0013029333
69	0x38d67771	0.00010226563
70	0x3a5b61b4	0.0008368746
71	0x3a8f93e2	0.0010954107
72	0x3aa9a416	0.0012942578
73	0x3a4495f2	0.000749915
74	0x3aa3e832	0.0012505113
75	0x3b15348a	0.0022766911
76	0x3b3bb66f	0.0028642674
77	0x3aeef66e	0.0018231401
78	0x3b371a32	0.0027939198
79	0x3b2a440c	0.00259805
80	0x3b073752	0.0020632339
81	0x3ad7d29c	0.0016465965
82	0x3b3af44b	0.0028526958
83	0x3a92d07e	0.0011201052
84	0x3ac28862	0.0014841671
85	0x3a107f17	0.0005512102
86	0x3b29ea73	0.0025927096
87	0x39ad171d	0.00033014352
88	0x3acfbc26	0.0015848919
89	0x3a6c4f81	0.00090145326
90	0x3a85e152	0.0010214245
91	0x3b0d129c	0.0021525985
92	0x39e48c88	0.00043592253
93	0x3b10a873	0.002207306
94	0x3ae39c26	0.0017365261
95	0x3aa0bb7b	0.0012262905
96	0x3b3b03c0	0.002853617
97	0x39d9b84e	0.00041526783
98	0x3abe5197	0.0014520165
99	0x3b03b295	0.0020095457

q f4 [1, 100]
0	0x3c104c63	0.0088072745
1	0x3da4eb1d	0.08052657
2	0x3f2b0adf	0.6681346
3	0x3f0a79aa	0.54091895
4	0x3e9fc835	0.31207433
5	0x3f11a951	0.5689898
6	0x3ea6876b	0.3252519
7	0x3f7b317e	0.98122394
8	0x3f39eefe	0.726303
9	0x3f585a36	0.8451265
10	0x3eae1314	0.3399893
11	0x3f109478	0.56476545
12	0x3f8ede9b	1.1161684
13	0x3ea810a3	0.32825193
14	0x3f9aa3ed	1.2081276
15	0x3f0d8661	0.5528317
16	0x3f1ae7a6	0.6050972
17	0x3f25ccfb	0.647659
18	0x3f5809cb	0.8438994
19	0x39b30d20	0.0003415132
20	0x3e057e0f	0.13036369
21	0x3d6b66f4	0.05747123
22	0x3d8534e5	0.065042295
23	0x3f4aa497	0.79157394
24	0x3f4c3515	0.79768497
25	0x3fd7452f	1.6817988
26	0x3c42f009	0.011898049
27	0x3f7828a9	0.9693704
28	0x3f75e63c	0.96054435
29	0x3e2f7a31	0.17136456
30	0x3f12b82f	0.5731229
31	0x3f8ad962	1.084759
32	0x3e9d1f8a	0.30688125
33	0x3f3b9071	0.73267275
34	0xbcca859a	-0.02472191
35	0x3eec5260	0.46156597
36	0x3f485a14	0.7826245
37	0x3e4db6a3	0.20089202
38	0x3eb1018d	0.34571496
39	0xb993d981	-0.00028200078
40	0x3f36652b	0.7124812
41	0x3e4cbaf7	0.19993196
42	0x3f02c7a8	0.510859
43	0x80020212	-1.84414e-40
44	0x3eef1f20	0.46703434
45	0x3d5f82a9	0.054567967
46	0xa792a7cb	-4.070506e-15
47	0x0003888e	3.24493e-40
48	0x3f7891f9	0.97097737
49	0x8004767e	-4.09849e-40
50	0x3f031579	0.5120464
51	0x3f74de3d	0.9565161
52	0x3f308af7	0.68962044
53	0x3ec9aeef	0.39391276
54	0x3f2f2f9c	0.6843202
55	0x3e094940	0.13406849
56	0x3f4729cf	0.7779817
57	0x2bb9f923	1.321419e-12
58	0x25184982	1.3208804e-16
59	0x3f38564c	0.7200668
60	0x3f6fbeda	0.9365059
61	0x3f6b0b22	0.9181386
62	0x3e66d841	0.22543432
63	0x3e4f0f67	0.2022072
64	0x3dcab985	0.09898666
65	0x3f569b13	0.83830374
66	0x3f3d0f0a	0.7385107
67	0x3ef97ed8	0.48729587
68	0x3f5bcff7	0.85864204
69	0x3e1af83a	0.15133753
70	0x3f4ab741	0.79185873
71	0x3ef83412	0.48477226
72	0x3f724c8c	0.9464805
73	0x3ec91470	0.39273405
74	0x3f11817a	0.5683819
75	0x3f0cd39d	0.55010396
76	0x3e6bb744	0.23019129
77	0x3f62a2b4	0.88529515
78	0x3e3419d0	0.17587972
79	0x3d0a48e0	0.033760905
80	0x3f5ff8a2	0.8748876
81	0x3f3e24cd	0.74274904
82	0x3f670140	0.9023628
83	0x3e9df8b4	0.30853808
84	0x3e28abe4	0.16471821
85	0x3f1cfaed	0.6132038
86	0x3e872812	0.2639776
87	0x3f4cceb3	0.800029
88	0x3f0bfeec	0.54685855
89	0x3ef3b5ea	0.47599727
90	0x3f3ee80d	0.7457283
91	0x3f540cd1	0.82832056
92	0x3f56181e	0.8363055
93	0x3efc6cb8	0.49301696
94	0x3ebe918e	0.37220424
95	0x3e1e8a60	0.15482473
96	0x3f22a64f	0.63535017
97	0x3f1cf209	0.61306816
98	0x3f42981f	0.7601337
99	0x3f493e15	0.78610355

z f4 [1, 100]
0	0x3d2fee10	0.042951643
1	0x3f183ad4	0.59464765
2	0x3f7f78eb	0.9979388
3	0x3e8fc12e	0.28077072
4	0x3e833e9c	0.25633705
5	0x3d08e5b0	0.033422172
6	0x3f235a81	0.63809973
7	0x3f541565	0.82845145
8	0x3ec56f04	0.3856126
9	0x3f556032	0.8334991
10	0x3f713b2f	0.9423093
11	0x3ef03b26	0.46920127
12	0x3d711380	0.058856487
13	0x3e5a82f8	0.21339023
14	0x3e5e1350	0.21687055
15	0x3cf3b920	0.02975136
16	0x3eaddd64	0.3395797
17	0x3f2f9cbd	0.6859854
18	0x3e8a0d5e	0.26963323
19	0x3eb29d08	0.3488543
20	0x3e2535ac	0.16133755
21	0x3dada6a0	0.08479047
22	0x3f3395ad	0.7015026
23	0x3f3fa119	0.7485519
24	0x3f0c10b4	0.54712987
25	0x3f562ca7	0.83661884
26	0x3ed6dca6	0.41965216
27	0x3dc50888	0.09620768
28	0x3e8c0378	0.27346396
29	0x3f4b35be	0.7937888
30	0x3f555025	0.83325416
31	0x3ec292f6	0.38002747
32	0x3f4eff4c	0.808583
33	0x3f14f0c1	0.5817986
34	0x3e3fabb4	0.18717843
35	0x3f73eb84	0.95281243
36	0x3f1172f4	0.5681603
37	0x3f2901d1	0.66018397
38	0x3cc70220	0.024293005
39	0x3ebae56c	0.3650316
40	0x3e8a5512	0.27018028
41	0x3f758b8c	0.95916057
42	0x3f3452e9	0.7043901
43	0x3df35310	0.11881077
44	0x3f766e3a	0.9626194
45	0x3f55562a	0.833346
46	0x3f319691	0.6937037
47	0x3f6becd1	0.9215823
48	0x3e2fb2b8	0.1715802
49	0x3f2da215	0.6782544
50	0x3dbe2c60	0.092858076
51	0x3e9eba3e	0.31001467
52	0x3edd0408	0.43167138
53	0x3f35f1e8	0.71072245
54	0x3f3086c9	0.68955666
55	0x3d57bdc0	0.052671194
56	0x3e8394c2	0.2569943
57	0x3d4bdfd0	0.04977399
58	0x3e87de08	0.26536584
59	0x3f4e1be7	0.80511326
60	0x3f18c9d8	0.5968299
61	0x3f28690a	0.65785277
62	0x3ef0eb5a	0.4705456
63	0x3f449ded	0.76803476
64	0x3d9d33f8	0.07675928
65	0x3f2a7421	0.6658345
66	0x3f00ec9e	0.5036105
67	0x3e06b6a0	0.13155603
68	0x3f733586	0.95003545
69	0x3ec8bbf2	0.3920589
70	0x3f6c0320	0.9219227
71	0x3f42e098	0.7612395
72	0x3ed4af9a	0.41540223
73	0x3e7a40e8	0.24438822
74	0x3f4ea8bf	0.80726236
75	0x3f622e5f	0.88352007
76	0x3f576cd1	0.84150416
77	0x3f265d79	0.6498638
78	0x3f52e68c	0.82383037
79	0x3f617e42	0.8808328
80	0x3edec998	0.4351318
81	0x3ebcd2ac	0.3687948
82	0x3c521900	0.012823343
83	0x3f0ac77a	0.5421063
84	0x3e57f934	0.21091157
85	0x3f12f907	0.57411236
86	0x3e03f654	0.12886935
87	0x3f2ab367	0.66679996
88	0x3eaa37be	0.33245653
89	0x3f15106b	0.58228177
90	0x3f109931	0.5648375
91	0x3f6df0ca	0.9294554
92	0x3ef375fc	0.47550952
93	0x3e565874	0.2093218
94	0x3f45b937	0.7723574
95	0x3e90c5f2	0.2827602
96	0x3f09506e	0.5363835
97	0x3e43875c	0.19094604
98	0x3e47b634	0.19503099
99	0x3f39625c	0.7241571
