saved_models/stable_ddpg/policy_net_checkpoint_a0.pth (torch, 3223 bytes, 4 tensors)

b f4 [100]
0.0 0.0 0.0 0.0 0.0 0.0 0.0 0.0
0.0 0.0 0.0 0.0 0.0 0.0 0.0 0.0
0.0 0.0 0.0 0.0 0.0 0.0 0.0 0.0
0.0 0.0 0.0 0.0 0.0 0.0 0.0 0.0
0.0 0.0 0.0 0.0 0.0 0.09512705 0.012319215 0.006303322
0.0044096396 0.0046836482 0.002194816 0.0024387578 0.011411825 0.0 0.0 0.0
0.0 0.0 0.0 0.0 0.0 0.0 0.0 0.0
0.0 0.0 0.0 0.0 0.0 0.0 0.0 0.0
0.0 0.0029039748 0.0 0.00036051497 3.528336e-05 0.00042862355 8.107825e-05 6.5113236e-05
0.0002806916 0.00034313853 0.0001320646 0.00034065504 0.00037271055 0.0004257839 8.082762e-05 0.00044115089
0.00017488276 0.0004115456 0.00038156132 0.0003725984 7.326076e-05 0.00027418268 0.0002346634 0.0003554362
0.00033160916 0.00035232914 7.7996665e-05 0.000117299445 0.00013584686 0.00035357976 0.0002608264 6.737936e-05
0.00042014956 0.00027837654 6.155187e-05 8.502021e-05
00000000: 0000 0000 0000 0000 0000 0000 0000 0000
00000010: 0000 0000 0000 0000 0000 0000 0000 0000
00000020: 0000 0000 0000 0000 0000 0000 0000 0000
00000030: 0000 0000 0000 0000 0000 0000 0000 0000
00000040: 0000 0000 0000 0000 0000 0000 0000 0000
00000050: 0000 0000 0000 0000 0000 0000 0000 0000
00000060: 0000 0000 0000 0000 0000 0000 0000 0000
00000070: 0000 0000 0000 0000 0000 0000 0000 0000
00000080: 0000 0000 0000 0000 0000 0000 0000 0000
00000090: 0000 0000 f9d1 c23d 88d6 493c 198c ce3b
000000a0: bd7e 903b 4a79 993b e7d6 0f3b 91d3 1f3b
000000b0: aaf8 3a3c 0000 0000 0000 0000 0000 0000
000000c0: 0000 0000 0000 0000 0000 0000 0000 0000
000000d0: 0000 0000 0000 0000 0000 0000 0000 0000
000000e0: 0000 0000 0000 0000 0000 0000 0000 0000
000000f0: 0000 0000 0000 0000 0000 0000 0000 0000
00000100: 0000 0000 9d50 3e3b 0000 0000 8003 bd39
00000110: 38fd 1338 e1b8 e039 8e08 aa38 678d 8838
00000120: ca29 9339 46e7 b339 d27a 0a39 f299 b239
00000130: 5d68 c339 bf3b df39 0082 a938 454a e739
00000140: bc60 3739 b7c4 d739 4b0c c839 5059 c339
00000150: 92a3 9938 2dc0 8f39 fa0f 7639 d759 ba39
00000160: d4db ad39 d1b8 b839 2492 a338 a9fe f538
00000170: 1d72 0e39 ac60 b939 87bf 8839 054e 8d38
00000180: 8547 dc39 11f3 9139 6915 8138 e14c b238

c f4 [100]
0.00094647537 4.361585e-05 0.00091221515 0.0005725864 0.00010639365 0.001153556 0.0017948339 0.0006208627
0.0018232937 0.0025058163 0.002649929 0.0014527813 0.0007145289 0.0015706515 0.001873475 0.0020169981
0.00027493763 0.0022567979 0.0012862221 0.0006831399 0.0016760881 0.0014800011 0.00075767346 0.0015240458
0.0023621358 0.000408417 0.0015996945 0.0019048749 0.002351247 0.0024972206 0.0018987296 0.0025553112
0.0018976976 0.0017765788 0.0024901303 0.0019141634 0.00095477013 0.0015080585 0.0024170382 0.0023476514
0.001141855 0.0021173374 0.0013437441 0.0008104576 0.0021732193 0.0018234459 0.00071447913 0.001767587
0.0013712492 0.00049801084 0.0012633192 0.0020001885 0.0025802546 0.0013948241 0.0008446066 0.0011849614
0.00022912904 0.0017912411 0.0023385102 0.0014467328 0.0024825148 0.0013933873 0.0023048925 0.0022625872
0.0024519828 0.0016351733 0.00024835987 0.0019973128 0.00030405176 0.0016212901 0.0016493865 2.0085587e-05
0.0019289405 5.9509068e-05 0.0025869918 0.0017514343 0.0020721073 0.0012284272 7.028371e-05 0.00028283393
0.0021049033 0.0005208346 0.0010524574 0.0025773696 0.0024013428 0.0017099378 0.0011444794 0.0025447558
0.0009613055 0.0024315217 0.0018981004 0.0018457723 0.0011357937 0.0017577261 0.000687963 0.0021891845
0.00043202096 9.9053395e-05 0.0015166287 0.0022215387
00000000: e31c 783a 2af0 3638 b921 6f3a 9f19 163a
00000010: a81f df38 eb32 973a a240 eb3a 64c1 223a
00000020: 96fb ee3a 9f38 243b 6eaa 2d3b 406b be3a
00000030: 394f 3b3a 52de cd3a 648f f53a 9d2f 043b
00000040: 8125 9039 c9e6 133b 7496 a83a be14 333a
00000050: 2fb0 db3a 99fc c13a 9b9e 463a 7ec2 c73a
00000060: 10ce 1a3b cd20 d639 d7ac d13a ffac f93a
00000070: 6117 1a3b 69a8 233b cbde f83a 0277 273b
00000080: 2abc f83a 18dc e83a 7431 233b aae4 fa3a
00000090: 8a49 7a3a 0caa c53a 2c67 1e3b 0edb 193b
000000a0: 4caa 953a 07c3 0a3b 9220 b03a e474 543a
000000b0: 926c 0e3b b100 ef3a e24b 3b3a 61ae e73a
000000c0: 7dbb b33a f18c 023a f595 a53a 9815 033b
000000d0: 7d19 293b 88d2 b63a 9768 5d3a b550 9b3a
000000e0: 5c42 7039 14c8 ea3a b141 193b 4ca0 bd3a
000000f0: b0b1 223b 52a2 b63a ae0d 173b ea47 143b
00000100: 72b1 203b 5053 d63a 4c36 8239 59e5 023b
00000110: 2369 9f39 7881 d43a 3a30 d83a 787d a837
00000120: 81d4 fc3a 6099 7938 858a 293b 6290 e53a
00000130: 31cc 073b 2d03 a13a 4865 9338 5449 9439
00000140: 6bf2 093b 9e88 083a 9cf2 893a 16e9 283b
00000150: d95f 1d3b fe1f e03a 5b02 963a ebc5 263b
00000160: 1f00 7c3a 2a5a 1f3b aec9 f83a d7ed f13a
00000170: eade 943a 8063 e63a 6a58 343a 6c78 0f3b
00000180: df80 e239 e3ba cf38 9dc9 c63a 3c97 113b

q f4 [1, 100]
0.42248297 0.5476959 0.32080787 0.86374587 0.31374654 0.8692133 0.49373844 1.1441954
0.35463172 0.6573165 0.0071900976 1.031079 0.62809277 0.5313699 0.15035681 1.0272536
0.3972089 0.73853123 0.66422284 1.1454779 0.926094 0.33791998 1.2476681 0.18827087
0.10038822 1.0276072 0.06972234 0.72093534 0.43799716 0.032950137 0.19084537 0.7512375
0.5130906 0.47531 0.83768094 -0.028033776 0.8622478 1.788627 0.9142631 0.67897886
0.58082885 0.5560649 0.2683443 0.28689185 7.03535e-40 0.97670406 0.46422818 0.13950936
0.5493737 0.7531814 0.27879232 0.516864 0.6652856 0.38277954 0.89938945 0.22213718
0.38239563 0.9012672 0.55694723 0.99138576 0.8380669 0.5037433 0.37494186 0.69285566
0.30462202 0.07569113 0.35906583 0.19108588 0.79832757 0.3482942 0.06779516 0.954086
0.27664882 0.53326494 0.060447812 0.7934933 0.50011665 0.23021704 0.36906594 0.32644498
0.22882223 0.30082875 0.07244098 0.45380956 0.7483485 0.39848423 0.07880986 0.2720952
0.31979078 0.3818363 0.43671376 0.44695777 0.86178195 0.34265518 0.09834242 0.8629232
0.6061021 0.57292575 0.9520054 0.3751502
00000000: b04f d83e cc35 0c3f ee40 a43e 731e 5d3f
00000010: 63a3 a03e c384 5e3f 49cb fc3e ff74 923f
00000020: 4a92 b53e e545 283f e99a eb3b 66fa 833f
00000030: b0ca 203f dc07 083f 23f7 193e 0c7d 833f
00000040: f75e cb3e 6210 3d3f 820a 2a3f 059f 923f
00000050: 7f14 6d3f d903 ad3e 97b3 9f3f 14ca 403e
00000060: 5798 cd3d a288 833f 96ca 8e3d 388f 383f
00000070: 2a41 e03e b9f6 063d f86c 433e 1a51 403f
00000080: e859 033f d55b f33e 4272 563f 17a7 e5bc
00000090: 46bc 5c3f bbf1 e43f 260d 6a3f 8fd1 2d3f
000000a0: 33b1 143f 455a 0e3f 6d64 893e 7de3 923e
000000b0: 2ba9 0700 4709 7a3f 51af ed3e 8bdb 0e3e
000000c0: c1a3 0c3f 7fd0 403f debd 8e3e 3351 043f
000000d0: 2850 2a3f aefb c33e 633e 663f ee77 633e
000000e0: 5cc9 c33e 72b9 663f 1894 0e3f 75cb 7d3f
000000f0: 8d8b 563f 52f5 003f 61f8 bf3e fd5e 313f
00000100: 6bf7 9b3e f303 9b3d 7ad7 b73e 04ac 433e
00000110: 325f 4c3f 9e53 b23e 30d8 8a3d fb3e 743f
00000120: eaa4 8d3e 0d84 083f 2098 773d 6022 4b3f
00000130: a507 003f 04be 6b3e 36f6 bc3e cc23 a73e
00000140: 6050 6a3e 3a06 9a3e f05b 943d ba59 e83e
00000150: c493 3f3f 2006 cc3e 1067 a13d 1050 8b3e
00000160: 9ebb a33e 0c80 c33e f298 df3e a6d7 e43e
00000170: be9d 5c3f 8070 af3e c067 c93d 89e8 5c3f
00000180: 8229 1b3f 43ab 123f a0b6 733f b013 c03e

z f4 [1, 100]
0.2409563 0.15376425 0.18508893 0.86682385 0.72661793 0.088823855 0.9873622 0.46637172
0.8527083 0.72367316 0.4098395 0.93437284 0.40805727 0.3640349 0.71779126 0.9612173
0.8643651 0.6302681 0.75217015 0.4459108 0.47170764 0.12766111 0.46658045 0.96423984
0.6546778 0.2722699 0.21542531 0.5932308 0.67839706 0.84974116 0.76925576 0.6809324
0.32833773 0.030816853 0.6827825 0.47680646 0.1752649 0.8648468 0.3621816 0.5127735
0.70620066 0.055228353 0.12673175 0.5087884 0.23109758 0.81249887 0.617044 0.5692186
0.5486238 0.98371637 0.2881065 0.45847356 0.633242 0.7393305 0.7638432 0.37545586
0.53130907 0.66556036 0.3338623 0.45518833 0.30534947 0.40579367 0.79232585 0.11621022
0.14823937 0.960337 0.81701136 0.7324323 0.36109716 0.03980869 0.32634276 0.114575684
0.08165902 0.91387916 0.56511813 0.093696535 0.504362 0.7177748 0.74120647 0.60700715
0.5698909 0.13024795 0.8836024 0.38803333 0.7098127 0.12646168 0.6263515 0.966034
0.5070257 0.7491707 0.87626857 0.72907794 0.33354682 0.89874756 0.8568759 0.1336537
0.27844644 0.06249672 0.9208552 0.23134166
00000000: 40bd 763e 6074 1d3e f487 3d3e 2be8 5d3f
00000010: a203 3a3f 48e9 b53d c5c3 7c3f 46c8 ee3e
00000020: 174b 5a3f a542 393f 7cd6 d13e 0f33 6f3f
00000030: e2ec d03e c862 ba3e 2bc1 373f 5612 763f
00000040: 0847 5d3f 4059 213f 398e 403f 6c4e e43e
00000050: aa83 f13e 98b9 023e a2e3 ee3e 6cd8 763f
00000060: f798 273f f666 8b3e 7498 5c3e f9dd 173f
00000070: 6eab 2d3f a388 593f f2ed 443f 9651 2e3f
00000080: e21b a83e a073 fc3c d5ca 2e3f fa1f f43e
00000090: a478 333e 9a66 5d3f de6f b93e 2045 033f
000000a0: 91c9 343f 2037 623d f8c5 013e f53f 023f
000000b0: d8a4 6c3e edff 4f3f 98f6 1d3f 4fb8 113f
000000c0: 9c72 0c3f d6d4 7b3f b282 933e 0cbd ea3e
000000d0: 261c 223f c344 3d3f 3a8b 433f c03b c03e
000000e0: df03 083f 2a62 2a3f 00f0 aa3e 720e e93e
000000f0: c456 9c3e 30c4 cf3e ded5 4a3f a0ff ed3d
00000100: 10cc 173e a5d8 753f a827 513f af80 3b3f
00000110: bae1 b83e 700e 233d 6616 a73e a8a6 ea3d
00000120: d83c a73d fcf3 693f 95ab 103f f8e3 bf3d
00000130: de1d 013f 17c0 373f b5bf 3d3f d264 1b3f
00000140: 5fe4 113f b85f 053e c433 623f 4eac c63e
00000150: 49b6 353f 2c7f 013e 9258 203f 014e 773f
00000160: 70cc 013f a7c9 3f3f 2353 603f daa4 3a3f
00000170: a6c6 aa3e 5214 663f 385c 5b3f 84dc 083e
00000180: 8890 8e3e 90fc 7f3d 2bbd 6b3f d4e4 6c3e
