saved_models/stable_ddpg/policy_net_checkpoint_a4.pth (torch, 3223 bytes, 4 tensors)

b f4 [100]
0	0x00000000	0.0
1	0x00000000	0.0
2	0x00000000	0.0
3	0x00000000	0.0
4	0x00000000	0.0
5	0x3ca01184	0.019539602
6	0x00000000	0.0
7	0x00000000	0.0
8	0x00000000	0.0
9	0x00000000	0.0
10	0x00000000	0.0
11	0x00000000	0.0
12	0x00000000	0.0
13	0x00000000	0.0
14	0x00000000	0.0
15	0x00000000	0.0
16	0x00000000	0.0
17	0x00000000	0.0
18	0x00000000	0.0
19	0x00000000	0.0
20	0x00000000	0.0
21	0x00000000	0.0
22	0x00000000	0.0
23	0x00000000	0.0
24	0x00000000	0.0
25	0x00000000	0.0
26	0x00000000	0.0
27	0x00000000	0.0
28	0x00000000	0.0
29	0x00000000	0.0
30	0x00000000	0.0
31	0x00000000	0.0
32	0x3c8f0d33	0.017462349
33	0x00000000	0.0
34	0x00000000	0.0
35	0x00000000	0.0
36	0x00000000	0.0
37	0x00000000	0.0
38	0x00000000	0.0
39	0x00000000	0.0
40	0x00000000	0.0
41	0x00000000	0.0
42	0x00000000	0.0
43	0x00000000	0.0
44	0x3bd27638	0.006422784
45	0x3bdbfa48	0.0067131855
46	0x3c0bf3cd	0.008542013
47	0x00000000	0.0
48	0x3b8509c1	0.0040600006
49	0x3aa84d80	0.001284048
50	0x3a9bd546	0.0011889122
51	0x3bec8039	0.007217434
52	0x3bec4a21	0.0072109853
53	0x00000000	0.0
54	0x00000000	0.0
55	0x00000000	0.0
56	0x00000000	0.0
57	0x00000000	0.0
58	0x00000000	0.0
59	0x00000000	0.0
60	0x3b001043	0.0019540943
61	0x00000000	0.0
62	0x00000000	0.0
63	0x00000000	0.0
64	0x00000000	0.0
65	0x3bcdca75	0.0062802383
66	0x00000000	0.0
67	0x3be79a31	0.0070679416
68	0x00000000	0.0
69	0x00000000	0.0
70	0x00000000	0.0
71	0x00000000	0.0
72	0x3be093cb	0.006853556
73	0x00000000	0.0
74	0x00000000	0.0
75	0x00000000	0.0
76	0x00000000	0.0
77	0x00000000	0.0
78	0x00000000	0.0
79	0x00000000	0.0
80	0x3be6c6aa	0.0070427256
81	0x00000000	0.0
82	0x00000000	0.0
83	0x3be6cd13	0.0070434897
84	0x00000000	0.0
85	0x3be653da	0.007029039
86	0x3bdcc248	0.0067370273
87	0x00000000	0.0
88	0x00000000	0.0
89	0x00000000	0.0
90	0x00000000	0.0
91	0x00000000	0.0
92	0x3bf006cd	0.0073250295
93	0x00000000	0.0
94	0x3b99b760	0.0046910495
95	0x00000000	0.0
96	0x00000000	0.0
97	0x3b8af6ba	0.004240838
98	0x3b862370	0.00409358
99	0x33b7db50	8.561494e-08

c f4 [100]
0	0x3a5b7459	0.0008371524
1	0x3a19f97f	0.00058736646
2	0x358503e7	9.910408e-07
3	0x39b040de	0.00033617666
4	0x3b1026f2	0.002199587
5	0x3ab7abab	0.0014012953
6	0x3a4d1ed0	0.0007824721
7	0x3881c7f3	6.188443e-05
8	0x3b2cb4a5	0.002635279
9	0x3a71ba63	0.0009221194
10	0x3a5d9c43	0.0008453766
11	0x3ad14399	0.001596558
12	0x3b0e37b3	0.002170068
13	0x3a91ef20	0.0011133887
14	0x39e1cb55	0.00043066838
15	0x37dde70e	2.6452846e-05
16	0x3b321e8b	0.002717885
17	0x3b341dc7	0.002748357
18	0x39c7d264	0.0003811299
19	0x3b3c8f6d	0.0028772012
20	0x39fccf5a	0.00048219674
21	0x3b125563	0.0022328726
22	0x3b431f85	0.0029773426
23	0x3b39ff85	0.0028381061
24	0x39493bed	0.00019191178
25	0x3b2648c6	0.0025372966
26	0x3b423498	0.00296334
27	0x3ac7c773	0.0015241936
28	0x3b2b739c	0.0026161438
29	0x3acf69d7	0.0015824389
30	0x3b4184bc	0.0029528579
31	0x39c502af	0.00037576767
32	0x3af8f6c3	0.0018994439
33	0x39af92e8	0.00033488055
34	0x3aede922	0.0018151144
35	0x38d16cf7	9.986193e-05
36	0x3b23b1ff	0.002497792
37	0x3ac7f53a	0.0015255578
38	0x39a6b6c3	0.00031798155
39	0x39293294	0.00016135938
40	0x3ac06088	0.0014677206
41	0x3b2086cf	0.0024494415
42	0x3b2e2533	0.0026572465
43	0x3b33e559	0.0027449934
44	0x3b3417d1	0.0027480016
45	0x3b0d1917	0.0021529847
46	0x3af9335b	0.0019012498
47	0x3a9669cb	0.001147562
48	0x39348cf2	0.00017218644
49	0x3788b86e	1.6298345e-05
50	0x3b2c1735	0.002625895
51	0x399471cc	0.00028313545
52	0x3a4c0b37	0.00077836536
53	0x3adf6b33	0.0017045498
54	0x39b69137	0.0003482194
55	0x37c6740a	2.3657474e-05
56	0x3b1d98ef	0.0024047454
57	0x3aa988b9	0.0012934423
58	0x3b0387f9	0.002007006
59	0x3ab1f91f	0.0013578272
60	0x3a275f7a	0.00063847716
61	0x3aaa8223	0.0013008754
62	0x3b1432ba	0.0022613243
63	0x3af0cb92	0.0018371216
64	0x3ac6d4da	0.0015169636
65	0x3a83e406	0.0010062463
66	0x3a27d77f	0.0006402656
67	0x3a4a7a7b	0.00077239395
68	0x3b3f82fd	0.0029222362
69	0x3aaf5699	0.0013377249
70	0x3a65b329	0.00087623537
71	0x38e0ac8a	0.0001071329
72	0x3b1880ad	0.0023270056
73	0x3ab989b6	0.0014155421
74	0x3a867397	0.0010257837
75	0x39e84096	0.0004429861
76	0x3aa34889	0.001245753
77	0x3a5021cb	0.0007939606
78	0x3ad685ae	0.0016366744
79	0x3a9deb89	0.0012048344
80	0x3b316400	0.0027067661
81	0x39b04c07	0.0003362598
82	0x3a3d3d70	0.0007218933
83	0x389021e1	6.8727655e-05
84	0x3ae311b4	0.0017324002
85	0x3a65cbbd	0.0008766016
86	0x3b0706f5	0.0020603512
87	0x3b39334d	0.0028259337
88	0x3b41890c	0.002953115
89	0x3abcaddd	0.0014395077
90	0x3b254843	0.0025220073
91	0x3b2cfc08	0.002639534
92	0x3b21789e	0.0024638544
93	0x3b0a58f0	0.002111014
94	0x3a409df3	0.0007347755
95	0x3b2a4cdd	0.0025985755
96	0x3aa10e51	0.0012287592
97	0x3b25952c	0.0025265915
98	0x3b279e6b	0.0025576602
99	0x3b313159	0.002703747

q f4 [1, 100]
0	0x3f3169aa	0.69301856
1	0x3e80218b	0.2502559
2	0x3d8cc455	0.06873385
3	0x3de9946d	0.11405263
4	0x3e8d242a	0.27566653
5	0x3fe5607e	1.7920072
6	0x3f5ffacc	0.8749206
7	0x3eef241c	0.46707237
8	0x3f9a352b	1.2047476
9	0x3f7730e5	0.9655898
10	0x3e6eec71	0.23332383
11	0x3f2ea915	0.6822675
12	0x3f3fe9df	0.74966234
13	0x3c3246ae	0.010881109
14	0x3e708466	0.23488006
15	0x3f8730a7	1.0561723
16	0x3e9d3827	0.30706903
17	0x3f624c9d	0.8839815
18	0x3eb523d2	0.3537889
19	0x3f12d76f	0.57359976
20	0x3eebc233	0.460466
21	0x3ebe1135	0.37122503
22	0x3e7fc1a1	0.24976207
23	0x3ebf6d76	0.373882
24	0x3f9103c1	1.1329271
25	0x3f7330f3	0.94996566
26	0x3ea09155	0.3136088
27	0x3e804de5	0.2505943
28	0x3e830fbb	0.2559794
29	0x3f2ff101	0.6872712
30	0x3f75dbe7	0.9603867
31	0x3f54a653	0.8306629
32	0x3fc0fe3a	1.5077584
33	0x3e8cbb97	0.2748687
34	0x3f766f30	0.9626341
35	0x3f8f09ce	1.1174867
36	0x3e2464cb	0.16054074
37	0x3f858d8a	1.0433819
38	0xb665adf9	-3.4224925e-06
39	0x3e06e0f7	0.13171755
40	0x3f26d9af	0.6517591
41	0x3f8bbfe0	1.0917931
42	0x3f33846e	0.70123947
43	0x3f384683	0.7198259
44	0x3fa0535b	1.2525438
45	0x3fa0bb36	1.2557132
46	0x3fa5dd79	1.2958213
47	0x3d91267b	0.07087418
48	0x3f884573	1.0646194
49	0x3f151186	0.58229864
50	0x3f0884dc	0.5332773
51	0x000005eb	2.123e-42
52	0x39a2e681	0.00031070787
53	0x3eb36a12	0.35041863
54	0x3f513bf5	0.8173211
55	0x3f6255bc	0.8841207
56	0x3f6446ae	0.8917035
57	0x3f514f6c	0.81761813
58	0x3e8e2e4d	0.277697
59	0x3f3164ce	0.6929444
60	0x3dc7a99b	0.097491466
61	0x3ec5fc36	0.38668984
62	0x3f74e8e3	0.95667857
63	0x3ec13186	0.37733096
64	0x3f584832	0.8448516
65	0x3d074219	0.03302202
66	0x3f4e77aa	0.8065134
67	0x8002a3d9	-2.42448e-40
68	0x3ecdeff0	0.4022212
69	0x3e903d57	0.281718
70	0x3e8c1b7a	0.27364713
71	0x3f0d925a	0.5530144
72	0x3d01fbcc	0.031734273
73	0x3f7b8b2a	0.9825922
74	0x3ea9ee56	0.33189648
75	0x3f6e12e7	0.9299759
76	0x3f1b83cc	0.6074798
77	0x3ee961a1	0.45582297
78	0x3f5a4287	0.8525776
79	0x3f42c639	0.76083714
80	0x3547fb87	7.44993e-07
81	0x3eb33a9e	0.3500566
82	0x3f0679c3	0.52529544
83	0x3c940921	0.01807076
84	0x3f2c3514	0.6726849
85	0x00007365	4.1396e-41
86	0x3daa9bce	0.08330499
87	0x3f233b76	0.63762605
88	0x3f4667ed	0.7750233
89	0x3ef7ce7f	0.48399732
90	0x3f71262b	0.94198865
91	0x3f10f2aa	0.56620276
92	0x3dc7355d	0.09726975
93	0x3f14abfb	0.5807492
94	0x3eb374c2	0.35050017
95	0x3f730927	0.9493584
96	0x3f7bbce5	0.98335105
97	0x3ecb637f	0.39724347
98	0x3f2eae88	0.68235064
99	0x3f550454	0.8320973

z f4 [1, 100]
0	0x3e2ea68c	0.1705572
1	0x3df72478	0.12067503
2	0x3dbc6ba8	0.09200221
3	0x3ed98386	0.42483157
4	0x3f50798d	0.8143547
5	0x3f17883d	0.5919226
6	0x3f26a14a	0.6508986
7	0x3e866bac	0.26254022
8	0x3f2151c7	0.6301541
9	0x3ed096da	0.4074009
10	0x3e884e30	0.26622152
11	0x3f237b06	0.63859594
12	0x3e68e014	0.22741729
13	0x3e621790	0.22079301
14	0x3eb5c5b2	0.35502392
15	0x3f5cb832	0.8621856
16	0x3f031531	0.5120421
17	0x3f2ce8bc	0.67542624
18	0x3dbd0860	0.09230113
19	0x3f29d895	0.663461
20	0x3f347cf5	0.7050317
21	0x3f621f0c	0.88328624
22	0x3f129d7b	0.57271546
23	0x3e58a468	0.21156466
24	0x3ed2c752	0.41167694
25	0x3e96b626	0.29435843
26	0x3f6c41f7	0.92288154
27	0x3c9d76e0	0.019221723
28	0x3f2c14a2	0.67218983
29	0x3e93c0cc	0.2885803
30	0x3e9b009e	0.30273908
31	0x3ec9c04c	0.39404523
32	0x3d80e7d0	0.06294215
33	0x3e09b978	0.13449657
34	0x3e0b3dec	0.1359784
35	0x3db1f608	0.08689505
36	0x3f177c34	0.59173894
37	0x3eea7d1c	0.45798576
38	0x3f473ad0	0.77824116
39	0x3f17039f	0.589899
40	0x3f38be16	0.7216505
41	0x3dd84710	0.10560429
42	0x3e1282f0	0.14307761
43	0x3eacb716	0.33733433
44	0x3f174436	0.59088457
45	0x3f5de3e3	0.8667585
46	0x3d9de838	0.07710308
47	0x3eac50fc	0.33655536
48	0x3f231d3a	0.6371647
49	0x3e055be8	0.1302334
50	0x3edc2bc0	0.4300213
51	0x3e0a9cb0	0.13536334
52	0x3e38a8ec	0.18033189
53	0x3e3be79c	0.1835007
54	0x3f2b81e5	0.6699508
55	0x3f66d7bc	0.90172935
56	0x3f4bf482	0.79669964
57	0x3f0af4b6	0.5427965
58	0x3ddf2aa0	0.10896802
59	0x3d90ef60	0.07076907
60	0x3e3b0080	0.1826191
61	0x3c6d4700	0.01448226
62	0x3f67f787	0.9061207
63	0x3f008928	0.50209284
64	0x3ddfb5c8	0.10923344
65	0x3f3c4e25	0.7355674
66	0x3f2bd158	0.6711631
67	0x3ebf85c4	0.37406743
68	0x3f3d7dad	0.7401989
69	0x3eec84f4	0.46195185
70	0x3f636e9a	0.8884064
71	0x3dce4ce0	0.100732565
72	0x3f626be5	0.88445884
73	0x3f3a02b2	0.7266036
74	0x3f33a771	0.7017737
75	0x3f63273f	0.8873176
76	0x3f45d325	0.77275306
77	0x3f274e32	0.6535369
78	0x3f4c71d9	0.7986122
79	0x3f0c2113	0.5473797
80	0x3eb599d4	0.35468924
81	0x3f732130	0.94972515
82	0x3f58fa66	0.8475708
83	0x3eef7db6	0.46775597
84	0x3ea17e48	0.31541657
85	0x3e3a2830	0.18179393
86	0x3f0b0d9b	0.54317635
87	0x3ee9c65e	0.45659155
88	0x3f7ad108	0.97975206
89	0x3ec96988	0.39338326
90	0x3f2d8a63	0.67789286
91	0x3f29583e	0.6615027
92	0x3e9a7406	0.30166644
93	0x3dad1fc0	0.084533215
94	0x3f292ccd	0.66083986
95	0x3da024d0	0.078195214
96	0x3f1b6717	0.6070418
97	0x3e4ce500	0.20009232
98	0x3f44cc91	0.76874644
99	0x3f1f90d3	0.6233036
