saved_models/stable_ddpg/value_net_checkpoint_a1.pth (torch, 44267 bytes, 5 tensors)

linear1.weight f4 [100, 2]
-0.74106467 1.0062187 -0.66776776 0.8405697 0.61299366 0.8884588 0.5891235 0.21401691
-0.06121618 0.46581393 0.50343436 0.50522536 -0.08788031 -0.08255911 -0.5969838 -0.32107335
-0.031650268 0.11804327 -0.1221726 1.2521935 -0.12015516 1.0801682 -0.034422282 1.0811313
0.61278594 0.08875352 0.5573641 -0.15753068 0.3353014 0.34363374 -0.21517494 0.42177835
-0.6083211 1.0672481 0.86579585 0.51858234 0.36575305 0.3509329 0.10452995 -0.7093177
-0.3872587 0.54594225 1.0475343 -0.32969296 -0.6389956 1.0199609 -0.9289133 0.2598348
0.6339107 0.37815472 0.43656576 -0.12857103 0.21481614 1.0342242 0.67550534 0.17528023
-0.1665908 -1.0812311 -0.6914539 0.02045381 0.97241426 -1.0060247 -0.4257416 0.27835763
-0.5436275 0.8460042 -0.21554425 -0.4996409 0.5005752 -0.090422966 -0.63200474 -0.02921778
-0.05995478 0.9833729 -0.1084428 -0.044825394 -0.036198862 1.3290664 -0.059751425 -0.96049446
-0.3783814 -0.84782237 -0.37386274 -0.20801467 0.18348984 -0.21247928 0.6960064 0.75243413
-0.08793424 1.1158204 0.42628792 0.90851 -0.6402859 0.10336685 0.66998655 -0.15922341
0.053534392 -0.20671986 0.5996095 0.058919277 -0.28390175 0.4382073 -0.30662173 -0.7842782
-0.25964266 1.1293241 0.34431446 1.1483705 0.3933509 1.0650525 -0.38011256 0.1123382
-0.20032832 1.1714996 -0.6597935 -0.02442205 0.07946238 1.2166666 0.031015806 -0.4161836
-0.40702647 1.0095065 0.11186096 1.2200426 0.8489044 -0.16050264 0.9842539 0.6298858
0.3014972 0.7846092 -0.100925155 1.3262401 -0.36087376 1.3610789 0.9687049 0.73992974
-0.3562158 0.03182721 -0.12860863 0.7710205 0.67833984 -0.07892204 -0.17350191 1.1011187
-0.060210288 0.06995523 0.19787495 -0.016724406 0.5840634 0.44658306 -0.39285323 -0.4994255
-0.38773838 1.3722922 0.71274894 -0.11115566 -0.028905414 -0.99485433 -0.1447432 -0.012921274
0.3549336 0.26215038 -0.13703863 0.49016145 -0.31879514 0.7243293 0.8482179 1.0651668
-0.24590632 1.0887511 -0.40593407 0.8781706 -0.5756566 0.12308453 -0.016156528 1.1923559
0.6179011 0.67397887 0.27202478 -0.8624157 -0.20554243 -0.9014714 -0.16081941 -0.30899662
0.3000402 0.24504308 -0.23638849 0.5875988 0.68378216 0.4117138 -0.24391389 -0.08115541
0.6806705 0.4294708 -0.3022491 1.2084354 0.60547614 0.8699604 0.2696735 0.39896235
00000000: 6ab6 3dbf c6cb 803f d4f2 2abf 932f 573f
00000010: 27ed 1c3f 0972 633f ccd0 163f 4027 5b3e
00000020: d1bd 7abd 2a7f ee3e 13e1 003f 7356 013f
00000030: 98fa b3bd c014 a9bd eed3 18bf ba63 a4be
00000040: b6a3 01bd acc0 f13d a135 fabd e047 a03f
00000050: e913 f6bd f442 8a3f 61fe 0cbd 8362 8a3f
00000060: 8adf 1c3f 68c4 b53d 6aaf 0e3f b94f 21be
00000070: a0ac ab3e c3f0 af3e d256 5cbe 55f3 d73e
00000080: eeba 1bbf 969b 883f cca4 5d3f d0c1 043f
00000090: fc43 bb3e 7aad b33e cc13 d63d d895 35bf
000000a0: c646 c6be dfc2 0b3f 9b15 863f 84cd a8be
000000b0: 3795 23bf 148e 823f 43cd 6dbf 1109 853e
000000c0: f947 223f 7f9d c13e 8c85 df3e 20a8 03be
000000d0: c3f8 5b3e 7561 843f ebed 2c3f a97c 333e
000000e0: c796 2abe c865 8abf 1f03 31bf c08e a73c
000000f0: 24f0 783f 6bc5 80bf cefa d9be e484 8e3e
00000100: 2c2b 0bbf bb93 583f a2b7 5cbe efd0 ffbe
00000110: b225 003f ad2f b9bd 10cb 21bf 205a efbc
00000120: 2593 75bd 54be 7b3f 4217 debd d59a 37bd
00000130: 4245 14bd d91e aa3f e9bd 74bd f7e2 75bf
00000140: 35bb c1be e30a 59bf f06a bfbe cc01 55be
00000150: c3e4 3b3e 2b94 59be 7a2d 323f 869f 403f
00000160: de16 b4bd 34d3 8e3f 6942 da3e 1d94 683f
00000170: c7e9 23bf 00b2 d33d 3d84 2b3f 760b 23be
00000180: e146 5b3d 5fae 53be 0280 193f 5755 713d
00000190: 925b 91be b55c e03e 86fd 9cbe 75c6 48bf
000001a0: e2ef 84be b18d 903f fc49 b03e cefd 923f
000001b0: 4a65 c93e a453 883f 1d9e c2be 9211 e63d
000001c0: de22 4dbe b3f3 953f 3ae8 28bf c010 c8bc
000001d0: 2cbd a23d bbbb 9b3f dc14 fe3c 0416 d5be
000001e0: c665 d0be 8237 813f 5c17 e53d 5b2a 9c3f
000001f0: cc51 593f ce5a 24be 10f8 7b3f 3240 213f
00000200: d75d 9a3e 26dc 483f d9b1 cebd 3cc2 a93f
00000210: 72c4 b8be d537 ae3f 0bfd 773f 096c 3d3f
00000220: eb61 b6be 405d 023d fbb1 03be 9961 453f
00000230: aea7 2d3f e1a1 a1bd 7caa 31be 75f1 8c3f
00000240: 109f 76bd b044 8f3d bb9f 4a3e 9f01 89bc
00000250: 2e85 153f 89a6 e43e 0f24 c9be b3b4 ffbe
00000260: a585 c6be 45a7 af3f b776 363f 94a5 e3bd
00000270: 0ccb ecbc c6ae 7ebf 9037 14be c0b3 53bc
00000280: dbb9 b53e 9338 863e db53 0cbe 71f6 fa3e
00000290: 1e39 a3be a56d 393f cf24 593f 6357 883f
000002a0: dece 7bbe 325c 8b3f 97d6 cfbe cacf 603f
000002b0: 3b5e 13bf be13 fc3d b25a 84bc 1e9f 983f
000002c0: c42e 1e3f e189 2c3f d546 8b3e 46c7 5cbf
000002d0: b779 52be d4c6 66bf d8ad 24be ce34 9ebe
000002e0: de9e 993e 93ec 7a3e d30f 72be e06c 163f
000002f0: 590c 2f3f 27cc d23e 90c4 79be cf34 a6bd
00000300: 6c40 2e3f 99e3 db3e 65c0 9abe 03ae 9a3f
00000310: 7c00 1b3f bab5 5e3f a512 8a3e cb44 cc3e

linear1.bias f4 [100]
0.99470735 1.1568354 0.5922701 1.1825217 0.6491154 1.0230857 -0.23866472 1.0672231
0.55118716 0.5542871 -0.06014552 0.28722736 0.8243557 0.8246129 0.65791047 0.9777457
1.0443169 -0.63118863 0.6659763 -0.14342989 -0.11973344 -0.16863209 0.9270632 1.0320936
0.86184585 0.95926917 0.30234936 0.40629095 0.21152273 -0.03996104 -0.5053063 1.1770558
-0.33610243 -0.09498463 0.6851774 0.2119304 1.1132423 0.8399678 -0.17401855 0.07846608
-0.50111336 1.1322459 0.6403246 -0.47086328 0.846655 -0.03944032 -0.61291087 0.6541228
-0.21747324 0.9395176 0.9924794 0.42954051 0.84076524 0.7712954 0.3975384 1.1966344
0.5055276 -0.5746184 -0.2537148 -0.04299579 0.6622814 0.7549799 -0.13562128 -0.24263656
0.8165962 -0.11827236 0.09461033 -0.6927176 -0.10535395 0.975355 0.8390568 0.88073593
-0.54581237 0.99842757 1.0851833 -0.59413576 0.11464037 0.5070067 0.006294319 -0.41726297
-0.5946574 -0.3142819 -0.4046844 -0.13903737 0.046008043 0.82187104 1.2051201 -0.16737697
0.80983835 -0.33740526 0.25716943 1.1921858 -0.51685315 -0.32281595 0.70855945 0.7982811
0.7873886 0.07190651 0.7356851 0.49495128
00000000: 24a5 7e3f 2f13 943f 039f 173f df5c 973f
00000010: 6d2c 263f 79f4 823f 8664 74be c49a 883f
00000020: 9a1a 0d3f c2e5 0d3f 265b 76bd 770f 933e
00000030: fa08 533f d519 533f d26c 283f 8b4d 7a3f
00000040: 2dac 853f 9495 21bf 6c7d 2a3f 49df 12be
00000050: ce36 f5bd e4ad 2cbe 0454 6d3f a51b 843f
00000060: eea1 5c3f aa92 753f 89cd 9a3e 5e05 d03e
00000070: 6a99 583e 30ae 23bd c15b 01bf c4a9 963f
00000080: 9e15 acbe 4d87 c2bd c967 2f3f 4804 593e
00000090: b97e 8e3f 2108 573f eb31 32be d3b2 a03d
000000a0: f748 00bf 6fed 903f 50ec 233f fe14 f1be
000000b0: 62be 583f 2c8c 21bd bae7 1cbf 9874 273f
000000c0: 4eb1 5ebe 3a84 703f 2113 7e3f bcec db3e
000000d0: 643c 573f 9e73 453f 278a cb3e 512b 993f
000000e0: 426a 013f 311a 13bf e8e6 81be 5a1c 30bd
000000f0: 468b 293f 5d46 413f 4ee0 0abe b875 78be
00000100: 730c 513f c738 f2bd 10c3 c13d f155 31bf
00000110: d0c3 d7bd deb0 793f 6dcc 563f e977 613f
00000120: 5cba 0bbf f398 7f3f 49e7 8a3f 4819 18bf
00000130: 92c8 ea3d 31cb 013f 9340 ce3b 7ea3 d5be
00000140: 783b 18bf 8fe9 a0be cb32 cfbe d05f 0ebe
00000150: ee72 3c3d 2466 523f 6041 9a3f de64 2bbe
00000160: 9151 4f3f 62c0 acbe b6ab 833e 8b99 983f
00000170: 7d50 04bf 2248 a5be 2764 353f 265c 4c3f
00000180: 4d92 493f b843 933d dc55 3c3f 416a fd3e

linear2.weight f4 [100, 100]
0.72466487 0.6642301 0.18730754 0.13818756 0.32656097 0.29301 0.060809024 0.98317444
0.5088828 0.33369204 -0.8446031 0.4585652 0.25596476 0.21966892 0.21107315 0.44000256
0.7354063 -1.1928184 0.16496736 0.5697347 0.22060108 -0.10897708 0.80604935 1.3128142
0.19302528 0.29120904 0.1606053 0.1679599 0.5497572 -0.033360444 -0.32348847 0.52474874
0.4033471 -0.4096518 0.15876494 -0.0011936426 0.35344985 0.36625606 -0.93599945 0.47084302
-0.4086784 0.53293747 0.2443034 -1.0024927 0.3705695 0.08099043 0.094414316 0.19797507
-0.2166577 0.26218703 0.5784713 0.46854207 0.36111304 0.18874367 0.079128556 0.61805904
0.47424942 -0.037590206 -0.8973011 0.5327167 0.648545 0.33694986 -0.09644191 -0.08747924
0.2563618 -0.85853815 -0.9677078 -1.11814 -0.07666852 0.50658 0.09987941 0.39143604
-0.08720874 0.22620957 0.19190925 -0.20548862 -0.8150989 0.13608769 0.5002891 0.022186115
0.38006634 0.52323586 0.50245625 -0.1258527 -0.43935195 0.59422433 0.7973497 -0.7861816
0.08998924 0.63603514 0.5286259 0.3736128 0.3032645 0.48208094 0.19329937 0.56552786
0.17969516 -0.8293163 0.14219442 0.159908 0.81956524 0.6192642 0.18908297 0.1796201
0.4416155 0.27503726 -0.0013136864 1.0251008 0.33001974 0.47877955 -0.88875884 0.4019227
0.26125056 0.0968411 0.13440055 0.45222765 0.7000316 -1.0790752 0.27824625 0.67587376
0.33909202 -0.13693291 0.78876173 1.3419293 0.2638512 0.15177368 0.11376914 0.17469876
0.6446521 -0.011070944 -0.43342063 0.59348303 0.55789346 -0.4452676 0.1958597 0.098607086
0.30168968 0.4790915 -0.8179927 0.5299663 -0.41250357 0.5157299 0.20971978 -0.96106416
0.47816056 0.00059021387 -0.046222437 0.1211534 -0.21436177 0.2594542 0.58654696 0.5946356
0.4657136 0.21422687 0.18208349 0.5400095 0.60629535 -0.07118672 -0.8419406 0.56675285
0.7347862 0.2594513 -0.08914361 -0.078616664 0.22716224 -0.9531749 -0.9916579 -1.1598625
0.09845913 0.35902652 0.11189052 0.333548 -0.028185263 0.20109446 0.19175954 -0.27815214
-0.8663683 0.06471743 0.52072394 0.051227026 0.41680828 0.5310884 0.37365332 -0.0627855
-0.48168725 0.5396277 0.7533313 -0.8243233 0.18441579 0.6252009 0.44024444 0.4779081
0.34989494 0.5478688 0.1773067 0.57755995 0.10639183 -0.7710344 0.24794468 0.22711402
0.8713274 0.7224135 0.23797704 0.23117097 0.4103413 0.15171425 0.080828555 0.98096704
0.4689521 0.4190221 -0.82132226 0.4627484 0.1745947 0.19451948 0.20298629 0.4278015
0.62871873 -1.2630378 0.16610828 0.55480057 0.37932158 -0.08853499 0.7919377 1.2488894
0.17219302 0.1640838 0.19905645 0.032834023 0.6425425 -0.06907991 -0.37748027 0.5602109
0.4105077 -0.41559312 0.14675096 -0.0656803 0.29372686 0.3818062 -0.8164622 0.5322116
-0.48085612 0.5145453 0.31178582 -0.9997103 0.32662123 0.060679384 0.09935684 0.18841842
-0.14670432 0.25314185 0.5770253 0.6520412 0.5335824 0.21980135 0.18860163 0.4752938
00000000: a383 393f fc0a 2a3f 8ccd 3f3e 0a81 0d3e
00000010: 0033 a73e 6805 963e e212 793d 52b1 7b3f
00000020: 2546 023f afd9 aa3e e937 58bf 0fc9 ea3e
00000030: d00d 833e e4f0 603e 8f23 583e 0448 e13e
00000040: 9643 3c3f 46ae 98bf 34ed 283e 22da 113f
00000050: 40e5 613e 602f dfbd 4059 4e3f 4c0a a83f
00000060: 6ba8 453e 5a19 953e b775 243e aefd 2b3e
00000070: e3bc 0c3f f6a4 08bd 48a0 a5be ef55 063f
00000080: 8383 ce3e e1bd d1be 4793 223e 0074 9cba
00000090: 61f7 b43e ea85 bb3e a99d 6fbf 5612 f13e
000000a0: 4c3e d1be 976e 083f ac2a 7a3e ae51 80bf
000000b0: 49bb bd3e 50de a53d 4b5c c13d fab9 4a3e
000000c0: 84db 5dbe 613d 863e b216 143f bfe4 ef3e
000000d0: cfe3 b83e 0546 413e 270e a23d 1e39 1e3f
000000e0: d2d0 f23e 30f8 19bd 86b5 65bf 1f60 083f
000000f0: 0c07 263f b184 ac3e 5683 c5bd 5128 b3bd
00000100: db41 833e 28c9 5bbf b3bb 77bf 361f 8fbf
00000110: 6304 9dbd 3aaf 013f 938d cc3d 4e6a c83e
00000120: 7f9a b2bd 7ba3 673e dc83 443e 9c6b 52be
00000130: 52aa 50bf 925a 0b3e f212 003f a8bf b53c
00000140: 0e98 c23e c9f2 053f f9a0 003f 88df 00be
00000150: bdf2 e0be 161f 183f 1c1f 4c3f 3343 49bf
00000160: 474c b83d 33d3 223f 0754 073f 2d4a bf3e
00000170: 7c45 9b3e 50d3 f63e 45f0 453e 6fc6 103f
00000180: 0202 383e 134e 54bf 6a9b 113e ecbe 233e
00000190: 07cf 513f 1988 1e3f f79e 413e 55ee 373e
000001a0: 6d1b e23e afd1 8c3e 0030 acba 8136 833f
000001b0: 59f8 a83e 9822 f53e b385 63bf d0c8 cd3e
000001c0: a2c2 853e a054 c63d 4ca0 093e 628a e73e
000001d0: 4535 333f 231f 8abf 4b76 8e3e 1006 2d3f
000001e0: 789d ad3e 2438 0cbe 4aec 493f 57c4 ab3f
000001f0: 8117 873e 8f6a 1b3e cbff e83d 3be4 323e
00000200: ec07 253f e862 35bc 4fe9 ddbe 81ee 173f
00000210: 1bd2 0e3f 1dfa e3be 728f 483e 83f2 c93d
00000220: 1277 9a3e 7b4b f53e f867 51bf dfab 073f
00000230: ab33 d3be e006 043f c8c0 563e 4d08 76bf
00000240: 76d1 f43e 95b8 1a3a bd53 3dbd 461f f83d
00000250: a781 5bbe 2ed7 843e f127 163f 0a3a 183f
00000260: 0372 ee3e 4a5e 5b3e 1874 3a3e 103e 0a3f
00000270: 2c36 1b3f 58ca 91bd 6b89 57bf b716 113f
00000280: f31a 3c3f cdd6 843e ed90 b6bd c601 a1bd
00000290: 389d 683e 4503 74bf 4bdd 7dbf 6076 94bf
000002a0: f1a4 c93d 53d2 b73e db26 e53d cec6 aa3e
000002b0: c8e4 e6bc b5eb 4d3e 9d5c 443e f569 8ebe
000002c0: 50ca 5dbf 928a 843d 2a4e 053f 6ed3 513d
000002d0: e567 d53e 69f5 073f 7d4f bf3e af95 80bd
000002e0: b69f f6be 0a25 0a3f 52da 403f da06 53bf
000002f0: 7ed7 3c3e 2b0d 203f b867 e13e 5fb0 f43e
00000300: 6e25 b33e 2141 0c3f e38f 353e f8da 133f
00000310: f6e3 d93d 8362 45bf 36e5 7d3e 9490 683e
00000320: 500f 5f3f 17f0 383f 41b0 733e 15b8 6c3e
00000330: 4118 d23e fb5a 1b3e 7189 a53d a820 7b3f
00000340: 7d1a f03e 118a d63e 2d42 52bf 5ced ec3e
00000350: f4c8 323e 1d30 473e a3db 4f3e cc08 db3e
00000360: b6f3 203f 39ab a1bf 4a18 2a3e 6907 0e3f
00000370: 7036 c23e d551 b5bd 6ebc 4a3f 9cdb 9f3f
00000380: 5e53 303e 9505 283e 74d5 4b3e f87c 063d
00000390: aa7d 243f c579 8dbd 1845 c1be fb69 0f3f
000003a0: 112e d23e 9fc8 d4be e245 163e 6583 86bd
000003b0: 5e63 963e 1a7c c33e ab03 51bf 053f 083f
000003c0: c632 f6be 3eb9 033f 64a2 9f3e 04ed 7fbf
000003d0: e63a a73e f28a 783d 997b cb3d c2f0 403e
000003e0: a839 16be cf9b 813e eeb7 133f 2cec 263f
000003f0: db98 083f 9b13 613e c920 413e b559 f33e

linear2.bias f4 [100]
0.40102047 0.39873427 0.4836022 0.34213227 -0.17587005 0.34700063 -0.0043802955 -0.016011737
0.47309786 0.28317997 -0.086421125 -0.028559128 0.2897904 0.40330216 0.4430199 0.38911828
0.33805016 0.02620054 0.4402593 0.41504905 0.43267775 0.026997574 0.45212534 0.3828907
0.22405124 0.2881127 0.32942724 0.3931115 0.05216158 0.3666392 0.31356692 0.4493197
0.0039351084 0.004007831 0.036832567 0.3127503 0.47569627 -0.07721653 0.4638046 -0.07704725
-0.0827348 0.41540658 0.385996 0.38234994 0.44389614 0.38016915 -0.08004242 0.019209817
0.3782708 0.36726874 0.34928623 0.47502163 -0.009051043 0.3580531 -0.035157744 -0.011103493
0.41033605 -0.07961342 0.28353 0.37007394 0.42507148 -0.061465323 0.01105627 0.40144658
0.022835538 0.42058235 0.060472075 0.44735146 0.045722138 0.36999246 0.4519287 0.46871704
0.018041149 -0.029534684 0.029957838 0.39133605 -0.038201857 0.3321694 0.3938883 0.46275055
0.38033843 0.44671786 0.38564503 -0.07340264 -0.013920416 -0.15379599 0.3325449 0.39913002
0.43566483 -0.009268923 0.32974935 0.4794288 0.34590203 0.46443895 -0.3244583 0.21094866
0.4021771 0.46495184 0.43448478 0.46424097
00000000: 8e52 cd3e e626 cc3e b59a f73e f62b af3e
00000010: 4717 34be 11aa b13e 9588 8fbb 0c2b 83bc
00000020: e239 f23e f7fc 903e 8ffd b0bd d5f4 e9bc
00000030: 685f 943e 9f7d ce3e 81d3 e23e 833a c73e
00000040: e914 ad3e 84a2 d63c ab69 e13e 4f81 d43e
00000050: f087 dd3e 042a dd3c f97c e73e 400a c43e
00000060: b06d 653e 8283 933e b0aa a83e e945 c93e
00000070: 62a7 553d 22b8 bb3e d88b a03e 3b0d e63e
00000080: 15f2 803b 2054 833b bfdd 163d cf20 a03e
00000090: 768e f33e b323 9ebd cc77 ed3e f3ca 9dbd
000000a0: dd70 a9bd 2cb0 d43e 45a1 c53e 5fc3 c33e
000000b0: 5b46 e33e 88a5 c23e 48ed a3bd e85d 9d3c
000000c0: b6ac c13e a60a bc3e a5d5 b23e 0936 f33e
000000d0: d34a 14bc bc52 b73e 9101 10bd 6deb 35bc
000000e0: 9117 d23e 5c0c a3bd d82a 913e 557a bd3e
000000f0: f8a2 d93e 10c3 7bbd 5c25 353c 688a cd3e
00000100: 9811 bb3c 9256 d73e 91b1 773d 400b e53e
00000110: 2347 3b3d a76f bd3e 3363 e73e aefb ef3e
00000120: 08cb 933c b9f2 f1bc 246a f53c 335d c83e
00000130: 8d79 1cbd 1c12 aa3e baab c93e a4ed ec3e
00000140: b8bb c23e 34b8 e43e 4473 c53e 2054 96bd
00000150: 7512 64bc b27c 1dbe 5343 aa3e c55a cc3e
00000160: 760f df3e aedc 17bc e8d4 a83e b177 f53e
00000170: 121a b13e f1ca ed3e 661f a6be ed02 583e
00000180: 28ea cd3e 2b0e ee3e ca74 de3e feb0 ed3e

linear3.weight f4 [1, 100]
-0.46986845 -0.47846672 -0.47089162 -0.43795112 1.1774937 -0.47994465 0.0020810056 -0.00041660853
-0.47745034 -0.48019525 0.002152822 0.0052427896 -0.45809317 -0.43844217 -0.42328295 -0.4738619
-0.45260033 -0.0005624811 -0.45953915 -0.4401295 -0.48497298 0.0022296251 -0.4669205 -0.47194225
-0.46288073 -0.4654305 -0.49723887 -0.48262274 0.0009339722 -0.46450233 -0.46403033 -0.48435584
0.050208453 -0.002526221 -0.004262964 -0.4784479 -0.46525952 0.002808348 -0.45357788 0.0018481587
0.0010602665 -0.49297312 -0.46467838 -0.48856267 -0.4758497 -0.48129538 1.4632477 -0.004405103
-0.46782303 -0.48167172 -0.45733345 -0.48927242 -0.0016462037 -0.48492232 0.0019467126 -0.003118713
-0.4819682 -0.0025607848 -0.46660945 -0.46916234 -0.48328558 0.002601266 -0.00136754 -0.44158557
0.00040038396 -0.4840204 -0.41308 -0.5017277 -0.0012529122 -0.4707233 -0.45677158 -0.45772225
0.002204456 0.18469448 0.002458062 -0.6681035 -0.0024869577 -0.46726248 -0.46879596 -0.48064938
-0.4702948 -0.49209 -0.47932327 -0.0028734205 -0.0035194715 1.4354775 -0.47302675 -0.46350533
-0.50900465 -0.020901224 -0.502357 -0.4761683 -0.466386 -0.4538484 1.1626805 -0.55995685
-0.47454032 -0.46099398 -0.46323884 -0.5035336
00000000: 9992 f0be 97f9 f4be b518 f1be 213b e0be
00000010: 1db8 963f 4ebb f5be 7b61 083b 406c dab9
00000020: 5f74 f4be 27dc f5be 5c16 0d3b b5cb ab3b
00000030: 308b eabe 7e7b e0be 8bb8 d8be 079e f2be
00000040: 3bbb e7be 7873 13ba b748 ebbe a758 e1be
00000050: 614e f8be e71e 123b 3410 efbe 6aa2 f1be
00000060: b4fe ecbe e84c eebe 1896 febe 541a f7be
00000070: d0d5 743a 40d3 edbe 6295 edbe 7dfd f7be
00000080: 61a7 4d3d f58e 25bb 55b0 8bbb 20f7 f4be
00000090: 7f36 eebe 430c 383b 5c3b e8be ea3d f23a
000000a0: a4f8 8a3a f966 fcbe 53ea edbe e324 fabe
000000b0: 92a2 f3be 596c f6be b34b bb3f af58 90bb
000000c0: 8086 efbe ad9d f6be 9c27 eabe ea81 fabe
000000d0: 6ec5 d7ba bd47 f8be d628 ff3a 5263 4cbb
000000e0: 89c4 f6be d7d2 27bb 6fe7 eebe 0c36 f0be
000000f0: 3571 f7be 007a 2a3b 073f b3ba 8117 e2be
00000100: a0ea d139 86d1 f7be 397f d3be 3a71 00bf
00000110: c238 a4ba a502 f1be f7dd e9be 925a eabe
00000120: a278 103b 8d20 3d3e 7017 213b d508 2bbf
00000130: 3afc 22bb 073d efbe 0606 f0be ad17 f6be
00000140: 7bca f0be 38f3 fbbe dc69 f5be ff4f 3cbb
00000150: efa6 66bb babd b73f 9030 f2be 9250 edbe
00000160: 214e 02bf 0b39 abbc 789a 00bf 55cc f3be
00000170: 25ca eebe d15e e8be b7d2 943f 5559 0fbf
00000180: f3f6 f2be 6707 ecbe a42d edbe 94e7 00bf
