saved_models/stable_ddpg/value_net_checkpoint_a3.pth (torch, 44267 bytes, 5 tensors)

linear1.weight f4 [100, 2]
00000000: 62e3 333f 6268 2e3f 86e0 a43e ed21 cc3f
00000010: 36f3 50bf 3a2b 7b3f c549 033f 401f bb3f
00000020: b47e 9ebe 0003 843f d345 c0be 6909 1abe
00000030: a7b9 efbe c4fd 253e 264b 1abf b6cc 15bf
00000040: eb84 6b3e bbf4 6a3f ab90 cb3e 094d 19be
00000050: f268 a0bd 7baa a33f c5ff 12be e33d a73f
00000060: 9951 b5be 9a4f 6bbf 6b64 8dbe 84f5 983f
00000070: c6f0 f9be 956d a23f a8e3 4b3f 315b 2dbf
00000080: 17ac 2bbf 25e2 32bf c79b 4c3e c9b0 793f
00000090: 7898 26be c02d d23e 4f5c b6be 973d a03f
000000a0: 92d2 f33e a2ba 873f 1016 18bf 88ec 843e
000000b0: c0c1 17bd 9c98 b8be a348 df3e 3682 6c3f
000000c0: 2e5a e3be d30a 083f 0e97 513d 53b1 7e3f
000000d0: 59c5 f2be 7a92 debe 2a7c 41bf 8509 a03f
000000e0: a36f 05bf 4bc8 123f 93c1 473f 41ab 8e3e
000000f0: 883b 8fbe 3e1a 873e d429 1a3d af6b 4c3f
00000100: 6b5a 7bbd bbf2 edbe 6c8d dfbe d0dd 3a3e
00000110: 977e 993e 7c3c 17be 312b a2be ec09 813e
00000120: 00f4 563d 8497 0f3e 0cf2 a43e 9126 793f
00000130: 23a3 293e 19de 8fbe bed0 76be 9270 813f
00000140: 0d5b fdbe 130e 1f3e 74ff 753f f7a0 5c3f
00000150: aefb c73e 3460 243f 751b f93c 883d d93f
00000160: 3192 16bf 1f0e b5be 71fb fe3e 6391 833f
00000170: d5bf 03be 8b9e 8c3f 573e a4bd be0c 89be
00000180: 6ccd 72be e3e1 493f 0b54 01bf 3d0f 04bf
00000190: b767 7bbe 23e5 49bf a34d f43e 00b7 4e3f
000001a0: c110 f03d 9cb5 8abe c9a4 82bd cff9 253f
000001b0: 3d99 473e 0708 91bc 5052 073f 4fc4 493f
000001c0: 32b2 0abf 5fc4 0f3f 3dd4 f13e ad45 2f3f
000001d0: 5a1f 24bf 73b7 1ebf 4c10 38be 8c36 3f3e
000001e0: c42b e93d ffd7 a93e ec0f 8a3e 1ad5 0c3e
000001f0: 826f 31be 2f77 c83e db9f 20bf 4af4 eb3e
00000200: 2970 cf3e 848a 723e a52e 34bf 2dff cabe
00000210: 4862 d93e d4bf 8f3f 7bd2 783f ad42 45be
00000220: 802f e03e 0ac9 913e d23e f4be b15b 04bd
00000230: c093 6f3f 8e8e 5f3f a5df 913d 0c01 5e3f
00000240: d46a cebe 1c4d 1cbf 21f2 bfbe 8e28 a7bc
00000250: b980 bf3e 9e19 593f 7fe3 5a3d 51f7 493f
00000260: a8ea 95be 59e6 8e3f f418 853e 437c ca3f
00000270: 54fa 0ebf e867 803e 19a8 0f3e 5459 3fb9
00000280: ec09 bb3e 236b 653f ac0e 2fbe 8d23 25bf
00000290: 0bf8 993d 0a61 073f c3e0 973e 06a1 983f
000002a0: f91f 19bf 895d 283c 77a3 fc3e f24a 223f
000002b0: 63a8 cd3e e609 27bc a388 de3e db5e f33d
000002c0: 9ab7 5d3e a638 ab3d c58d 7b3f 20c1 c93e
000002d0: 9aea e6be 56e8 973e 39be 103f 51ef 533e
000002e0: ac8d 48be 1076 8a3d 7f62 fc3d 9e87 593e
000002f0: c188 06bf 41bb 823e 0069 0d3f 803b 42bb
00000300: c0b2 24be 8270 173e 1bb8 05bf bb8f 5f3f
00000310: ae8d bfbe 45e6 5a3f bbba 07bf 404f f5bd
0.70268834 0.68128026 0.32202548 1.5947853 -0.8162111 0.98112833 0.5128444 1.4618912
-0.30956042 1.0313416 -0.37553272 -0.15042652 -0.4682133 0.16210085 -0.6027092 -0.5851549
0.22999923 0.9177968 0.3975881 -0.14970793 -0.07832517 1.2786402 -0.14355381 1.3065761
-0.35413817 -0.9191834 -0.27615675 1.1949925 -0.48816508 1.2689692 0.7964425 -0.6771727
-0.67059463 -0.6987632 0.199813 0.9753538 -0.162691 0.4105053 -0.356173 1.2518796
0.4762159 1.0603831 -0.59408665 0.2596171 -0.03705001 -0.36053932 0.43610105 0.92386186
-0.4440474 0.53141516 0.051169448 0.99489325 -0.4741619 -0.43471128 -0.75580084 1.2502905
-0.5212347 0.5733687 0.78029746 0.2786503 -0.27975106 0.2638721 0.037637547 0.7985181
-0.061365526 -0.4647425 -0.43662584 0.18248677 0.29979393 -0.14769167 -0.31673577 0.25202882
0.05247879 0.14022642 0.32215917 0.9732447 0.16566138 -0.28099135 -0.24103066 1.0112479
-0.4948353 0.15532713 0.96092916 0.8618311 0.39059204 0.64209294 0.0304086 1.6971903
-0.5881682 -0.35362336 0.4980121 1.0278744 -0.12866147 1.0985883 -0.08019703 -0.26767534
-0.23711175 0.788603 -0.50518864 -0.5158575 -0.24551283 -0.7886526 0.47715482 0.80747986
0.117219456 -0.27091682 -0.063790865 0.648343 0.1949205 -0.017704023 0.52859974 0.7881517
-0.54178154 0.56159014 0.47232237 0.6846569 -0.6411034 -0.6199867 -0.17974967 0.18673152
0.11385301 0.33172604 0.26965272 0.13753167 -0.17327693 0.3915343 -0.6274392 0.46084815
0.4051526 0.23685652 -0.70383674 -0.3964781 0.42457795 1.1230416 0.9719617 -0.19263716
0.4378624 0.28473693 -0.47704178 -0.032314006 0.93584824 0.87326896 0.07122735 0.8672035
-0.40315878 -0.6105516 -0.37489417 -0.02040508 0.37402895 0.84804714 0.053439613 0.78893
-0.2928059 1.1164047 0.259956 1.5819172 -0.5585072 0.25079274 0.14028968 -0.00018248457
0.36531007 0.896166 -0.1709544 -0.6450737 0.075180136 0.52882445 0.29663667 1.192414
-0.5981441 0.010276207 0.49343464 0.6339561 0.4016753 -0.010195231 0.4346362 0.118833266
0.2165207 0.08360414 0.982632 0.39405155 -0.45100862 0.29669446 0.56540257 0.2069676
-0.19585294 0.067608 0.12323474 0.2124314 -0.5255242 0.25533488 0.5523834 -0.0029637516
-0.16083813 0.14789012 -0.5223405 0.8732869 -0.3741278 0.85507613 -0.53019303 -0.11978006

linear1.bias f4 [100]
00000000: 15b5 07be bd2c 13bf 096b 843f d2fc 36bf
00000010: 66a0 933f 3f37 983f 7f1e b9be 6601 a1be
00000020: 1f94 073c 4809 943f 9b30 123f 8d9c da3e
00000030: 0b9c 7a3e a4fb 963f cf6b 543f 2868 963d
00000040: 5008 ebbe 091a 503f b625 7d3f d6d4 a53d
00000050: fb13 823f 1271 67be debf 05bf 5d3c c53e
00000060: 5c17 13bf 3ee6 3e3f 7882 08be b657 883f
00000070: f0da fcbe 859e 273e 4e6b 78be 01c2 6f3f
00000080: c903 aabe 0c11 05be ba9e 8e3f 19b9 513f
00000090: 5dc9 ebbe b7a6 913f e57d 4c3f ffc2 8f3f
000000a0: c2a7 7e3f 1f29 84be 0c3e 913f aa44 adbe
000000b0: b6d3 78be 8dc8 8c3f ad20 a13e 9341 783f
000000c0: 75ed 813f 00dd b93b f24a 163e b986 a03e
000000d0: 36cd 4e3f 0264 243f d0b4 bb3e cb3f 503f
000000e0: 0493 f1be 7c4d eb3e 646b cabe 23c4 2fbf
000000f0: deca 8b3f 5a47 983f 570d 583f 97df 28bf
00000100: d6c8 263f 171f 85be e89c 393f 7cc9 bfbc
00000110: df52 973f b414 953f 9414 87be 4c42 363f
00000120: e060 5abe ec40 8b3f 946b 7d3e 4cdb 803f
00000130: 307b 023f 18b9 04bf 51ff 713f 2ec4 e63e
00000140: 85bd 7f3f 1ae3 b33d 0cd7 403f 4589 f4be
00000150: 9b25 8a3f b211 4b3f 5302 2f3f c9fa e23e
00000160: 95c0 0c3f ae2e 0bbe 7878 19bf 92e4 8c3f
00000170: a837 92be 1bfd 093f d7aa 8d3f 8cec 7e3f
00000180: ef74 983f 8d2e 5a3f 90d5 0e3f f788 28bf
-0.13252671 -0.5749014 1.0345165 -0.71479523 1.1533325 1.189186 -0.3615608 -0.3144638
0.008275061 1.1565332 0.57105416 0.42697564 0.24473588 1.1795545 0.82977 0.07344085
-0.4590478 0.81289726 0.9888567 0.08097236 1.0162348 -0.22601727 -0.5224589 0.38522616
-0.5745752 0.7457007 -0.1333102 1.0651767 -0.49385786 0.16369064 -0.24259683 0.936554
-0.33206013 -0.12994784 1.114219 0.8192306 -0.46052065 1.1379002 0.798796 1.1231383
0.9947473 -0.25812623 1.134706 -0.3384145 -0.24299511 1.0998703 0.31470242 0.9697506
1.0150591 0.005672097 0.14677027 0.31352785 0.8078188 0.642151 0.36661386 0.8134734
-0.47182477 0.45957553 -0.39535058 -0.68658656 1.0921285 1.1896775 0.84395355 -0.6596617
0.651502 -0.26000282 0.72505045 -0.023411505 1.1822165 1.1646943 -0.26382887 0.7119491
-0.21326017 1.0879188 0.24748069 1.0066924 0.5096922 -0.5184493 0.94530207 0.45071548
0.9989856 0.087835506 0.75328135 -0.47760978 1.0792726 0.79323876 0.6836292 0.4433196
0.54981357 -0.13592026 -0.59949446 1.1007254 -0.28558087 0.53901833 1.1067761 0.9957969
1.1910685 0.8522728 0.5579462 -0.6583399

linear2.weight f4 [100, 100]
00000000: 789a 923c 404e 14bc 722e 98bd 5081 8abd
00000010: abea bcbd d4f5 89bd 91a8 973d 028a 753d
00000020: 0140 ba3d 3095 5bbc af1f b0bd ca4b 013d
00000030: 11ea b23d 7e4d 7e3d f0dc 7bbd 58c4 563c
00000040: e058 f1bb 521c 493d 7088 17bc ce57 5e3d
00000050: d087 123c 3d5d 7fbd 40d4 3ebd 8580 bf3d
00000060: a078 a73b d8cb 9bbd e064 92bd 9125 8d3d
00000070: 1046 523c 2a18 b9bd a779 8a3d 2043 8e3b
00000080: 9f8d b8bd f04c 7b3c b7a1 c43d ebd0 c53d
00000090: b1b2 aa3d fde7 6ebd 90fd 423c a05c 9fbd
000000a0: abea b23d 0871 92bd 8294 b3bd 32b1 1b3d
000000b0: c048 d1ba 0865 e1bc 6ed1 6a3d d5e0 8d3d
000000c0: b7b8 7bbd 2a72 2cbd a0b9 67bb 0757 bf3d
000000d0: 4814 a6bd 5845 0a3c 40f1 cdba 57a1 35bd
000000e0: e02e f2bc a8fb b8bc 06c1 743d b13b 993d
000000f0: c409 ee3c 4859 8abc ce0a 95bd 9223 4c3d
00000100: 93de 53bd 581e 133c 2063 b93c 2009 b3bd
00000110: aa57 743d 46a7 6d3d 898c 9b3d e7d3 b3bd
00000120: d17f 9a3d 7d2f ba3d 749d 13bd b00d aebd
00000130: f225 763d 576b 8c3d 5a67 3cbd aa02 afbd
00000140: 8079 413a 202e a2bc f0d6 17bc 4403 08bd
00000150: 9385 29bd 880d e5bc c47a f83c 9f03 ab3d
00000160: de04 88bd 9ae2 073d a03f 17bd 867b 80bd
00000170: 410d 8b3d 6313 9d3d a5a3 c0bd 50a4 3e3c
00000180: 7994 c73d 38a0 eabc b935 ba3d 2bee 92bd
00000190: 790d be3d 0c32 0ebd 9be7 943d 60ba f6bb
000001a0: 825a 653d 7b34 91bd 748d e43c 5fa3 babd
000001b0: 2976 b63d 6cad 87bc 7368 69bd ee80 383d
000001c0: f508 8f3d 802f 853b d851 acbd f816 9dbd
000001d0: 6128 bc3d a2cf 793d 63c0 1cbd 223d 083d
000001e0: b048 bbbd 3aeb 223d cece 293d f5fa 8ebd
000001f0: 9a3c 66bd 9856 203c 335f 61bd a097 8cbb
00000200: de2f 6d3d 041f 00bd cd86 ca3d 9821 87bd
00000210: 3c46 e73c c51e 8d3d 78b5 863c 40b4 c2bc
00000220: ccb9 a73c 401d 57bd 9259 ccbd b74c 2fbd
00000230: f41b e5bc f228 7e3d 456e 913d 80ba 90bb
00000240: 4f61 bc3d 6566 823d 4563 a63d 0d64 1fbd
00000250: 304d 31bc f9bd 913d ec12 f53c d3ea 68bd
00000260: 903a 0b3c 644f dc3c 2c11 d9bc 130d c0bd
00000270: e0e3 8abb 37ff ca3d c028 84ba d413 ecbc
00000280: b0f4 d4bb c804 9c3c c4cf f53c 67d1 973d
00000290: 0032 a8bc 7684 0d3d 4095 febc d689 223d
000002a0: c381 5fbd 46d6 a6bd e5a0 87bd f638 3e3d
000002b0: ecad e53c a26e 2d3d 4c2b 9bbc 47fb b13d
000002c0: c761 6bbd acc6 9e3c 2364 993d 8c72 9dbc
000002d0: 8d81 b1bd a96d 8d3d 9b73 aabd 28b9 263c
000002e0: 7d6f ab3d 00f1 83bb 88e2 a6bd 7ed6 0a3d
000002f0: 997f 9b3d 3dbe 8dbd 5d24 2ebd 6165 903d
00000300: a6fc 293d b932 893d 85dd b3bd 28e4 18bc
00000310: c0ad 233c d574 a23d 4845 9dbd 9353 74bd
00000320: db5e 3cbe e870 a0bf f3d7 8f3f e2d8 66bf
00000330: 3420 0d3f b4de 163f 0192 8f3d 0000 d23a
00000340: 5b10 febc 6006 563e ac77 b93e 2961 bf3e
00000350: 8eb0 1a3f 9f51 ff3e 2da8 113f d298 07be
00000360: 3a2d 113d ec64 a63e c7d8 bc3e 9e21 8abf
00000370: 498c 963e d09a d7bb 814b 8b3d 1a91 523d
00000380: 3065 47bd 0895 863e 201c c23b 46ce 623f
00000390: 5a73 4e3d f274 1dbc dbf3 a5bd 9394 6a3e
000003a0: fec8 c03d eeac 003d 270a 713e 0db5 003f
000003b0: ac7b bebc 2bfc 6f3e 5c1a 973e 569c f13e
000003c0: c040 4c3f ccfa fbbd e051 973e f1f1 8cbf
000003d0: dad8 b3bd 0e26 8f3e 173b d13e 13af dc3e
000003e0: 5dbe 033f 23d8 9fbd 6c7b 173f 4e77 6c3d
000003f0: 799d a73e 1a29 e03e 4676 633d 59bc 213e
0.017895922 -0.009051859 -0.07430734 -0.06762946 -0.09224447 -0.06736341 0.07405198 0.059946068
0.09094239 -0.013402268 -0.08599793 0.03156642 0.08736051 0.06208562 -0.06149 0.013108335
-0.007365331 0.049099274 -0.009248838 0.054282956 0.008943513 -0.06234478 -0.046589136 0.09350685
0.005110815 -0.076072395 -0.07148147 0.06891931 0.012834087 -0.09037812 0.067614846 0.004341498
-0.09011387 0.015338168 0.09601157 0.096589886 0.08334864 -0.05832671 0.011901274 -0.07781339
0.087361656 -0.07150465 -0.0876856 0.038010783 -0.0015967116 -0.027513996 0.057328634 0.06927649
-0.061455455 -0.042101063 -0.0035358444 0.09342771 -0.08109337 0.008439384 -0.0015712157 -0.04434332
-0.029563367 -0.022580937 0.059754394 0.07482088 0.029057391 -0.016888276 -0.072774515 0.04983861
-0.051725935 0.0089794025 0.022630274 -0.08741975 0.059653915 0.058020853 0.07595164 -0.087806515
0.0754391 0.09091089 -0.03603883 -0.084987044 0.06009478 0.06856411 -0.045997 -0.0854543
0.00073804706 -0.019797385 -0.009267554 -0.03320624 -0.041387152 -0.027960554 0.030331977 0.083503
-0.06641553 0.03317509 -0.036925912 -0.0627356 0.06789637 0.07669713 -0.09406213 0.011635855
0.09745116 -0.028640851 0.09092278 -0.07174333 0.092799135 -0.034715697 0.07270738 -0.007529542
0.055994518 -0.07090088 0.027899481 -0.09113192 0.08909256 -0.016562186 -0.056984376 0.045044832
0.0698413 0.0040645003 -0.08414048 -0.076703966 0.09187389 0.06098903 -0.03826941 0.033261426
-0.091447234 0.03977511 0.04145699 -0.0698146 -0.056210138 0.009786271 -0.05502243 -0.004290536
0.057906978 -0.03127958 0.098889925 -0.065982044 0.028231733 0.068906344 0.016443953 -0.02376759
0.020474337 -0.05251813 -0.09978022 -0.04279777 -0.02796743 0.062050767 0.0710111 -0.004416764
0.09198248 0.063671865 0.08124403 -0.038913775 -0.010821626 0.071163125 0.02991625 -0.05686457
0.008497849 0.026893325 -0.026497446 -0.09377494 -0.0042385906 0.099119596 -0.0010082945 -0.028818049
-0.0064988956 0.019045249 0.030006297 0.07412987 -0.020531654 0.034550153 -0.031077027 0.03968223
-0.05456711 -0.08146338 -0.06622485 0.04644104 0.028037034 0.042341836 -0.018941544 0.086905055
-0.057466295 0.019381844 0.07489803 -0.01921966 -0.08667288 0.06905682 -0.08322831 0.010175981
0.08370874 -0.004026532 -0.08148676 0.033895962 0.07592697 -0.06921051 -0.042515147 0.070505865
0.04150071 0.06699128 -0.08782486 -0.00933174 0.009990156 0.0793244 -0.0767923 -0.059650015
-0.1839556 -1.2534456 1.1237777 -0.90174687 0.55127263 0.5893357 0.0701027 0.0016021729
-0.031013658 0.2090087 0.36224115 0.37378815 0.6042565 0.4986696 0.5689724 -0.1324189
0.035443522 0.32498872 0.36884138 -1.0791509 0.29403904 -0.0065797344 0.068015106 0.05140791
-0.048680484 0.26285577 0.005923763 0.88596 0.050402977 -0.0096104015 -0.08103152 0.22908239
0.09413336 0.03141492 0.23539029 0.5027626 -0.02325233 0.23436038 0.29512298 0.47189587
0.797863 -0.12303695 0.29554653 -1.1011335 -0.087815955 0.2795872 0.40865394 0.4310232
0.51462346 -0.07804897 0.591727 0.057730965 0.3273733 0.43781358 0.055532716 0.15794505

linear2.bias f4 [100]
00000000: a0e9 9d3c 929d 7b3d d4e5 e43e ef25 a13e
00000010: 5ecf b33e 8a30 d03e a444 d03e 7b6f dd3e
00000020: f57d 05bd bd35 62bd 1787 4ebd 4223 e63e
00000030: d43d a23e 9322 de3e 44be e03e 1cf0 f53e
00000040: 7ce9 b93e be4b 2fbc 149b 923c 00c8 ceba
00000050: bdb9 27bd 582d e53e e3ab 56bd 8de0 ff3e
00000060: 2dd9 ca3e 4e76 9b3e 170e b53e 5abd e33e
00000070: c02f f53e 26a2 f13e 4732 50bd 3c4c 56be
00000080: e3b5 53bd 81a9 c23e 1802 22bc d03c c93e
00000090: 7517 cf3e 560d a13e 8b01 c03e 90dc a43d
000000a0: a827 993e 29d2 e33e 5036 82bd 041b b23e
000000b0: d680 ea3e bc7c f73e b126 b93d 6c8e 993c
000000c0: 9669 ce3e d389 bfbd 5b6c b93d 5d4f c53e
000000d0: e08a 8fbc 0b7e d43e 78d3 bdbd 005d c93e
000000e0: dc32 e03e f258 b1bd 180e babd 77d3 1e3c
000000f0: 20ae 9a3b 121f bdbd e019 ae3e 7276 cc3e
00000100: 3a0a aebe e643 753d 0339 ed3e 8235 2e3d
00000110: a34a d13e 595f ae3e 2ff9 da3e 4017 b3ba
00000120: 8577 f83e 52a5 d73e 94b8 0bbc 251c c53e
00000130: a80c 9d3e dee8 fa3e 8963 bd3e a773 1ebd
00000140: 056f e73e 78d1 df3e 6ed9 be3e 7649 283d
00000150: 480d a83e 2a31 c3bd 7ee4 b7bd a05a e93e
00000160: 0f9c f93e 408b 4ebd fe33 dd3e 538c 963e
00000170: e1ac a33d 4b03 9f3e 5320 ba3e ab05 c53e
00000180: 6c06 cb3c 10f9 19bd 1a2e ee3e 0c9b 9b3c
0.01927644 0.061429568 0.44706595 0.31474254 0.35119146 0.40662032 0.4067737 0.43249115
-0.032590825 -0.05522703 -0.0504218 0.44948775 0.31687796 0.43385753 0.4389516 0.4803475
0.36310947 -0.010699211 0.017896213 -0.0015776157 -0.04094862 0.44761157 -0.052410018 0.49976006
0.39618817 0.30363697 0.35362312 0.444804 0.47887993 0.47194022 -0.0508292 -0.20927519
-0.051687133 0.38019946 -0.0098881945 0.3930421 0.40447584 0.31455487 0.37501177 0.080498815
0.29913068 0.44496277 -0.063580155 0.34786236 0.4580142 0.48337352 0.09040583 0.01874467
0.4031493 -0.0935246 0.0905387 0.38537112 -0.017522275 0.41502413 -0.0926885 0.39328766
0.43788803 -0.08659543 -0.090847194 0.009693972 0.0047204643 -0.09234442 0.34004116 0.39934117
-0.33992177 0.059879206 0.4633256 0.042531498 0.40877256 0.3405712 0.42768237 -0.0013663545
0.48528686 0.42118317 -0.008527894 0.38498035 0.30673718 0.4900579 0.36990002 -0.038684513
0.4520189 0.437145 0.3727526 0.041085683 0.32822633 -0.09530862 -0.08979128 0.45576954
0.48751876 -0.050425768 0.4320373 0.29403934 0.079919584 0.310572 0.36352786 0.38480887
0.024783336 -0.03759104 0.46519548 0.01899483

linear3.weight f4 [1, 100]
00000000: fc1a a33a e003 473a 6c7b d3be 2a8d dabe
00000010: d17c dabe 38a3 e9be ceab d4be 1ac5 ddbe
00000020: a99f 9a3f 88e2 9d3a ccca 24bb 5af2 e4be
00000030: a924 e5be 577a d3be 5f86 f1be 8e2d 08bf
00000040: bd02 d3be 59a8 eeb8 5026 d63a dee2 123b
00000050: 2018 d53a f742 dcbe c0ab a738 f5fb 02bf
00000060: 2744 d9be 71ef dbbe 017a eabe b417 ebbe
00000070: b995 e5be 3a9a eabe 06e1 07bb 8186 8a3f
00000080: 1c40 60bb dd83 e4be 7a68 5e3b 3e7a dabe
00000090: 6c9f e8be 9aaf d4be d932 cebe 7313 04ba
000000a0: c403 ddbe d27a d7be dae7 eaba 4857 dcbe
000000b0: e0a7 e9be b214 e4be 46b5 183b b0b6 09b9
000000c0: c965 cbbe c038 023b 7bef faba de6d dabe
000000d0: 9cad 5e3a 1d46 d7be 6468 223b 0561 ebbe
000000e0: 6190 e2be 08fb 3e3a ff8a 39bb f54f a43b
000000f0: 207d 7d39 d292 133c 71fa e7be fedf e6be
00000100: 972c 8d3f dd6d 5fb9 09f6 eabe b23a 3d3b
00000110: 20a0 d5be dc14 e1be 7127 e5be 81f5 11bb
00000120: 8592 e3be e0e4 e3be 0210 14bb a8eb d1be
00000130: 5ab2 d2be 2c32 e0be ed73 dbbe ecce 073b
00000140: 1eb6 d5be 83e8 cfbe addd d9be 683d fa3a
00000150: ac6b e1be 7f77 af3e 49bd 8aba 0a8e e2be
00000160: f8ae e7be 46e5 23bb 087b d4be 833d e1be
00000170: dcc1 31bb 6237 d4be 0159 e4be 91f7 e4be
00000180: ac0c 3cba fd5b 9a3a 6d46 d9be 488d db3a
0.0012443955 0.0007591825 -0.413051 -0.42685825 -0.42673352 -0.4563234 -0.41537327 -0.4331444
1.2079974 0.0012045661 -0.002514529 -0.4471615 -0.44754532 -0.41304275 -0.4717283 -0.5319451
-0.41213027 -0.000113800816 0.0016338322 0.0022413055 0.00162578 -0.4301984 7.9951715e-05 -0.51165706
-0.4243481 -0.42956117 -0.45796207 -0.45916522 -0.44840792 -0.4582079 -0.002073349 1.0822297
-0.00342179 -0.44631854 0.0033936785 -0.42671388 -0.4543413 -0.41540223 -0.4027317 -0.00050382986
-0.43166935 -0.42085892 -0.001792188 -0.4303534 -0.4563589 -0.4454704 0.0023301407 -0.00013133395
-0.39726093 0.0019870251 -0.0019144857 -0.42661947 0.0008494498 -0.4204568 0.002478146 -0.45972458
-0.44250777 0.00072853314 -0.0028311608 0.0050144144 0.00024174573 0.009007173 -0.4530826 -0.45092767
1.1029233 -0.00021307865 -0.45890835 0.0028874096 -0.41723728 -0.43961227 -0.44756654 -0.0022271576
-0.44447723 -0.44510555 -0.002259255 -0.41000104 -0.41151696 -0.43788278 -0.42861882 0.00207227
-0.41740507 -0.4060708 -0.42551938 0.0019091787 -0.4402746 0.34270856 -0.0010584976 -0.44248992
-0.45250678 -0.0025008484 -0.41500115 -0.43992242 -0.0027123606 -0.41448504 -0.44599155 -0.44720128
-0.0007173519 0.0011776682 -0.42436543 0.0016750479
