saved_models/stable_ddpg/value_net_checkpoint_a0.pth (torch, 44267 bytes, 5 tensors)

linear1.weight f4 [100, 2]
000000 b0 cc 72 bd 60 9c c6 bc 16 f9 db be 21 77 20 3e
       -0.059277236 -0.024244487 -0.42963475 0.15670444
000010 c1 b4 fa be bf bd 4d bd ff 9b 17 3e 34 44 21 3f
       -0.4896603 -0.050229784 0.14805602 0.62994695
000020 35 7a 9b 3d 66 65 be be a6 1c db 3d cf 92 19 bf
       0.075916685 -0.37186736 0.10698824 -0.5998964
000030 d4 44 1d 3e 5e 3a 13 3d 5f a7 f0 3e 9c 24 85 3f
       0.15358287 0.035944335 0.47002694 1.0401797
000040 68 56 96 be 00 b9 cc bc f3 b1 db 3c 60 dd 87 bd
       -0.29362798 -0.024990559 0.026818251 -0.06634021
000050 16 2a 62 be 69 6e 36 bf 4c 7a 29 be 67 d2 97 bf
       -0.22086367 -0.7126222 -0.16550559 -1.1861085
000060 b9 99 e4 be 5d 68 65 bf e2 7a 72 3e 98 e4 d9 bf
       -0.4464853 -0.8961237 0.23679689 -1.7022886
000070 e7 04 17 bf a0 3f d6 3e 8b 45 a0 3e d7 f2 e5 3e
       -0.58991855 0.41845417 0.31303057 0.44911835
000080 3e 8f 87 3e 93 12 47 3e 9f c3 55 3e ec 79 05 bf
       0.26476473 0.19440679 0.20875405 -0.52139163
000090 1d 65 91 3f cb f4 a2 bd d1 88 2b 3f da ae b7 3d
       1.1358982 -0.07956847 0.6700564 0.08968897
0000a0 82 7a e5 3e 65 c7 06 3f 59 48 8c be 54 80 a0 be
       0.4482003 0.52648 -0.27398947 -0.31347907
0000b0 d0 e6 d9 3d c0 2f f6 bc b2 75 ec bd 58 5c 21 3f
       0.10639727 -0.030052066 -0.11545886 0.6303153
0000c0 7b 73 0d bf c0 e7 04 bd 92 ef 1a be dd 6d dc 3f
       -0.55254334 -0.032447577 -0.15130451 1.7221028
0000d0 71 47 1e bf a9 b4 10 3e 18 08 f5 be 50 37 52 3f
       -0.6182776 0.14131416 -0.47857738 0.8211565
0000e0 6d c6 0d be 07 46 1a be 5b e3 c9 3e 27 7d 21 3f
       -0.13845225 -0.15065776 0.3943127 0.6308159
0000f0 4f 96 30 3e eb 14 bb bf 71 ef b7 3d ed 19 88 3e
       0.17244838 -1.4615759 0.08981217 0.2658228
000100 78 06 90 bd 6c b0 7c 3f 25 32 52 3e 6f 6d cc be
       -0.07032484 0.987067 0.20526941 -0.3992724
000110 89 ef 3d bf d2 c6 66 3f 92 7e 15 3f 41 ff d9 be
       -0.74193627 0.90147126 0.58396256 -0.42577556
000120 fb be 36 bf 70 1b 27 3f 83 f6 04 bf 9e b7 ef bd
       -0.71385163 0.6527624 -0.5193865 -0.11704944
000130 1d 0b 33 bf 08 17 46 3e e6 52 c7 be a4 be ed be
       -0.6993883 0.19344723 -0.38930434 -0.4643451
000140 92 37 e6 be 80 c8 7e be ff 38 4f 3e 98 37 4b bc
       -0.44964272 -0.24881172 0.20236586 -0.012403391
000150 1f 5b 0a 3f 4e 7b b7 be de de f5 be a5 31 8c 3f
       0.5404529 -0.35836262 -0.48021597 1.095265
000160 44 aa 2c bf e9 82 8e be ca 77 1d bf 85 b5 7d 3f
       -0.67447305 -0.27834252 -0.6151091 0.991051
000170 5e d5 8a 3e b8 a6 9f be e0 b1 99 be 08 10 5e 3e
       0.2711591 -0.31181884 -0.3001852 0.21685803
000180 a4 c4 74 be b4 cf 60 3e 10 aa f8 be 7c 66 e5 be
       -0.23903137 0.21954232 -0.48567247 -0.44804752
000190 e2 fa 83 3e 3c 40 9d 3f 53 79 6c 3f e7 28 ba 3d
       0.25777346 1.2285228 0.92372626 0.09089833
0001a0 64 c8 33 bf 69 d6 45 3f fa fe 0e 3e 1a da 87 3e
       -0.70227647 0.7728029 0.13964453 0.26533586
0001b0 de 68 71 be 80 63 c3 bd 7a 9d 54 3e d4 fe 71 3e
       -0.2357516 -0.095404625 0.20763198 0.23632365
0001c0 ff d8 87 3f 11 fa 15 bf a2 0f a7 3e 13 63 bf be
       1.0613097 -0.58584696 0.32629114 -0.37380275
0001d0 c9 29 b8 bd fd 0a e5 be dc 48 e7 be 77 e1 59 3f
       -0.08992345 -0.44734946 -0.45172775 0.8510966
0001e0 29 fc 07 3f 00 95 32 3e 3f ca 07 bf fd 84 85 be
       0.5311914 0.17439651 -0.5304298 -0.26078025
0001f0 7c ba c3 3e 63 74 8e be e2 df 13 bf 1c 2d 28 3e
       0.38228214 -0.2782317 -0.57763493 0.16423458
000200 90 b2 20 bf 80 a7 8b bb f5 25 74 be da 14 20 bd
       -0.62772465 -0.004261911 -0.23842604 -0.039082386
000210 e4 37 a1 be 93 4f 2f be bb b9 13 bf e4 44 f0 be
       -0.31487954 -0.17120199 -0.5770528 -0.4692756
000220 3d b8 eb 3e 15 8c ca 3f ab ef 45 3e 92 17 ba bf
       0.46039 1.5824 0.19329707 -1.4538443
000230 f8 a4 2d bf 9b 55 8a 3f 2d 31 0a 3f 58 55 5c bf
       -0.6782985 1.0807375 0.53981286 -0.86067724
000240 d8 a1 2f 3e 08 52 c3 3d 10 92 1b 3f 34 0d ac be
       0.17151582 0.095371306 0.6076975 -0.33603823
000250 56 80 0f 3e de 25 f3 be 9b 19 29 bf 18 84 a2 3d
       0.140138 -0.47489828 -0.66054696 0.07935351
000260 a5 9b fe be 33 45 8b bd 9e cb 43 be 3b f6 fe be
       -0.49728122 -0.06800308 -0.19120643 -0.49797234
000270 70 f3 01 3f 70 16 31 3f 12 27 df 3e 83 9a 4d 3b
       0.5076208 0.6917486 0.43584496 0.0031372614
000280 2b 56 02 3d ed 6d ce bf d7 d2 62 be 35 e2 dc bd
       0.031820457 -1.6127297 -0.22150742 -0.10785333
000290 b2 02 40 bf e7 77 43 3f f4 f6 06 bf c0 ad a2 bc
       -0.7500411 0.7635483 -0.5272057 -0.019858241
0002a0 cd 9e 04 bf ba 37 7e 3f 7e b3 4e be 9e d1 2d 3f
       -0.5180481 0.9930378 -0.20185658 0.67897975
0002b0 c1 f5 67 3c 36 9d 1f bf b6 e5 98 3f 11 42 2c bf
       0.014157713 -0.6234926 1.1945102 -0.6728831
0002c0 51 27 66 3e 35 13 23 bf 9d 85 81 3e 38 c2 e2 3d
       0.22475936 -0.6370118 0.2529725 0.110722005
0002d0 36 de b0 3d a1 21 93 be f5 44 7d 3f 9b 7b 5f 3f
       0.086361334 -0.28736594 0.98933345 0.8729798
0002e0 c0 d1 95 bd 2a c0 66 be 35 29 fb bd 3e 89 48 3f
       -0.07315397 -0.22534242 -0.12263719 0.78334415
0002f0 c0 51 12 3f d4 56 1f 3f 40 b5 65 3e b4 cf be 3c
       0.5715599 0.62241864 0.22432423 0.0232924
000300 27 58 26 3e 58 d4 ca bf 5b b6 c1 3e 54 b4 4d bf
       0.16244565 -1.5846052 0.3783444 -0.80353284
000310 87 68 84 be 80 6b 5b 3f 3c 28 3c bf db fd e1 be
       -0.25860998 0.85710907 -0.7349889 -0.4413899

linear1.bias f4 [100]
000000 a4 f5 33 bf 0a 38 6a 3f 30 77 0e 3f ed 2c 70 3f
       -0.7029669 0.9149176 0.55650616 0.9381855
000010 73 87 d3 3e 14 b1 30 be c8 ab 8b 3f 7f ed 5c bb
       0.41314277 -0.1725505 1.0911798 -0.0033710895
000020 48 72 e8 be 25 86 7c 3f 70 e6 94 3f 3d a5 bd 3d
       -0.4539969 0.9864219 1.1632824 0.09260032
000030 99 f8 dd be 66 2f a9 3d c8 3e be 3d 25 08 2f 3f
       -0.43353727 0.08260994 0.09289318 0.683718
000040 09 73 60 3f e8 91 11 3f 81 bf 7e be d8 98 b7 3e
       0.8767553 0.5686326 -0.2487774 0.35858798
000050 29 fa 4e 3f 08 6d 2a 3f dd f6 f7 be e7 04 c5 3e
       0.80850464 0.6657262 -0.4843053 0.38480303
000060 40 e8 05 be ce b2 9c bd 7c d2 72 3f 73 e1 34 3f
       -0.13076878 -0.07651292 0.94852424 0.7065651
000070 95 f5 8d 3f 2b 0a 8b 3f bf b4 bd 3d 6a 1a 0c bf
       1.1090571 1.0862478 0.0926299 -0.54727805
000080 c6 d6 29 3f 6b 35 61 3f e6 77 69 3f 4c f7 6a 3f
       0.66343343 0.87972134 0.91198575 0.91783595
000090 02 13 5b 3f a2 c7 16 3f f0 a8 41 3d bb f5 63 3f
       0.8557588 0.58898365 0.047280252 0.8904683
0000a0 c0 39 33 bf 0c 83 55 3f 16 0c 2e 3f 4d 96 26 3f
       -0.70009995 0.83403087 0.6798719 0.6507309
0000b0 58 0b 49 be e9 5b 46 3f 5d 9d 28 3f d8 3f 30 bf
       -0.19633234 0.77483994 0.6586512 -0.6884742
0000c0 22 22 aa be 7e c2 6e 3f ab d3 c0 be 4a 01 78 3d
       -0.33229166 0.9326552 -0.3766149 0.060548104
0000d0 2b 37 5c 3f c3 a9 59 3f da 23 0c bf e2 a1 4e 3f
       0.8602168 0.8502466 -0.54742205 0.80715764
0000e0 83 fd 80 be 19 df 8e 3f 0b 77 01 3f bc 82 14 3f
       -0.25193414 1.1161834 0.5057227 0.58011985
0000f0 b5 36 30 3f 9e 32 0b bf 81 40 80 3f dc 71 ef be
       0.68833476 -0.5437411 1.0019685 -0.46766555
000100 6a 7a 21 bf 3b cb 27 3f ef 34 3a 3f 9b d4 88 3f
       -0.63077414 0.6554448 0.7273702 1.0689882
000110 ac 10 1a bf dc cd 93 3d d0 f3 7b 3f 3e c5 59 3f
       -0.6018169 0.07216999 0.98418903 0.8506659
000120 a5 2a 15 bf d6 74 cf 3e 6d 67 1c 3f b7 b7 f0 be
       -0.58268195 0.40518826 0.61095315 -0.47015163
000130 2e 52 79 3f a9 84 2f 3f dd a4 00 3e 9e 46 56 3f
       0.9739102 0.685618 0.1256289 0.83701503
000140 d2 55 77 3e 4e e6 87 3f 2a 75 67 3f a1 69 11 bf
       0.24153832 1.0617158 0.90413153 -0.568018
000150 73 b3 b2 3e 19 8c 47 3f a8 7c 2a 3f f3 e1 2d be
       0.34902534 0.7794815 0.6659646 -0.16980724
000160 f1 2d 0e 3f c9 37 98 3f 35 c0 e3 3e 64 3f cc bd
       0.5553885 1.1892024 0.4448258 -0.09973028
000170 49 20 2c bf 17 ce de 3e 06 80 3d 3f 3a a0 ff 3e
       -0.67236763 0.4351661 0.74023473 0.4992693
000180 66 b8 fe 3d 4b 3a 3d 3f 51 23 5b 3f a6 79 99 3f
       0.12437515 0.73917073 0.85600764 1.1990249

linear2.weight f4 [100, 100]
000000 30 33 ff 3b 21 6e 0c 3f aa 29 6c 3f ab 43 35 3e
       0.0077880844 0.54855543 0.92251074 0.17701595
000010 b4 c2 96 3e d1 96 3d 3f 00 9d 96 3e 68 a1 55 bd
       0.29445422 0.7405825 0.29416656 -0.052155882
000020 57 39 b1 bd 66 41 89 3e 89 b7 08 3f cc a9 0a 3f
       -0.08653515 0.26807708 0.5340505 0.5416534
000030 5c a6 cf bd 3f 55 52 bf eb 98 cc 3e 8e cd 5f 3d
       -0.101391524 -0.82161325 0.39960417 0.05463939
000040 30 75 71 3e c7 29 4a 3e a0 b8 89 be c7 d1 ce 3d
       0.2357986 0.197425 -0.2689867 0.100986056
000050 2c b9 30 3e 63 db 0f 3f d8 07 bc 3c 29 5b 28 3e
       0.17258137 0.5619413 0.022952959 0.16441025
000060 d9 89 91 3d fd 07 96 bf 50 13 84 3f 45 75 fb 3e
       0.071063705 -1.1721188 1.0318394 0.49112907
000070 03 c9 da 3e 7c d3 5e 3e 26 54 0a bf b3 90 00 be
       0.42731485 0.21760362 -0.5403465 -0.12555198
000080 97 6f 84 3e 44 8c 1a 3e e6 a5 3f 3f 20 3a 7f 3e
       0.25866386 0.1509257 0.74862516 0.24924517
000090 b7 2a 6f 3f 87 f7 64 3f 68 dd e9 bc 00 23 34 3f
       0.9342455 0.89440197 -0.028547958 0.70365906
0000a0 38 cf cc bc 18 e7 7c 3e 1d bf 76 3d 35 cd 1f 3f
       -0.025001153 0.2469753 0.060240854 0.62422496
0000b0 e0 e8 93 bc 9f 08 65 3f ee ca 8a 3e 44 c1 e9 3c
       -0.01805538 0.8946628 0.27107948 0.028534539
0000c0 b4 c3 d2 3c a1 7b 41 3f 97 2d 6e bf 57 38 2e be
       0.025728084 0.7557927 -0.93038315 -0.1701368
0000d0 42 f9 3a 3f e1 c0 90 3e c0 71 b1 bd 21 52 2f 3e
       0.7303659 0.28272155 -0.08664274 0.17121173
0000e0 ca 80 a0 be 35 99 49 3e 69 e1 e9 3e 09 47 1e 3f
       -0.31348258 0.1968735 0.45679787 0.6182714
0000f0 fd 70 37 3e 89 90 a4 3d 91 71 08 3e fb 6a c1 bd
       0.17914195 0.080353804 0.13324572 -0.09444233
000100 1a bb 4e 3d 83 1c ee 3e 69 4d 2c 3f 6a 43 5e 3f
       0.050471403 0.46506128 0.6730562 0.86821616
000110 b7 a3 6c bf 6e 01 0b bf 7e b8 0f 3f f6 a2 37 3e
       -0.9243731 -0.54299057 0.5614089 0.17933258
000120 a9 ce a9 3d ca f1 f6 3d 64 e9 92 3e 47 ae 4a bd
       0.082913704 0.12057836 0.28693688 -0.04948261
000130 6e 9f 4b 3f 74 8b 36 3f 2c d9 a4 bc 20 fc bf 3d
       0.79540145 0.7130654 -0.020123087 0.09374261
000140 07 47 3e bf 88 d9 b7 3e 39 6a 88 3f 00 cf b5 bb
       -0.7432713 0.3590815 1.0657417 -0.005548358
000150 5c 89 4c bf 45 17 c5 3e 12 1d c5 3e 5b ab 73 be
       -0.79897094 0.38494316 0.3849874 -0.23795836
000160 61 7e 8c 3e 3e ad 66 3e fb 2b 30 3e f1 dd 95 be
       0.2744017 0.22527024 0.17204277 -0.2927089
000170 99 ee 95 3d 72 8a 89 3e 0b 68 01 3e 0d da ba 3d
       0.073208995 0.26863438 0.12637345 0.09123621
000180 44 ba 3b bf b1 28 10 3e 97 86 e4 3e 43 c1 85 3f
       -0.73331094 0.14078023 0.44633934 1.0449604
000190 6a 74 6e bd 2c e4 8a bc c7 70 ae 3d 02 10 4a 3d
       -0.05821649 -0.016954504 0.08517604 0.049331672
0001a0 02 5e 30 3d 7d 7c 2c bd 37 5f 1e bd 0c e6 bb 3c
       0.043058403 -0.04211091 -0.038665023 0.022936843
0001b0 10 1c 1a bd d2 1c 33 3d fd 5c 97 3d 6a b3 1f 3d
       -0.03762442 0.043728657 0.07390783 0.038989462
0001c0 44 cf 0d bd 2a c5 82 bd 40 26 37 3b 8c e8 b9 3c
       -0.034621492 -0.06385262 0.0027946383 0.022693895
0001d0 fb 9c b6 3d bd 85 98 bd a5 57 b7 3d b4 dd e1 bc
       0.089166604 -0.074473836 0.08952264 -0.027571537
0001e0 f0 40 78 3c 8f c9 c5 3d 67 9e 22 bd ea c7 0a bd
       0.015152201 0.09657585 -0.039701845 -0.03388206
0001f0 43 63 32 bd e0 40 e7 bc 8a 60 8e bd 75 6f ae bd
       -0.043551695 -0.028229177 -0.06952007 -0.085173525
000200 08 7b 85 3c 70 ce c1 bd 68 c2 5c bc fa ff 16 bd
       0.016294017 -0.09463203 -0.013474084 -0.036865212
000210 60 89 d4 bb 70 cc 82 bd e8 f1 99 3c 23 ef ac bd
       -0.006486103 -0.063866496 0.018792108 -0.08444049
000220 37 f2 40 bd 33 2c 9c 3d 42 57 0d 3d 64 79 e1 3c
       -0.047105994 0.07625618 0.034507044 0.027523704
000230 91 74 a9 3d 34 c9 d4 bc 3b 63 9a 3d 40 f9 2c 3c
       0.082741864 -0.025974847 0.07538458 0.010557473
000240 37 ff 6d bd b8 ea e9 bc 10 cf 07 bd dd 7d b7 3d
       -0.05810472 -0.028554305 -0.033156455 0.089595534
000250 16 68 09 bd 50 48 72 3c e3 70 2d bd 83 71 28 bd
       -0.03354653 0.014787748 -0.042343985 -0.04112388
000260 e7 e6 48 bd 67 d0 44 bd 94 d0 f7 bc 20 39 3c bd
       -0.04904833 -0.04805031 -0.030250825 -0.045952916
000270 a0 ce 65 bd e7 62 b1 bd 80 fe cb 3b 8a 7b 25 3d
       -0.056105256 -0.08661442 0.006225407 0.04040102
000280 52 f7 ac bd cd 4e c9 3d 30 84 00 bd 52 ac 1c 3d
       -0.0844561 0.09829483 -0.031376064 0.038250275
000290 17 63 63 bd 78 6d 84 3c 0e b7 59 3d 7a 48 15 bd
       -0.05551442 0.01616548 0.05315309 -0.036446072
0002a0 3e 21 99 bd 32 b2 1d 3d 60 30 e1 bc ee aa 01 3d
       -0.074770436 0.03850002 -0.027488887 0.031657152
0002b0 7e 73 10 3d 29 bc ca 3d a2 6e 54 3d b3 76 90 3d
       0.035266392 0.0989917 0.05186332 0.0705389
0002c0 d9 4f 97 3d 35 5e 86 3d a7 08 2b bd 54 f1 db bc
       0.073882766 0.06560937 -0.0417563 -0.026848473
0002d0 fb f6 90 3d 92 43 09 3d 60 93 0e bb 18 7c c1 bc
       0.07078358 0.033511706 -0.0021755323 -0.023618743
0002e0 5f df ac bd 1c ad 88 bd 68 d7 0b 3c f0 4a 4e bd
       -0.08441042 -0.06673643 0.008535244 -0.050364435
0002f0 f4 76 0e bd ec 93 81 bc b6 7b a2 bd 07 81 6c bd
       -0.03478141 -0.015817605 -0.07933752 -0.057740238
000300 c2 43 3f 3d 36 10 9b bd 18 51 d0 bc 42 e8 0b 3d
       0.04669548 -0.07571451 -0.025429294 0.034157045
000310 b2 23 8a bd 32 fe b5 bd b0 b9 5f 3c ff 5c bc bd
       -0.067450896 -0.088863745 0.013655111 -0.09197425
000320 60 6a df bc 16 48 18 3f 86 6a 5b 3f ab 84 9a 3e
       -0.027272403 0.59484994 0.85709417 0.30179343
000330 10 b6 74 3e e2 af 1d 3f 6b 2d 95 3e 1d 7f 71 bd
       0.23897576 0.615965 0.29136214 -0.058959115
000340 f0 05 5c bd 28 28 ac 3e 47 e5 07 3f 43 fb 1e 3f
       -0.0537166 0.33624387 0.53084224 0.62102145
000350 12 99 2a be 22 96 6d bf 81 80 cc 3e 5a 5d 57 3e
       -0.16659954 -0.9280721 0.3994179 0.21031705
000360 44 aa 14 3e 90 73 82 3e e1 3a c6 be fc cf 0d 3d
       0.14518076 0.25478792 -0.38716796 0.034622177
000370 fd e1 dd 3d 65 73 1a 3f 20 19 15 bd ab 95 82 3e
       0.108341195 0.6033233 -0.036400914 0.25504813
000380 28 3a 5a bc 07 af 97 bf 33 e2 71 3f 92 0f fa 3e
       -0.01331953 -1.1850289 0.9448578 0.48840004
000390 06 8b ac 3e a4 be 7d 3e ff 86 14 bf d9 9e a3 be
       0.33699816 0.24779755 -0.5801849 -0.3195713
0003a0 41 20 ab 3e d9 45 9b 3e 41 c2 6b 3f 61 65 e0 3d
       0.33423045 0.30326727 0.9209328 0.109568365
0003b0 b1 f2 7a 3f cc 6c 67 3f 39 8a b5 3d 36 bd 39 3f
       0.9802657 0.90400386 0.088642545 0.7255434
0003c0 a2 ca 53 3d 57 17 5e 3e 78 a7 a7 3d a9 e3 03 3f
       0.051706918 0.21688591 0.08186239 0.51519257
0003d0 ac ff 17 bd 18 73 4a 3f a9 14 48 3e 73 e0 76 bd
       -0.037109062 0.7908187 0.19539131 -0.060272645
0003e0 9a 98 85 bd ab 49 47 3f e9 ca 77 bf f2 e6 4f be
       -0.06523247 0.77846783 -0.9679399 -0.20302942
0003f0 1c bb 41 3f 33 68 40 3e c3 a2 6b bd 7b 28 f1 3d
       0.7567613 0.18789749 -0.05752827 0.11775299

linear2.bias f4 [100]
000000 09 09 c3 3e 3e 04 34 3d 7b 76 d3 3e 05 be cc 3e
       0.3809283 0.04394936 0.4130133 0.39988723
000010 85 74 a9 3d a4 90 cb 3e aa d1 ee 3e 7b e6 9c bd
       0.082741775 0.3975879 0.46644336 -0.07661148
000020 94 35 c4 3e 7b 00 01 3f 9d aa 26 bd 43 e1 0b 3d
       0.38322127 0.5039136 -0.040690053 0.034150373
000030 28 cb cf bc 5b aa de 3e f9 80 a8 3e 8a d6 cd 3e
       -0.025365427 0.43489346 0.32910898 0.40202743
000040 c0 00 d0 3e b3 8a 92 3e d0 94 68 bd d0 c4 9f 3e
       0.40625572 0.28621444 -0.056782544 0.31204844
000050 7b be d7 3e de 2b bb 3e ea 8c d4 3e b3 51 e8 3e
       0.42137513 0.36556906 0.4151376 0.45374832
000060 46 65 95 bd 6e 54 8d 3e d4 8c df 3e 4d a1 c8 bd
       -0.07294707 0.27603477 0.4366213 -0.09796391
000070 a2 f7 c3 3e 57 10 e1 3e ce d6 3d bc a6 4c b9 3e
       0.38274866 0.4395778 -0.011586858 0.3619129
000080 e8 1a f1 3e e8 f4 95 3e f9 e2 8f 3e 60 b4 e7 3e
       0.4709084 0.2928841 0.28102854 0.45254803
000090 77 0c b2 3e f4 ea ff bc 2a 40 d2 3e 9d 2f 35 bd
       0.34775135 -0.031239964 0.41064578 -0.04423486
0000a0 76 a3 f3 3e 4e a1 df bd 4a 5f dc 3e 85 9a ac 3e
       0.47585648 -0.10919438 0.4304145 0.3371164
0000b0 62 12 e7 3e 09 de ed 3e a0 9c 98 3e b5 bc e0 3e
       0.45131212 0.46458462 0.29806995 0.43893972
0000c0 54 30 c8 3e 2b 80 b7 3d c3 3e dd 3e 62 d7 e7 3e
       0.3909937 0.08959993 0.43211946 0.45281512
0000d0 9c 37 8e 3e bd 2d 51 3d 20 27 f7 bc 2b 97 d6 3e
       0.27776802 0.05106901 -0.030170023 0.41912207
0000e0 97 a6 a2 bd 4a 57 8d 3e d8 9a 44 bc 25 8d c1 3e
       -0.07941931 0.2760566 -0.011999808 0.37802997
0000f0 2a d2 12 bd 27 7c e0 3e 76 f5 9a 3e 22 e1 ae 3e
       -0.03584496 0.4384472 0.30265397 0.34156138
000100 cb 37 97 3e 39 d7 e3 3e 91 31 e2 3e 5c 5d ed 3e
       0.29534754 0.4450014 0.4417844 0.4636029
000110 3f db c1 3e f7 71 b3 3e a2 1d e0 3e eb f2 d3 3e
       0.37862584 0.35047886 0.43772608 0.4139627
000120 98 63 9c bd 70 f5 ef 3e 60 40 2f bd d3 36 57 bc
       -0.076361835 0.4686694 -0.042786002 -0.01313563
000130 ab 07 9f 3e 55 dd e2 3e 3e e9 c9 3e 92 2f 8d 3e
       0.31060538 0.44309488 0.39435762 0.27575356
000140 b1 25 bd 3d 16 5a 82 be 63 47 64 3d c6 26 b8 3e
       0.09235705 -0.25459355 0.055732142 0.35967082
000150 7c 2a 04 bd 64 3f 07 bd 9c 42 c9 3e 4d 41 dd 3e
       -0.03226708 -0.03301944 0.3930863 0.43213883
000160 23 bd aa 3e be a8 5a be 29 74 63 be 04 0c 92 3e
       0.33347425 -0.21353433 -0.2221228 0.28524792
000170 d3 1a bc 3e 92 ec bb 3e da 47 90 3e 06 df e0 3c
       0.36739215 0.36703926 0.28179818 0.027450096
000180 b1 fd ed 3e d8 da ad 3e 61 99 cf 3e 03 ca ee 3e
       0.46482614 0.33956027 0.40546706 0.46638498

linear3.weight f4 [1, 100]
000000 71 b8 f3 be f4 85 dc 3a ce b3 f9 be 68 3d ef be
       -0.47601655 0.0016824589 -0.48769993 -0.46726537
000010 6b 4a b6 bb a0 65 f8 be d8 f1 fa be f8 96 74 bb
       -0.0055630705 -0.48515034 -0.49012637 -0.003732143
000020 9e 5b fb be 18 99 07 bf 45 80 21 bf f2 27 7a 3b
       -0.49093336 -0.5296798 -0.6308635 0.0038170782
000030 2b 6f 72 3b af cd ee be 12 0a f2 be 2e 0d 01 bf
       0.003699253 -0.466413 -0.47273308 -0.50410736
000040 07 7b fb be de 34 5a bf 46 03 17 bb d3 38 fa be
       -0.491173 -0.8523692 -0.0023042723 -0.48871478
000050 f8 7c fa be 41 40 f4 be 93 19 01 bf fe d2 01 bf
       -0.4892347 -0.47705272 -0.5042965 -0.50712574
000060 0e bf 23 bb e0 fd f1 be df 02 fd be b0 0c bc 39
       -0.0024985704 -0.47264004 -0.49416253 0.00035867607
000070 ea 12 fc be 17 b5 eb be c1 c0 83 bb 65 4e ef be
       -0.4923318 -0.46036598 -0.004020781 -0.46739498
000080 06 f3 fb be 88 ac fc be 64 a6 06 bf ae a9 f7 be
       -0.4920885 -0.4935038 -0.5259764 -0.48371643
000090 6e e4 f3 be 64 c5 77 ba 42 17 ff be 6d 7b 95 ba
       -0.47635216 -0.0009451716 -0.49822432 -0.0011404582
0000a0 04 26 ea be 4d 62 58 bc 0e e2 f1 be bd 19 f9 be
       -0.4573213 -0.0132070305 -0.4724278 -0.4865245
0000b0 e6 ff f3 be 96 c6 06 bf 34 8a 03 bf 0b 95 f1 be
       -0.47656173 -0.5264677 -0.51382756 -0.47184023
0000c0 af 05 f7 be 3f 02 17 bb b9 bd f9 be 67 a6 f8 be
       -0.48246524 -0.002304211 -0.4877756 -0.48564455
0000d0 b0 fe e7 be 7d bb f0 3a c9 20 01 bb c7 9a fb be
       -0.453115 0.0018366423 -0.001970338 -0.49141523
0000e0 b1 11 5c bb e3 a8 f7 be 20 e4 04 ba 61 29 f9 be
       -0.003357988 -0.48371038 -0.00050693937 -0.48664382
0000f0 78 ac 9e ba da 21 03 bf b1 00 01 bf 8d a0 f5 be
       -0.0012105843 -0.5122353 -0.5039168 -0.47974053
000100 71 ce ff be a6 90 fa be cd ae 03 bf c3 d4 f3 be
       -0.4996219 -0.48938483 -0.514386 -0.47623262
000110 ee 93 f8 be 70 ce ff be af 4e 00 bf 95 1e 02 bf
       -0.4855036 -0.49962187 -0.5012006 -0.50827914
000120 11 54 04 bb 07 03 e4 be 08 2a 61 ba b7 37 3f 3b
       -0.002019171 -0.4453356 -0.0008589332 0.0029177496
000130 bf 29 f7 be 39 74 03 bf 4a fc e6 be c5 4b f6 be
       -0.48274037 -0.51349217 -0.45114356 -0.48104683
000140 9c 88 1b 3b 78 8e 99 3f cc b4 0a 3b 6b 0d f1 be
       0.0023732549 1.1996603 0.0021164892 -0.4708055
000150 b0 b7 54 3a dc 76 14 3b 4e 74 01 bf a8 25 00 bf
       0.000811453 0.0022653854 -0.5056809 -0.5005746
000160 93 7c 01 bf e0 90 b1 3f 12 48 b3 3f 35 d8 03 bf
       -0.5058071 1.3872337 1.4006369 -0.5150178
000170 f5 8e 03 bf 5f 14 00 bf 18 fa 01 bf 06 c5 03 bf
       -0.5139001 -0.50031084 -0.5077224 -0.5147251
000180 d1 a6 fc be 04 df 01 bf 06 11 ff be f7 a0 e5 be
       -0.4934602 -0.5073092 -0.49817675 -0.4484937
