saved_models/stable_ddpg/value_net_checkpoint_a4.pth (torch, 44267 bytes, 5 tensors)

linear1.weight f4 [100, 2]
00000000: b1dc 2e3e 5252 53bf e892 df3d e0c9 06be
00000010: 8aa1 adbe 60c3 f9bd 1afa 20bd 2abf 533e
00000020: c0d6 b83e dcdb abbf 6b86 05bd e9c8 38bf
00000030: 066a 27bf e6a5 a1be 9647 863f f29d f3be
00000040: fcfc a9bd 4f86 bcbe 6bd5 19bf f1b3 1c3f
00000050: 6f5c 1dbf 1ce5 b33e a856 61be 709d 133d
00000060: e2fa 023e af85 ab3e 4898 ae3e d09f d23d
00000070: 1394 fabe 9228 67be 555b d8be fb11 d73e
00000080: 1e0d b43e 3be4 37be dcdf 0dbf befe 993e
00000090: 426d b0be 7588 623e 5d3c 8abe e9a7 493d
000000a0: 7164 c33e 9ff8 dabe 8fb1 8a3d 4903 fdbe
000000b0: 0e22 afbe b860 583e 02c9 94be 6c68 bc3e
000000c0: 50b5 eb3d 1366 c9be 39c5 f83e 250b 45be
000000d0: c0fe 02be e8c3 0a3e 8336 86be 90c3 ab3d
000000e0: 84c2 0c3c f2bc 213f 8168 abbe b82d 95bd
000000f0: e922 373e 46e9 253f ec57 823c 5861 2b3e
00000100: 2c16 bcbe 2fb8 f1be 49f7 1e3f 8edc 08bf
00000110: 5074 1fbf a80e 15be f369 a1be b0e0 093e
00000120: d407 083f edd9 0bbe cad9 d93e 7507 1c3f
00000130: 6aff a9be 8b26 38be e6d3 24bf 3030 17bd
00000140: 0ffc 48bf a439 233d d39d 6d3f 62cc fb3e
00000150: 7a97 8c3f 2fad 593f f977 93be 97e4 0b3f
00000160: 2a9c 2d3f 5fe1 03bf 8a86 bbbe 4847 3f3e
00000170: 283c 0a3c 2b21 29bf be23 22be ea48 993f
00000180: 0f79 34bf 66c9 28bf 13c4 39bf cfa9 5f3e
00000190: 2388 00bf e6bb 913e 9344 27bf 293e a6be
000001a0: ce29 db3e aa61 803e a46a 673e 77dc 85bf
000001b0: 88c4 e7bd 6042 6f3d ef2e c0be e99d a43e
000001c0: f7d5 f2be 48c1 8a3d 2405 6a3e 90aa 61bd
000001d0: 0ebc 26bf 30a1 f93e d272 9dbe 4222 16bf
000001e0: 8f7b 3fbd 8d15 32bf b376 353e d6d2 28bf
000001f0: ee9a 103f 9036 063f 3e5a 223f 7d21 073f
00000200: c9de 48bd 5e78 393d a665 9b3e 6c3d 373e
00000210: d175 f03e 59fc b5bf 0e68 893f c0aa b1bf
00000220: d090 67bc b91f 96be 3343 8a3f 37cf 51be
00000230: 9346 19bf e1a9 24bf 39a4 8f3e dc83 78be
00000240: cc23 aabe 90cf f53e eb77 2f3f 03ec 92bf
00000250: 475b a7be 1cc1 31be 3655 9fbe 165d 32bf
00000260: 8802 44be 14f1 28be 83d9 013e ead0 30bf
00000270: 65d8 6a3e 3175 74be ac58 5bbe 19ee 44bf
00000280: f69a f0be 1b56 4dbe 2e56 aebe 081f c63e
00000290: 06e7 41be c999 e1be 03cb 063f b70e 80bd
000002a0: b1b7 9bbc 9b8a bf3e 9b55 363f 71c5 a9bf
000002b0: ca53 863d 3b64 28bd 8a30 1ebe 01a0 d33e
000002c0: 5aa5 df3e c282 153f 78e4 df3e 08e0 363f
000002d0: c343 afbd 855f ebbe ecfe 053f 11da babe
000002e0: 8586 d2bd 6af2 943d dcd4 16bf fcca 0bbe
000002f0: b0b9 9f3e 4527 f23e 6be0 3ebe 3e3b e83e
00000300: 735e 7fbe 5023 27bf 48f5 0b3e b2c4 8b3e
00000310: cc60 323e 002b c23c 7c68 b8bd 8ea1 283f
0.17076375 -0.82547486 0.10916692 -0.13162947 -0.33912307 -0.12195468 -0.039301015 0.20678392
0.3610134 -1.3426471 -0.032598894 -0.72181565 -0.65396154 -0.31571883 1.0490596 -0.4758144
-0.08300206 -0.3682122 -0.60091275 0.6121207 -0.6146917 0.35135734 -0.22005713 0.036038816
0.12791017 0.3350043 0.34100556 0.10284388 -0.48941097 -0.2257407 -0.4225718 0.42005906
0.35166258 -0.17958157 -0.5541971 0.30077165 -0.34458357 0.22122367 -0.2699918 0.049232397
0.38162568 -0.42767808 0.06772148 -0.4941657 -0.3420567 0.21130645 -0.29059607 0.36798418
0.11509192 -0.3933569 0.4858797 -0.19242533 -0.12792492 0.13551295 -0.26213464 0.0838691
0.008591298 0.6317893 -0.33478168 -0.07284111 0.17884411 0.6480907 0.015911065 0.16736352
-0.36735666 -0.47210833 0.6209608 -0.5346154 -0.62286854 -0.14556372 -0.31526145 0.13464618
0.53136945 -0.13657351 0.42548972 0.6094888 -0.33202678 -0.17983453 -0.6438583 -0.03691119
-0.7850961 0.039849892 0.92818946 0.4917937 1.0983727 0.8502988 -0.2880247 0.54645675
0.6781641 -0.51515764 -0.36626083 0.18679535 0.008437194 -0.66066235 -0.15833947 1.1975377
-0.7049722 -0.6593231 -0.7256481 0.2184212 -0.5020773 0.28463668 -0.6533901 -0.324693
0.42805332 0.25074512 0.22599274 -1.0457906 -0.11316782 0.05841291 -0.37535807 0.32151726
-0.47428867 0.06775147 0.22853523 -0.0550943 -0.651307 0.4875579 -0.30751663 -0.58646023
-0.046748694 -0.69564134 0.17721061 -0.6594671 0.56486404 0.52427006 0.6341895 0.52785474
-0.04904059 0.045280807 0.3035099 0.17894524 0.46964887 -1.4217635 1.073488 -1.3880234
-0.014133647 -0.29321077 1.0801758 -0.20489202 -0.5987331 -0.64321715 0.2805498 -0.2426905
-0.33230436 0.4800992 0.68542355 -1.1478275 -0.32686827 -0.17358822 -0.31119698 -0.6967329
-0.1914159 -0.16498214 0.1268063 -0.6906878 0.2293411 -0.2387283 -0.21420544 -0.7692581
-0.46993226 -0.20052378 -0.34050125 0.3869555 -0.18935785 -0.4406264 0.5265352 -0.06252807
-0.01900849 0.37410435 0.71224374 -1.3263379 0.0655895 -0.041111212 -0.15448204 0.4133301
0.4368084 0.58402646 0.43728995 0.71435595 -0.085578464 -0.45971313 0.52342105 -0.36494496
-0.10279564 0.07272799 -0.5891855 -0.13651651 0.31196356 0.47295585 -0.18640296 0.45357698
-0.24938373 -0.6528826 0.13667786 0.27298504 0.17419738 0.023702145 -0.09004304 0.6587151

linear1.bias f4 [100]
00000000: 4b87 9abe 8654 cebe 1085 ebbd 2543 933f
00000010: 9c1f 203c f411 143f a634 a03f ef40 12be
00000020: 90fe 803f e8fa 903f 1689 8c3f 0cd7 41be
00000030: f98b 123f ec13 903f 289a 653e 3128 4e3f
00000040: 5ef2 a13e 5077 873d ae8e 363f 5465 643f
00000050: 80d5 aa3e 8426 c93e 5c27 9a3f cba5 243f
00000060: 4edf 583f 26e6 ff3e 8f68 3e3f f70d 8c3f
00000070: 92e9 153f 0026 7d3d ebe2 de3e e247 933f
00000080: 8112 2dbf a6a9 013f 931c 27bf e02d 3cbe
00000090: 85e0 413f 44a9 893e 0a1a 913f f8f6 823d
000000a0: dcd8 a03f 39b7 00bf ad59 06be afc3 1dbe
000000b0: 71bf ee3e 0565 b2be 1d86 103f eb1a c2bd
000000c0: 368d 07bf 7362 963f 57d3 5d3f a0ff 23bf
000000d0: 4d52 d13e 6087 6b3d d240 20bf 3945 433f
000000e0: a8a0 cbbd 5ad4 c0be 89ad 9d3f 364f 993f
000000f0: 9be2 9b3f 0782 a23e 158c 2a3f d93e 493f
00000100: aa26 163f 6e93 13bf 4055 8abd edf3 17bf
00000110: 8866 943f db26 48be e744 e7be e81e ab3e
00000120: 2253 953f b302 a2be fe6d b6be a6e0 733e
00000130: 1c0d 02be 4404 c83e f5b3 283f e419 533f
00000140: 59b4 9d3f 7086 8a3f d856 413f b8cf 1fbf
00000150: a68d 733f 28b6 98be 99ec fc3e 64c7 3d3f
00000160: 2ec1 883f ed68 093f c0ba 6d3f 78c5 833e
00000170: 8d48 6d3f 50a7 f1be bf34 a33e 0492 713f
00000180: 47f4 883f 8e1d 29bf dc59 8dbe 62a4 343f
-0.30181345 -0.4029886 -0.11499989 1.1504866 0.009773161 0.57839894 1.2516067 -0.14282583
1.0077686 1.132657 1.0979335 -0.1892969 0.5724483 1.125608 0.22422087 0.8053008
0.31630224 0.06614554 0.7131146 0.89217114 0.33366013 0.39287198 1.2043262 0.6431548
0.84715736 0.49980277 0.74378294 1.0941762 0.58559525 0.061803818 0.435325 1.1506312
-0.6760636 0.5064949 -0.65277976 -0.18376875 0.75733215 0.26886952 1.1336071 0.06394762
1.256618 -0.50279576 -0.13120146 -0.15406679 0.46630433 -0.34842697 0.5645464 -0.094777904
-0.52949846 1.1748794 0.86650604 -0.6406193 0.40883103 0.05750215 -0.6259891 0.762775
-0.09942752 -0.3766201 1.2318584 1.1977298 1.217853 0.31739828 0.6662 0.7861152
0.58652747 -0.57646835 -0.067545414 -0.59356576 1.159379 -0.19546072 -0.45169756 0.33422017
1.1665995 -0.31642684 -0.35630792 0.23816165 -0.12700313 0.39065754 0.6589959 0.8246138
1.2320663 1.0822277 0.7552314 -0.6242633 0.95138013 -0.29826474 0.4939926 0.7413237
1.0683954 0.5367573 0.9286308 0.25736594 0.9268883 -0.47197962 0.3187618 0.9436343
1.0699548 -0.6606072 -0.2760762 0.7056333

linear2.weight f4 [100, 100]
00000000: 3a11 343f f040 473c 3378 68bd 53fa ac3e
00000010: 3285 55bf 8bde 1b3f 052a 453f 3ade 2cbe
00000020: a593 ef3e 956c 2b3f 1f6a 483f 0006 af3b
00000030: fae0 893e 9cfd 563e 2d73 9cbd 71aa 413f
00000040: df36 f13c 17b7 6dbd 5849 2b3f 5ce8 fb3e
00000050: 3326 3f3e d3e1 a63e 357e 043f 6e77 163f
00000060: 75b1 a13e 6e3d 373d 02e0 be3e cd69 0e3f
00000070: e723 723e c992 bc3d 26ce 923d 6cbb ce3e
00000080: 1dcf c6bd f4a9 e33d fbfe 9abd d949 b53d
00000090: 5997 133e fe22 d23d 4fb9 203f 72f3 763d
000000a0: 2cbb 673f 2207 94bf a008 14be e7eb 8d3e
000000b0: 2cad 033e fcaf 06bd a802 b73e 8433 09bf
000000c0: f2cf 6d3d 667f 483f 1923 463f 3432 debc
000000d0: dae0 993d 444f 31bf ee26 443d eb14 113f
000000e0: 380b 8fbd 566c 1d3d a53f 2e3f 59f1 173f
000000f0: b538 053f 003b a43e b81d 5a3d 4aa7 3d3e
00000100: 6dd0 d23e a826 653c 4ba7 41bf 26bb 6cbf
00000110: e3d4 de3e 4c78 9fbe a20e 1b3d e65d 213e
00000120: 0803 bf3e bcf3 63bf 521d 233d 705a 093e
00000130: 8099 35bc 6e9a 8e3e b85c 943e 6eb6 313f
00000140: 46b1 353f 4f90 043f d8df 283f d1d4 913d
00000150: 2a75 773e 76b3 69bf dc52 853e c1e5 923e
00000160: 0a12 243e b9e8 213e 586d b73e 657c c03d
00000170: 25f7 e93e 802a f6ba 42e4 a43d 3b26 b03e
00000180: fea3 0a3f ec3c e73c 73ed 58bd bd92 853e
00000190: d792 bd3d 8814 edbc 0980 aa3d b69e 8b3d
000001a0: 8d44 133d 4769 3a3d e833 8cbd 1d4a f9bc
000001b0: 172a 783d 0916 853d 8137 20bb 926a 4a3d
000001c0: 2768 6ebd 6cd8 dc3c 66df 2a3d c9eb bb3d
000001d0: 23a1 13bc b09a 02bd d4a9 603d ca27 9abd
000001e0: dd8d 983c 38ca 883d b253 20bd c86c 91bc
000001f0: 5b1e 54bd 7f3e dbbd 5cdc 873d 9769 5a3d
00000200: a076 e9bb b295 033d f4e5 053d abfa adbd
00000210: 5137 853d 0a0f b03c 9582 c0bd 6293 90bd
00000220: f9d0 5fba a5cb 3abd fc71 783c 0a60 4fbd
00000230: 72e3 f23c 5041 a1bb e9aa a13d 60d3 49bb
00000240: c11b 9a3c 30e5 9bbb 7310 cdbd 9b11 813d
00000250: 80f2 ccba cdcc 733c a099 9ebd 9462 0fbd
00000260: 5cc8 babc dc47 d8bc 880d c6bd 54ae 82bc
00000270: ffb6 ab3d b2e4 033d 8417 cc3c a27e 39bd
00000280: ed0a 54bd da77 193d 3162 acbd 3171 c03c
00000290: 7c6b bdbc 5683 5f3d 4da2 ea3c 8cda 5c3d
000002a0: 33ad b33d c903 d2bd aa39 193d 361f 853d
000002b0: 4a8c 46bd 2707 1a3d 6adc 20bd cf32 ae3d
000002c0: 95c4 b7bd 769d 7f3c c48d a53d 01c9 8c3b
000002d0: 6611 f1bb da9d 2c3d 933d 543d a059 b4bd
000002e0: df59 d7bd e527 c4bd 8498 3fbd 75b3 93bc
000002f0: 0c08 1e3d fc7c 96bd 8188 d1bc 8177 90bd
00000300: 7880 5e3d 9d82 20bd 09a0 29bd d33a 98bd
00000310: 8f15 88bd 9b7f 9c3d 08af a23c c0cd b9bd
00000320: 1874 2c3f 4815 8cbd d0b7 37bd ef89 df3e
00000330: 0f61 4ebf 8e04 1a3f 55eb 5c3f efbe 4bbe
00000340: 804a ea3e cbc6 263f 570e 503f 2ad3 0dbd
00000350: 21bd 8d3e e60a 383e 4d35 93bd eb2a 233f
00000360: 47ec b43d d832 54bc caef 403f 0e32 f83e
00000370: 8f3a 5e3c e4b6 e23e f4ac 163f 1ba9 1c3f
00000380: 98c8 ac3e 1b9b a23d a6c2 be3e b661 e73e
00000390: 3bbb 903e 2768 2dbd 9e10 253e 7ec7 be3e
000003a0: 486d 8bbd 39a4 a73d a368 2ebd 2a84 72bd
000003b0: b80e 3d3e e0c8 13ba f36f 193f a220 88bd
000003c0: 40d3 6e3f 7f46 99bf 2a2c e2bd fea9 b03e
000003d0: 93c2 253e 96f4 1e3d 5b04 bf3e 584e 09bf
000003e0: 10cc 183c 0090 4a3f 0e21 573f 11b7 823d
000003f0: 7e05 213e ed43 21bf 0401 f43c 6c46 353f
0.70338786 0.012161478 -0.056755256 0.33784732 -0.83406365 0.6088645 0.7701724 -0.16881648
0.4679233 0.6696256 0.7828693 0.0053412914 0.26929456 0.20995182 -0.076391555 0.756507
0.02944511 -0.058035936 0.6690879 0.49200714 0.18666916 0.32594165 0.51755077 0.58775985
0.315807 0.04473632 0.3728028 0.5563019 0.23646508 0.092076845 0.07168226 0.40377367
-0.097074725 0.111164 -0.07568165 0.08851976 0.14413203 0.102605805 0.6278276 0.06029076
0.90519977 -1.1564677 -0.14456415 0.27719042 0.12859029 -0.032882676 0.35744214 -0.5359423
0.05805964 0.78319395 0.77397305 -0.027123548 0.0751359 -0.69261575 0.04788869 0.56672543
-0.06984562 0.038433395 0.68065864 0.5935264 0.52039653 0.32076263 0.053251 0.18520847
0.4117464 0.013986267 -0.75645894 -0.92473066 0.43521795 -0.31146467 0.03785575 0.15758476
0.37307 -0.89043784 0.039822884 0.13413405 -0.0110839605 0.27852196 0.2897699 0.6941899
0.7097362 0.517827 0.6596656 0.0712067 0.24165788 -0.9128946 0.2603978 0.28690913
0.16022506 0.15811433 0.3582561 0.093987264 0.4569637 -0.0018780977 0.08051349 0.34404168
0.5415648 0.028227292 -0.052960824 0.26088515 0.09256523 -0.028940454 0.08325202 0.06817381
0.035954047 0.045510557 -0.06845838 -0.030430848 0.060587015 0.064983435 -0.0024447145 0.04941804
-0.058204796 0.026958667 0.041716956 0.09175832 -0.009010586 -0.031885803 0.05484946 -0.075271204
0.018622333 0.06679195 -0.039142318 -0.017752066 -0.05178676 -0.107052796 0.06633827 0.053323355
-0.007124737 0.032125182 0.032690004 -0.08495077 0.065046914 0.021491546 -0.093999065 -0.07059361
-0.0008537914 -0.045604367 0.015163895 -0.0506287 0.02964947 -0.004921116 0.07893927 -0.0030796155
0.018812062 -0.004757546 -0.10012903 0.06302186 -0.0015636235 0.014880371 -0.077441454 -0.03500612
-0.022800617 -0.026401453 -0.0967055 -0.015952267 0.08384513 0.032200523 0.024913557 -0.045286782
-0.051768232 0.037467815 -0.08417166 0.023491474 -0.023122542 0.05456861 0.028641844 0.05391936
0.087732695 -0.10254628 0.03740851 0.06500094 -0.048473634 0.037604477 -0.039272703 0.08505785
-0.08973042 0.015601506 0.0808368 0.0042964225 -0.0073568104 0.042142726 0.051816534 -0.08806157
-0.105151884 -0.09577922 -0.04677631 -0.018029908 0.038581893 -0.07348058 -0.025577785 -0.070540436
0.054321736 -0.039187063 -0.041412387 -0.07433095 -0.06644737 0.07641526 0.019858852 -0.09072447
0.67364645 -0.068399966 -0.04485303 0.43659922 -0.8061685 0.601632 0.8629659 -0.19897054
0.45759964 0.65147084 0.8127188 -0.03462521 0.27683356 0.17972907 -0.07187901 0.6373736
0.08834129 -0.012951575 0.7536589 0.4847569 0.013563766 0.4428016 0.58857656 0.61195534
0.3374679 0.0793974 0.3725788 0.45191735 0.28267846 -0.042335656 0.1611962 0.37261575
-0.06807953 0.0818562 -0.042580258 -0.059208073 0.18462646 -0.00056375377 0.59936446 -0.06646849
0.9329109 -1.1974639 -0.1104358 0.34504694 0.16187505 0.038807474 0.3730801 -0.5363517
0.009325996 0.79125977 0.8403481 0.063825734 0.15724751 -0.6299427 0.02978564 0.7081058

linear2.bias f4 [100]
00000000: 2840 a73e 1bb4 9abd 8d23 c63e c930 af3e
00000010: 7ee9 c83e 00af e23e 0e49 fa3e ab9e e33e
00000020: cbdd f53e be9d ca3e 61dc f13e 412d f83e
00000030: 08a2 fb3e 2833 d13e 0d6f d63e 2336 fb3e
00000040: f2b1 e23e 953f ee3e 7b51 cb3e d16c f53e
00000050: ec44 cbbd 3db8 cc3e 1242 e43e 6b54 fb3e
00000060: 20e9 d93e 0cca ce3e a0cf fe3e e159 f83e
00000070: 57b2 c9bd 4076 303c 94f9 cc3e 969e 183d
00000080: 72e1 ef3e b59f dd3e 1a01 013f a1a6 b53e
00000090: aa5c 72bd fa57 fe3e 2273 e53e 01fa a03e
000000a0: 8573 e23e 098b cf3e 2169 bd3e 9abf 433d
000000b0: acfb a6bd 52e0 003f 00f7 063b e519 9ebd
000000c0: b310 b6bd f7dd 4cbd 5527 eabd 201b 973c
000000d0: 827b 003f 266d c23e a238 7d3d 1826 9fbd
000000e0: 5f15 2ebe 4c2c 033f e266 c23e 1cfa de3c
000000f0: 217d c33e 3f50 f33e b4f1 ed3e 2a1c e33e
00000100: a9e8 f73e 1ae0 f53e 196b 8c3d a7bc 3bbd
00000110: d6ab f93e d06f f23e e82e ba3e 2b74 c0bd
00000120: c272 713d 4c40 94bc da8b c73e ae7e f63e
00000130: 2bf5 d33e 253c e83e abf2 f23e a8b0 f0bc
00000140: bba9 da3e bb9a a0bd 30f6 c23e 1dd2 b93e
00000150: 28ea b43e 57ff b23e 7caa e83e a41c ab3e
00000160: f135 c73e 7d6b f53e 0648 ca3e a4a8 ca3e
00000170: ad8c 3bbd acc5 be3e a6dd d73e 1961 b53d
00000180: 48b5 fbbc 5d8b fd3e aa96 633c a7af e83e
0.32666135 -0.07553884 0.38698998 0.34216908 0.3924064 0.4427414 0.4888386 0.44456992
0.48020777 0.39573473 0.47238448 0.48472026 0.49147058 0.40859342 0.418816 0.4906474
0.44276386 0.46532884 0.39710602 0.47934583 -0.09925255 0.39984313 0.44581658 0.49087843
0.42560673 0.40388525 0.4976778 0.48506072 -0.09848469 0.0107703805 0.40034163 0.037260614
0.4685169 0.4328591 0.50392306 0.3547869 -0.059170403 0.49676496 0.44814402 0.31440738
0.4422876 0.40535763 0.3699427 0.047790147 -0.08153471 0.50342286 0.0020594 -0.07719783
-0.08889904 -0.05001637 -0.11433283 0.018445551 0.5018846 0.379739 0.061821587 -0.07770938
-0.1700034 0.51239467 0.37969118 0.02721887 0.38181403 0.4752216 0.46473467 0.44357425
0.48419693 0.48022538 0.06856365 -0.04583421 0.48763913 0.4735093 0.36363912 -0.09397157
0.058947332 -0.018097065 0.38973886 0.48143524 0.41397986 0.45358387 0.47450766 -0.029381111
0.4270762 -0.078420125 0.3807845 0.36293116 0.35334897 0.34960434 0.4544257 0.3342029
0.38908342 0.4793357 0.39508075 0.39581788 -0.045788456 0.37260187 0.42161292 0.088564105
-0.03072609 0.49520388 0.013890902 0.45446512

linear3.weight f4 [1, 100]
00000000: 0d68 febe 7b5a 983a b235 01bf 3ced fbbe
00000010: efe2 f8be e99a 05bf 2b06 00bf 2c05 fdbe
00000020: 72d1 12bf 30a7 ffbe 0674 01bf f822 02bf
00000030: 804c 03bf f8f4 06bf aaec fcbe a7ab f4be
00000040: 45fc f9be e354 ffbe fbff 02bf 9ae9 04bf
00000050: a82a 563b b2b5 fdbe a73e 04bf c6dc febe
00000060: ab4e 00bf ff90 fdbe c19b 00bf ca34 f4be
00000070: 70b3 5c3a ff1a dcba 41bb 04bf 0030 fdb6
00000080: 15bb 01bf 157a 00bf 1098 04bf 629c 05bf
00000090: 60b3 ffb8 d730 00bf d76e 05bf f2ca 05bf
000000a0: e7b2 fdbe a9ec 04bf fae3 01bf 46e8 57ba
000000b0: 517f fc3b 8a48 02bf e457 16bb e4fd 6dba
000000c0: a8df 843b 60a4 bf3a 6d90 983f 50f5 4d3a
000000d0: 69da fabe 8382 03bf a8dd 74ba c0f7 6db9
000000e0: 30f1 9b3f 4dc8 04bf 8e10 02bf a49c 383b
000000f0: 2e96 01bf 9656 00bf 3244 05bf 8a03 05bf
00000100: d513 ffbe 785d f0be b8b3 003b 107f 533a
00000110: 2f46 f9be 3b0f 00bf a0c0 01bf cca5 44ba
00000120: 782f 9a3a e1b8 f4ba 6fb7 f3be bb4e f7be
00000130: dce5 f6be 92f4 f7be 7c58 02bf a01f 23b9
00000140: 4b9d fdbe 2459 203b 6298 05bf d2e7 02bf
00000150: 9293 fcbe 8039 02bf 661c 07bf fc80 05bf
00000160: d0e0 01bf c7d7 07bf d427 04bf 8481 f7be
00000170: c5e2 92ba f34b ffbe 354d 03bf ee35 f6ba
00000180: e4b6 ef3a e922 02bf c241 8239 6609 03bf
-0.4968876 0.0011623645 -0.5047256 -0.49204433 -0.48610637 -0.521895 -0.5000941 -0.49418008
-0.5735084 -0.4993224 -0.5056766 -0.5083461 -0.51288605 -0.5271754 -0.4939931 -0.4778721
-0.4882528 -0.4986945 -0.51171845 -0.5191895 0.0032679234 -0.49552685 -0.516581 -0.49777812
-0.5012004 -0.49524686 -0.5023766 -0.47696525 0.0008419072 -0.0016792713 -0.51848227 -7.5455755e-06
-0.5067609 -0.5018628 -0.5179453 -0.52191746 -0.00012192759 -0.50074524 -0.52122253 -0.52262795
-0.49550554 -0.51923615 -0.5073849 -0.00082362106 0.007705607 -0.50891936 -0.002294057 -0.0009078665
0.004054982 0.0014621131 1.1919075 0.0007856684 -0.4899476 -0.5137102 -0.00093408907 -0.00022694375
1.218298 -0.51868135 -0.5080651 0.0028169537 -0.5061978 -0.5013212 -0.5205718 -0.51958525
-0.49819818 -0.4694631 0.001963837 0.0008067945 -0.48686358 -0.5002324 -0.5068455 -0.00075015123
0.0011763414 -0.0018670821 -0.47600886 -0.48302254 -0.48222244 -0.4842878 -0.50916266 -0.00015556673
-0.49534068 0.0024467194 -0.5218564 -0.5113498 -0.49331337 -0.5086899 -0.5277771 -0.5214994
-0.5073366 -0.53063625 -0.5162327 -0.48341 -0.0011206499 -0.49862632 -0.51289684 -0.0018784383
0.0018288759 -0.5083452 0.00024844526 -0.51186216
