saved_models/stable_ddpg/value_net_checkpoint_a2.pth (torch, 44267 bytes, 5 tensors)

linear1.weight f4 [100, 2]
0	0xbed10cd2	-0.40830094
1	0x3f6bfeae	0.92185485
2	0xbf0da830	-0.5533476
3	0xbef11ae0	-0.47090816
4	0xbe8e55f6	-0.27799958
5	0x3ef97d15	0.48728243
6	0x3e96ab5a	0.29427606
7	0x3f05a720	0.5220814
8	0xbef8e45a	-0.48611718
9	0xbf0fd68c	-0.5618675
10	0x3f2d9080	0.67798615
11	0x3d8f14ea	0.06986411
12	0xbf02002f	-0.5078153
13	0x3f1791ec	0.59207034
14	0xbe7a46dc	-0.24441093
15	0x3eb78d76	0.35850114
16	0x3ec7785b	0.3895901
17	0x3f01dd9f	0.5072879
18	0xbf227ee6	-0.6347488
19	0x3f55fb83	0.835869
20	0xbe15adcd	-0.14617081
21	0xbed56d22	-0.41684824
22	0xbd1c2ebc	-0.038130507
23	0x3f6bb40d	0.9207161
24	0xbeeb290a	-0.45929748
25	0xbee33fbb	-0.4438456
26	0x3f02a619	0.51034695
27	0x3f08679c	0.53283095
28	0xbe76a136	-0.24084935
29	0x3f89e9d4	1.0774484
30	0xbed20f20	-0.41027164
31	0x3e4413d1	0.19148184
32	0xbe591b9c	-0.21201938
33	0x3ea094aa	0.31363422
34	0xbf33041d	-0.6992815
35	0xbe2acf60	-0.1668067
36	0x3f42662e	0.75937164
37	0x3f67e1f2	0.9057914
38	0x3f24463a	0.6416966
39	0xbe528d0f	-0.20561622
40	0x3f8adeab	1.0849203
41	0xbf022c24	-0.50848603
42	0xbf020057	-0.5078177
43	0x3eb656f6	0.3561322
44	0x3f26cf1f	0.6515979
45	0x3f3ecb78	0.7452922
46	0x3be6cccf	0.007043458
47	0x3f3843b9	0.71978337
48	0xbf26cb92	-0.65154374
49	0x3f60aac8	0.8776059
50	0x3b34bd4c	0.002757865
51	0x3f17bae7	0.59269565
52	0x3eea8b1d	0.4580926
53	0xbf642b65	-0.89128715
54	0x3edb686e	0.4285311
55	0x3ee202eb	0.4414285
56	0x3edd2b17	0.43196937
57	0x3e517d94	0.2045806
58	0xbf158521	-0.58406264
59	0xbee6fb90	-0.45113802
60	0xbf14691a	-0.5797287
61	0xbf143dbf	-0.5790672
62	0xbef2c1dc	-0.47413528
63	0x3ead0654	0.3379389
64	0x3f3ff50a	0.74983275
65	0xbeb18b06	-0.3467638
66	0x3f41ffa1	0.75780684
67	0xbf086bdf	-0.532896
68	0x3f4f15f1	0.80892855
69	0x3f19ac22	0.6002828
70	0xbeb35c35	-0.35031286
71	0x3f06f490	0.5271692
72	0x3f52deaa	0.8237101
73	0x3f57bbd9	0.8427101
74	0x3eb27500	0.3485489
75	0xbedc55dd	-0.43034258
76	0xbe0d887c	-0.13821596
77	0x3ed28241	0.41115
78	0xbea8b11f	-0.32947633
79	0x3ee88b91	0.4541898
80	0x3efaf4fa	0.49015027
81	0xbdb159e4	-0.086597234
82	0xbf05db9e	-0.52288234
83	0x3e7e8fd0	0.24859548
84	0xbe844c6b	-0.25839552
85	0xbe846956	-0.25861615
86	0x3e45b2ee	0.19306538
87	0x3f1afe5c	0.6054437
88	0xbea0f075	-0.31433454
89	0xbe955057	-0.29162857
90	0xbe4839b0	-0.19553256
91	0xbf23b825	-0.6395286
92	0xbd5aa58d	-0.053380538
93	0xbde8ca47	-0.11366706
94	0xbcd3a6fb	-0.025836458
95	0x3e2d892a	0.16946855
96	0x3e405cf4	0.18785459
97	0xbcab870e	-0.020938423
98	0x3e3f5d59	0.18687953
99	0x3e8c5f9e	0.274167
100	0x3f01b319	0.50663906
101	0x3e4b31ae	0.1984317
102	0xbf032a22	-0.51236165
103	0x3e9ff79e	0.31243604
104	0x3f70b318	0.94023275
105	0xbf00e036	-0.5034212
106	0x3f050457	0.5195975
107	0x3ed68311	0.4189687
108	0x3bcc91d7	0.0062429714
109	0x3f0edbab	0.55803937
110	0x3f93ab7f	1.1536711
111	0x3e933621	0.28752235
112	0x3f3e250f	0.74275297
113	0x3d2ab815	0.04167946
114	0xbdf53c3d	-0.1197438
115	0x3f925e94	1.1435113
116	0xbdabb329	-0.083837815
117	0xbf387b0f	-0.7206277
118	0x3f15d90f	0.5853433
119	0xbe8b4bb6	-0.272062
120	0xbee0c93c	-0.4390353
121	0xbead613c	-0.33863246
122	0x3eaf005e	0.34179968
123	0xbfc09a99	-1.504718
124	0x3ee0fa97	0.43941185
125	0xbf9223b3	-1.1417145
126	0x3e5ec798	0.21755826
127	0x3f2568c7	0.64613
128	0xbe8a835d	-0.27053347
129	0xbefa926c	-0.48939836
130	0x3e355bb6	0.17710766
131	0xbed3b9be	-0.41352648
132	0xbf1a2cd0	-0.6022463
133	0xbf2061fc	-0.6264951
134	0xbbe32db1	-0.006932937
135	0x3fa1e0ba	1.2646706
136	0x3f4e1807	0.8050541
137	0xbf84b9a5	-1.0369154
138	0x3d9ad258	0.07559651
139	0xbf18ab5c	-0.59636474
140	0x3ed0c692	0.40776497
141	0xbf1d0650	-0.6133776
142	0xbe09dfb8	-0.13464248
143	0x3e1d439c	0.15357822
144	0xbea9fbf3	-0.33200034
145	0xbd9a7eb7	-0.075437
146	0xbf139e4b	-0.5766341
147	0xbf3348f4	-0.7003319
148	0xbf0d0a61	-0.5509396
149	0xbe8e2406	-0.2776186
150	0x3f6469d4	0.8922398
151	0xbf073b48	-0.5282483
152	0xbdd90810	-0.10597241
153	0xbd3d1f40	-0.04617238
154	0x3ec089f2	0.37605244
155	0x3f50b2bd	0.8152273
156	0xbee0b271	-0.4388614
157	0xbe875aed	-0.26436558
158	0x3e552b96	0.20817408
159	0x3fa98312	1.3243124
160	0x3f891b0a	1.0711377
161	0xbe49ab5a	-0.19694272
162	0x3f2ed166	0.68288267
163	0xbdd13e0f	-0.10216915
164	0x3f62a3f2	0.8853141
165	0xbe7e332e	-0.24824211
166	0x3c4f9ab4	0.012671161
167	0x3eb45877	0.35223743
168	0xbee3bf5d	-0.44481936
169	0x3ef058cd	0.4694275
170	0x3d84d3dd	0.06485722
171	0x3f6867a4	0.90783143
172	0xbeecdc2b	-0.46261725
173	0xbecfaf4a	-0.40563422
174	0x3f05a251	0.522008
175	0x3f3d0db7	0.7384905
176	0x3e862e5f	0.26207253
177	0x3fadc559	1.3575851
178	0x3e50f3e1	0.20405532
179	0x3f299715	0.6624616
180	0x3ec2c854	0.38043463
181	0xbf334126	-0.70021284
182	0xbf1d84cd	-0.6153076
183	0xbdc15398	-0.09439772
184	0x3e4363ad	0.19080992
185	0x3eb39bbf	0.35079762
186	0xbf00a54f	-0.5025224
187	0x3f1a27b3	0.60216826
188	0xbf20def4	-0.628402
189	0x3e8cad3d	0.2747592
190	0x3f493c4b	0.78607625
191	0xbe966ef0	-0.29381514
192	0xbe80fb86	-0.25191897
193	0x3f054bd9	0.5206886
194	0x3f879aef	1.0594157
195	0x3f4a8508	0.7910924
196	0xbe53b7f3	-0.2067564
197	0xbe87b6ee	-0.26506752
198	0xbe8fd852	-0.28094727
199	0x3e485c1c	0.19566387

linear1.bias f4 [100]
0	0x3f538478	0.82624006
1	0xbf1a7863	-0.60339946
2	0x3f364946	0.71205556
3	0x3e38e818	0.18057287
4	0xbe4e6cfc	-0.20158762
5	0x3f911bf2	1.1336653
6	0x3f8a2ccd	1.0794922
7	0xbec95588	-0.39323068
8	0x3efa5d1a	0.48899156
9	0x3f7c64ab	0.9859111
10	0x3fa02912	1.2512534
11	0x3ea35ff6	0.3190915
12	0xbf06b6d3	-0.5262272
13	0x3f614a28	0.8800378
14	0x3d74863a	0.05969832
15	0x3f98fba4	1.1951795
16	0xbef8e0d1	-0.4860902
17	0x3ec6bdda	0.3881672
18	0x3bd6b46d	0.00655227
19	0x3eb698dd	0.356635
20	0xbd9c1596	-0.07621305
21	0xbe7c45d4	-0.24636012
22	0x3f256dba	0.64620554
23	0x3f0d84eb	0.5528094
24	0x3f458518	0.7715621
25	0x3f856518	1.0421476
26	0x3e30749b	0.17231981
27	0x3f859851	1.0437108
28	0x3df367cd	0.11885033
29	0x3f98accb	1.1927732
30	0xbd0bfef0	-0.034178674
31	0x3f750852	0.9571582
32	0x3f112195	0.5669187
33	0x3edcae43	0.431017
34	0xbe5138fb	-0.20431893
35	0x3f4a1c92	0.78949845
36	0xbedecc4e	-0.43515247
37	0x3f185481	0.5950394
38	0x3f9bff08	1.2187204
39	0x3f4671d1	0.7751742
40	0x3f7e80ce	0.9941529
41	0x3f74d3ea	0.95635855
42	0x3f7a78ce	0.97840583
43	0xbf135a85	-0.57559997
44	0x3f808492	1.0040457
45	0x3f928e92	1.1449759
46	0x3f458f81	0.77172095
47	0x3efb43f4	0.49075282
48	0x3f6ae71b	0.9175889
49	0x3f46d0ff	0.7766265
50	0x3f4dfe59	0.8046623
51	0xbee9d683	-0.45671472
52	0xbdf47eca	-0.119382456
53	0x3f47247b	0.7779004
54	0x3f8667cd	1.0500427
55	0xbebe7e56	-0.37205762
56	0x3ee22246	0.44166774
57	0xbd699f26	-0.05703654
58	0x3f9df6e7	1.2340974
59	0x3e89dbbe	0.26925462
60	0xbf2e742c	-0.68146014
61	0xbd3deaba	-0.04636643
62	0xbe3d4626	-0.18483791
63	0x3f228b48	0.63493776
64	0x3f9619cb	1.1726621
65	0x3f2fcea8	0.6867471
66	0x3f93c733	1.1545166
67	0xbe308aba	-0.1724042
68	0xbf04acc3	-0.51826113
69	0xbf22d963	-0.63612956
70	0x3f557e07	0.8339543
71	0xbe69191e	-0.22763488
72	0x3f5c877a	0.8614422
73	0x3f9601f0	1.1719341
74	0xbf1da2f3	-0.61576766
75	0xbda72bd2	-0.08162655
76	0xbe95c845	-0.29254356
77	0x3e3195ed	0.17342348
78	0x3d5a1f80	0.053252697
79	0xbebf3047	-0.3734152
80	0xbd8e55b4	-0.0694994
81	0x3f8dbc41	1.1073076
82	0xbd1c2311	-0.03811938
83	0x3ee4c86c	0.4468416
84	0x3f5d62a1	0.8647862
85	0x3e8d30bc	0.27576244
86	0x3dc8a62f	0.09797322
87	0x3f9cb0ff	1.2241515
88	0xbeda4c11	-0.4263616
89	0xbf1fb453	-0.6238453
90	0x3e4e529f	0.20148705
91	0xbe9f3dd5	-0.31101862
92	0x3f8e08e9	1.1096469
93	0xbf2ddeb0	-0.6791792
94	0x3f9ecbbe	1.2405927
95	0x3e2bcabc	0.16776556
96	0xbf2cfe42	-0.67575467
97	0xbeebf06b	-0.46081862
98	0xbcb8a8e2	-0.022541467
99	0xbe3b48ac	-0.18289441

linear2.weight f4 [100, 100]
0	0xbdbabf30	-0.09118497
1	0xbced8b48	-0.028997079
2	0xbda1d5bd	-0.079020955
3	0xbd7cdb57	-0.061732616
4	0x3dbfd039	0.09365887
5	0xbd102b84	-0.03519775
6	0xbd26ecdd	-0.040753234
7	0xbdb91fa2	-0.090392366
8	0x3d1fce16	0.0390149
9	0xbce8e6f8	-0.028430447
10	0xbb481b60	-0.0030533895
11	0xbc8a53f8	-0.016885743
12	0xbda67e12	-0.08129515
13	0xbd98baa8	-0.07457477
14	0xbd577b47	-0.0526078
15	0x3d9452d3	0.0724236
16	0xbd4579b0	-0.048211753
17	0xbd99eef0	-0.07516277
18	0xbd122fd0	-0.03569013
19	0x3c18e6f0	0.009332404
20	0xbaa7b000	-0.0012793541
21	0xbd84c176	-0.06482212
22	0x3d4d9ad6	0.05019649
23	0x3d266956	0.0406278
24	0xbdad77ff	-0.08470153
25	0xbd5640e3	-0.052307975
26	0x3d3294ea	0.043599047
27	0xbd895e94	-0.067074925
28	0xbc8a6254	-0.01689259
29	0xbd8110dd	-0.063020445
30	0x3c10a4b0	0.008828327
31	0x3d086b82	0.033305652
32	0x3dbbff93	0.09179606
33	0x3c8f0dc0	0.017462611
34	0xbdb2e105	-0.08734325
35	0xbdc8c633	-0.098034285
36	0x3d92f3dd	0.071754195
37	0xbd7e72e0	-0.062121272
38	0xbd05e256	-0.032686554
39	0x3c9f7420	0.019464552
40	0x3c894f0c	0.016761325
41	0x3db66e1d	0.08907721
42	0x3d5ffd36	0.05468484
43	0x3c802a68	0.01564522
44	0xbd620707	-0.055182483
45	0xbdab925b	-0.083775245
46	0xbcdbd6cc	-0.026835822
47	0x3cbdb1d8	0.023156092
48	0xbda9aa0d	-0.08284388
49	0xbd4a2d4d	-0.04935961
50	0x3d6ee712	0.058325835
51	0xbd7d3b13	-0.061823916
52	0xbcb47460	-0.022028148
53	0xbd234f10	-0.03987032
54	0xbc3d57b0	-0.011556551
55	0x3ce8f9a4	0.02843935
56	0x3d82da6b	0.06389316
57	0xbd5aee0a	-0.053449668
58	0xbcb922c0	-0.022599578
59	0x3d779bc2	0.060451277
60	0xbd7125e0	-0.05887401
61	0xbcb0498c	-0.021519445
62	0xbd46778a	-0.048453845
63	0xbdc37aaf	-0.095448844
64	0xbcfd9998	-0.030957028
65	0xbafa4f80	-0.0019097179
66	0xbdb1e7b8	-0.08686775
67	0x3d68a4ea	0.0567979
68	0x3d9cb23b	0.07651182
69	0x3d8fc3e5	0.07019786
70	0xbb8df930	-0.004332684
71	0xbda681ae	-0.08130203
72	0x3b12ab60	0.002237998
73	0xbd7d0e13	-0.061781
74	0xbcba3178	-0.022728667
75	0xbdb6b4bf	-0.08921193
76	0x3cb00428	0.021486357
77	0xbd9eb320	-0.07749009
78	0xbc09b540	-0.00840503
79	0x3d8af7e5	0.067855634
80	0x3b7a1bc0	0.0038163513
81	0xbd805dba	-0.06267877
82	0x3c8847c0	0.016635776
83	0xbdafea27	-0.08589583
84	0xbdaadd7d	-0.08343027
85	0x3d71ba0a	0.05901531
86	0xbd9fea98	-0.07808417
87	0xbdb0c6ad	-0.086316444
88	0x3ba09920	0.0049010664
89	0xbd8be1c5	-0.068301715
90	0xbc4ea918	-0.012613557
91	0x3d91c549	0.07117707
92	0x3d76641a	0.060154058
93	0x3d6ba526	0.057530545
94	0xbdb984d8	-0.09058541
95	0xbdcc6012	-0.099792615
96	0x3abc6c80	0.0014375597
97	0x3dad12bd	0.0845084
98	0xba372180	-0.0006985888
99	0x3d3330c2	0.04374767
100	0x3f202880	0.625618
101	0x3d5a3b02	0.05327893
102	0x3f190c8e	0.5978478
103	0x3e349144	0.1763354
104	0x3da0e11f	0.078554384
105	0x3ea65308	0.32485223
106	0x3f338491	0.70124155
107	0xbd87aba5	-0.066245355
108	0x3e6ebf44	0.2331515
109	0x3f2b94aa	0.6702372
110	0x3ed831bc	0.42225444
111	0x3e8dafab	0.27673087
112	0xbc3707d8	-0.011171304
113	0x3e53afe8	0.20672572
114	0xbf43366e	-0.7625493
115	0x3f09b7f4	0.53796315
116	0x3d77e04a	0.060516633
117	0xbd94249a	-0.07233544
118	0xbc9ca75f	-0.019122778
119	0x3dcb4e66	0.09927063
120	0x3ba13d97	0.004920672
121	0xbcf38c80	-0.029730082
122	0x3d6aaf9b	0.057296377
123	0x3e8cacb6	0.27475518
124	0x3f5a220b	0.85208195
125	0x3eb598db	0.35468182
126	0x3e53cb36	0.20682988
127	0x3e9765f8	0.29569983
128	0x3d61d7a7	0.055137303
129	0x3f3ff93d	0.7498968
130	0x3d3a48e6	0.045479678
131	0x3f503d06	0.81343114
132	0x3de0a387	0.1096869
133	0x3e071f9c	0.13195652
134	0xbda97c06	-0.08275609
135	0x3f26c078	0.65137434
136	0xbf6a42c2	-0.91508114
137	0x3e31b3d5	0.17353757
138	0x3f010fce	0.5041474
139	0x3f251dda	0.64498675
140	0x3eaeca78	0.34138846
141	0x3f4af2b3	0.7927658
142	0x3f1ce704	0.6129
143	0x3f2e17e3	0.680052
144	0x3f07e06c	0.53076816
145	0x3f10a2bc	0.5649831
146	0x3f00e51d	0.503496
147	0x3ef1362a	0.47111636
148	0x3e8ff014	0.28112853
149	0x3e6f358e	0.23360273
150	0x3e5eb748	0.21749604
151	0xbd572813	-0.052528452
152	0xbe0b903a	-0.13629237
153	0x3e8b069c	0.2715348
154	0x3eba576d	0.36394826
155	0xbe68c970	-0.22733092
156	0x3c843120	0.016136706
157	0xbf238628	-0.6387658
158	0x3ee9a118	0.45630717
159	0x3d1c7bf6	0.038204156
160	0x3d8e355b	0.069437705
161	0xbf72442a	-0.9463526
162	0xbf882d3e	-1.0638807
163	0x3e71285c	0.23550552
164	0x3f138319	0.57621914
165	0x3eb56e04	0.35435498
166	0x3f5290b3	0.82252043
167	0xbed1c332	-0.40969235
168	0xbf898684	-1.0744176
169	0xbd89836e	-0.06714521
170	0x3e6b9ad0	0.23008275
171	0xbd429d5d	-0.047513355
172	0x3f472dd5	0.7780431
173	0x3f63a396	0.8892149
174	0x3d0837ba	0.03325627
175	0xbd9ba770	-0.076002955
176	0xbd484a23	-0.048898827
177	0x3db6b468	0.089211285
178	0xbd0fb000	-0.035079956
179	0xbf59dbe6	-0.85101163
180	0x3c800b34	0.015630342
181	0x3e9c14fd	0.30484763
182	0xbe01dcca	-0.1268188
183	0x3eb030fe	0.34412378
184	0x3f703673	0.9383308
185	0x3e82832a	0.25490695
186	0x3d45faf7	0.04833504
187	0x3e9684d7	0.29398224
188	0xbf41e35e	-0.7573756
189	0x3f3feb5d	0.7496851
190	0x3dfc9c3b	0.12334486
191	0x3c6b1558	0.01434835
192	0x3eaa622f	0.33278033
193	0xbd3e78e3	-0.046502005
194	0x3f2a5ba2	0.6654607
195	0xbb6977e7	-0.0035624446
196	0xbce06d88	-0.027395979
197	0xbe97fbba	-0.2968424
198	0x3d6b0f38	0.05738756
199	0x3d63ed86	0.055646442
200	0x3ee32e14	0.44371092
201	0xbd93b40e	-0.07212077
202	0x3f1bdbb2	0.60882103
203	0x3e02ffc6	0.12792882
204	0x3a8d6280	0.0010786802
205	0x3e4e13d4	0.20124751
206	0x3f355076	0.708259
207	0xbc7b8a10	-0.015352741
208	0x3e5ddde9	0.21666683
209	0x3f304e3f	0.68869394
210	0x3f04fa3c	0.5194433
211	0x3e61d8cb	0.22055356
212	0x3d8d7c07	0.06908422
213	0x3df4229c	0.11920664
214	0xbf1b64a2	-0.6070043
215	0x3f0980ca	0.5371214
216	0xbd77aaf3	-0.060465764
217	0x3c971d18	0.01844649
218	0x3c9694c0	0.018381476
219	0x3e31bc3b	0.1735696
220	0xbc95f1bc	-0.018303744
221	0x3b8c0e80	0.0042741895
222	0x3e4e0dfa	0.20122519
223	0x3e48fdc0	0.19628048
224	0x3f651602	0.89486706
225	0x3eba9dea	0.36448604
226	0x3dce1364	0.10062292
227	0x3e83642c	0.25662363
228	0x3df9f01b	0.122039996
229	0x3f673815	0.9031995
230	0x3cd0b03c	0.02547466
231	0x3f2d4f91	0.67699534
232	0x3e55c95b	0.20877592
233	0x3dd487ca	0.10377462
234	0xbe618e87	-0.22027026
235	0x3f2cb166	0.6745819
236	0xbf82443c	-1.0177073
237	0x3e2584ee	0.1616399
238	0x3f031356	0.5120138
239	0x3f347322	0.7048818
240	0x3e5bfb75	0.21482642
241	0x3f4a1d32	0.789508
242	0x3f299822	0.6624776
243	0x3f3f8d85	0.74825317
244	0x3f30e109	0.69093376
245	0x3f12400f	0.57128996
246	0x3eb8081e	0.35943693
247	0x3eae341d	0.34024134
248	0x3eb4a3b1	0.35281137
249	0x3ea1d0aa	0.3160451
250	0x3e97ba7c	0.29634464
251	0xbb37b1c0	-0.0028029531
252	0xbe25971a	-0.16170922
253	0x3e21bfb9	0.15795793
254	0x3ee19cef	0.44065043
255	0xbea1ea49	-0.31624058

linear2.bias f4 [100]
0	0x3ccf3bd4	0.025297083
1	0x3ec19319	0.3780754
2	0x3ee08d9c	0.4385804
3	0x3eb30330	0.3496337
4	0x3eb3e94f	0.35138938
5	0x3ed97b57	0.42476913
6	0x3d407293	0.046984266
7	0x3ef17814	0.47161925
8	0xbd1de028	-0.03854385
9	0x3ed897ff	0.42303464
10	0x3c3dd7fd	0.01158714
11	0x3eceb26f	0.4037051
12	0x3e9d0ff2	0.30676228
13	0xbce0cf6a	-0.027442653
14	0x3d74b2c2	0.05974079
15	0xbe53a204	-0.20667273
16	0x3d3e59b3	0.046472263
17	0x3ef5844c	0.47952497
18	0x3efefcaa	0.49802142
19	0x3d0b5b3a	0.034022547
20	0xbe38eb47	-0.18058501
21	0x3ec50292	0.38478523
22	0x3ea0cd9e	0.31406873
23	0x3ecc2061	0.39868453
24	0xbd924cc5	-0.07143549
25	0x3ebf1747	0.37322447
26	0x3aa51c00	0.0012596846
27	0xbc8b3774	-0.016994216
28	0xbe05766b	-0.13033454
29	0xbcba548c	-0.022745393
30	0x3e9eebbd	0.3103923
31	0x3da14c11	0.07875837
32	0xbdcd87c1	-0.10035659
33	0x3efab301	0.48964694
34	0x3eef57c6	0.46746653
35	0x3eee383e	0.46527284
36	0xbdc6f46f	-0.09714591
37	0x3c1c8d40	0.009555161
38	0x3cd9e7ec	0.026599847
39	0xbd9478f6	-0.07249634
40	0x3eb01f46	0.3439886
41	0xbd151f51	-0.03640682
42	0x3eed5959	0.4635723
43	0x3ee116e5	0.4396278
44	0xbea7ce1d	-0.3277444
45	0xbd81700d	-0.063202
46	0x3c9139e6	0.017727803
47	0x3eb42a72	0.35188633
48	0x3ef3a055	0.4758326
49	0x3ebcc041	0.36865428
50	0x3eb79704	0.35857403
51	0x3ea00ef8	0.3126142
52	0x3ed3a82d	0.41339245
53	0x3ed5b02e	0.41735977
54	0x3ee560df	0.4480047
55	0x3efad459	0.48990133
56	0xbe198ccb	-0.14995115
57	0xbd480c7e	-0.04884004
58	0x3ef0c488	0.4702494
59	0x3ea6d8d4	0.32587302
60	0x3d24d60e	0.0402432
61	0x3d882861	0.06648327
62	0x3e9cd5ec	0.3063196
63	0x3ea36c86	0.31918734
64	0xbc919340	-0.01777041
65	0xbd1c5a4a	-0.038172044
66	0x3ed19000	0.40930176
67	0xbcadf138	-0.021233186
68	0x3ebbc4ce	0.36673588
69	0xbcf74606	-0.030184757
70	0x3ee7ee54	0.45299017
71	0xbdba71f0	-0.09103763
72	0x3ed72132	0.42017514
73	0xbdaa4c2b	-0.08315309
74	0x3ef23416	0.47305363
75	0x3ecced9f	0.4002504
76	0x3edb06e1	0.42778686
77	0xbd99d9f2	-0.07512273
78	0x3ee27bdc	0.44235122
79	0x3eeed573	0.46647224
80	0x3d779b82	0.06045104
81	0xbd88474a	-0.06654222
82	0x3eb733b3	0.3578163
83	0xbd92280e	-0.07136546
84	0x3ee8c7bf	0.45464894
85	0x3ec01888	0.37518716
86	0xbd9137ef	-0.070907466
87	0xbd95ee48	-0.07320839
88	0x3eec791e	0.46186155
89	0x3efc8853	0.49322757
90	0x3ef28dcb	0.47373804
91	0x3eb65acf	0.35616156
92	0xbd3981c7	-0.04528978
93	0x3eef43f0	0.4673152
94	0x3ed88c97	0.42294762
95	0x3ec434df	0.38321587
96	0x3ed0ca5f	0.40779397
97	0x3ce4f17c	0.02794718
98	0x3c51a930	0.012796685
99	0xbcc0a5d8	-0.02351658

linear3.weight f4 [1, 100]
0	0xbab6341c	-0.0013901028
1	0xbedf1937	-0.43573925
2	0xbee9e84b	-0.45685038
3	0xbef0396b	-0.46918806
4	0xbef1cc4e	-0.47226185
5	0xbeea54ad	-0.45767727
6	0xba50fa24	-0.0007971844
7	0xbeda8150	-0.42676783
8	0x3b853c97	0.0040660608
9	0xbeec4417	-0.46145698
10	0xbe7d9dfe	-0.247673
11	0xbef33ed2	-0.47508866
12	0xbee8d374	-0.45473826
13	0x3b4de8e4	0.0031419331
14	0x39b60140	0.00034714676
15	0x3fb1d2fb	1.3892511
16	0xbb978986	-0.0046245484
17	0xbeeba497	-0.4602401
18	0xbeeb2724	-0.459283
19	0xbac1af04	-0.001477689
20	0x3fad01b3	1.3516144
21	0xbedc2933	-0.43000183
22	0xbeef18d2	-0.46698624
23	0xbee803ff	-0.4531555
24	0xba7d7e14	-0.0009669971
25	0xbee0c4d4	-0.43900168
26	0x3ac546dc	0.0015051025
27	0xbafc70d9	-0.0019259705
28	0x3f3d5e10	0.73971653
29	0x39778780	0.00023606233
30	0xbf0013fc	-0.50030494
31	0xbb08ec84	-0.0020892927
32	0x3a93376e	0.0011231729
33	0xbf100219	-0.562532
34	0xbee3d2ea	-0.44496852
35	0xbed7faaf	-0.42183444
36	0x3b8f775e	0.0043782433
37	0x3aa40a30	0.0012515243
38	0xbb433953	-0.0029788807
39	0x3b35ea32	0.0027758
40	0xbee09bc0	-0.43868828
41	0xbab86c4a	-0.0014070359
42	0xbedf21fc	-0.43580616
43	0xbeece34f	-0.46267173
44	0x3f9d48c2	1.2287829
45	0xba75ea68	-0.00093809376
46	0x3a9e153a	0.0012060769
47	0xbee94a0e	-0.45564312
48	0xbee9b734	-0.45647585
49	0xbee0e35f	-0.4392347
50	0xbedba05a	-0.42895776
51	0xbeea694a	-0.45783454
52	0xbef48f91	-0.47765782
53	0xbefb4b29	-0.4908078
54	0xbeded413	-0.43521175
55	0xbee9127b	-0.45521912
56	0x3f95be04	1.1698613
57	0xbf1c82fa	-0.61137354
58	0xbeddb6d2	-0.43303543
59	0xbee07cef	-0.43845317
60	0xbafa22b6	-0.0019083831
61	0x3a8b73c4	0.0010639359
62	0xbef3fbe2	-0.4765311
63	0xbef4c021	-0.47802833
64	0xb98bc848	-0.00026661367
65	0x3aecf088	0.0018077055
66	0xbee641a7	-0.44971964
67	0xbb36814f	-0.002784807
68	0xbee91ace	-0.45528263
69	0xba3c0f8b	-0.0007173947
70	0xbeefd957	-0.46845505
71	0xbb33171f	-0.0027327014
72	0xbeda92c3	-0.42690095
73	0x3a5fdf74	0.0008540072
74	0xbefedff2	-0.49780232
75	0xbef3e0f5	-0.47632566
76	0xbf212b00	-0.6295624
77	0xbac214f8	-0.0014807275
78	0xbef5dc5c	-0.48019683
79	0xbef1f485	-0.47256866
80	0xba0d1140	-0.00053812936
81	0xb9c67a70	-0.00037856726
82	0xbefb0a18	-0.49031138
83	0xba89738b	-0.0010486705
84	0xbef635ce	-0.48087925
85	0xbeeb382b	-0.4594129
86	0xba851175	-0.0010152297
87	0x3b0433ca	0.002017247
88	0xbee7e687	-0.45293066
89	0xbeda3173	-0.42615852
90	0xbee71572	-0.4513355
91	0xbefbadd3	-0.49156055
92	0x3b04d848	0.0020270515
93	0xbef1984b	-0.47186503
94	0xbee4bfd8	-0.44677615
95	0xbefc0258	-0.49220538
96	0xbed73705	-0.42034164
97	0xba2b9b0c	-0.0006546236
98	0xba8252d8	-0.0009942902
99	0x3b04da42	0.0020271693
