saved_models/ddpg/policy_net_checkpoint_a1.pth (torch, 43883 bytes, 5 tensors)

linear1.weight f4 [100, 1]
0	0x3f5886e0	0.845808
1	0x3db0e5c3	0.086375736
2	0x3f663590	0.8992548
3	0x3f083150	0.53200245
4	0x3ebb88b0	0.36627722
5	0x3dc168c0	0.094438076
6	0xbf4321b2	-0.7622329
7	0xbf769062	-0.9631406
8	0xbd834aa5	-0.06410722
9	0xbf5d5c26	-0.8646873
10	0x3d2c6e1b	0.042097192
11	0x3f63bf52	0.88963807
12	0xbb173400	-0.0023071766
13	0x3de90401	0.11377717
14	0x3f6bb59f	0.92074007
15	0x3eb5573f	0.35418126
16	0x3f6ca027	0.92431873
17	0xbf5a887c	-0.8536451
18	0xbe173055	-0.14764531
19	0x3f31b0cb	0.6941039
20	0xbea42118	-0.320565
21	0x3f6ee86b	0.9332339
22	0x3d8da380	0.06915951
23	0x3e11ac71	0.14225937
24	0xbf3c1164	-0.73464036
25	0x3f222f4d	0.63353425
26	0x3e7a20e0	0.24426603
27	0x3e931936	0.28730172
28	0xbe4d02b8	-0.20020568
29	0xbedda7c8	-0.4329207
30	0xbe82db70	-0.25558043
31	0x3f62c4c6	0.885815
32	0xbf0b029e	-0.5430087
33	0x3f03350c	0.5125282
34	0xbea37740	-0.31926918
35	0x3f4bad8c	0.79561687
36	0xbee4b724	-0.44670975
37	0xbf31761c	-0.69320846
38	0x3e9da7b8	0.30792022
39	0xbef944c7	-0.48685285
40	0x3c88bac0	0.016690612
41	0xbf430c9e	-0.7619113
42	0xbf5bb142	-0.8581735
43	0xbf13f3ba	-0.5779377
44	0x3f678b78	0.9044719
45	0xbedec634	-0.43510592
46	0x3ece1be4	0.40255654
47	0x3f685438	0.9075351
48	0x3f7c47e3	0.9854719
49	0xbf3ee0f4	-0.74562
50	0x3f51697e	0.81801593
51	0xbe2a1371	-0.16608979
52	0x3f754374	0.9580605
53	0xbf530b8c	-0.82439494
54	0x3cd4457f	0.025912045
55	0x3f67959c	0.9046266
56	0x3eeeb2fd	0.46620932
57	0xbc36ad4c	-0.011149716
58	0x3c395b80	0.011313319
59	0x3f5ec600	0.87020874
60	0xbf3340ee	-0.7002095
61	0xbecce8a0	-0.4002123
62	0xbf0b094f	-0.5431108
63	0x3f73938c	0.95147014
64	0x3dfa82f6	0.1223201
65	0xbf60303c	-0.875736
66	0x3ebdf4bf	0.3710079
67	0x3d37787d	0.04479264
68	0x3da53ed0	0.08068621
69	0x3ee1727b	0.44032654
70	0x3f4c6eb3	0.79856414
71	0xbeed769d	-0.46379557
72	0xbf49f280	-0.7888565
73	0xbe64a060	-0.22326803
74	0xbf2f2170	-0.68410397
75	0xbf433bb6	-0.76262987
76	0xbebd60c8	-0.369879
77	0x3edba070	0.42895842
78	0xbf781adc	-0.96915984
79	0xbef662e8	-0.48122334
80	0x3e4fc840	0.20291233
81	0xbf229b38	-0.63518095
82	0x3f6b8f0d	0.92015153
83	0xbd817e5b	-0.063229285
84	0x3f20c227	0.6279625
85	0x3e999747	0.29998228
86	0x3dfa0370	0.12207687
87	0x3e2bd14f	0.16779064
88	0xbebb1d0c	-0.36545599
89	0x3e0393ec	0.12849396
90	0x3f2e396e	0.6805638
91	0xbe54e934	-0.20792085
92	0x3ea53ae3	0.3227149
93	0xbe690a30	-0.22757792
94	0x3f7a4896	0.9776701
95	0xbdcb0eb7	-0.09914916
96	0x3f231488	0.63703203
97	0x3e247078	0.16058528
98	0xbf1c57e0	-0.61071587
99	0xbed2e98c	-0.41193807

linear1.bias f4 [100]
0	0xbf6daa3c	-0.9283788
1	0x3f4b4109	0.7939611
2	0xbf7d60e2	-0.98975956
3	0xbe3896ea	-0.18026319
4	0x3f05fc3b	0.52338
5	0xbed1fca4	-0.41013062
6	0x3f622a2c	0.883456
7	0x3f1fe95a	0.6246544
8	0x3f26990b	0.65077275
9	0x3f801b1a	1.0008271
10	0x3de10ef1	0.10989178
11	0xbf7aa9fc	-0.97915626
12	0xbf1fd7a8	-0.6243844
13	0x3f10b5b9	0.56527287
14	0x3eb521ca	0.35377342
15	0xbd995bb5	-0.07488195
16	0x3f4da104	0.80323815
17	0xbedd9eac	-0.4328512
18	0x3f202330	0.6255369
19	0xbe924d66	-0.28574675
20	0xbf104d50	-0.5636797
21	0x3f649f6b	0.8930575
22	0xbf4c3e72	-0.79782784
23	0x3f37a90a	0.7174231
24	0x3d728f80	0.059218884
25	0xbf327110	-0.6970377
26	0xbeed2340	-0.46315956
27	0x3f77299e	0.9654788
28	0xbf6c1f82	-0.9223558
29	0xbf73f028	-0.95288324
30	0xbf3109d6	-0.69155633
31	0xbf4417fa	-0.76599085
32	0x3c54fd00	0.012999773
33	0x3f54e3c6	0.83160055
34	0x3f40dabc	0.7533376
35	0xbf602bf8	-0.8756709
36	0xbf1b8bf6	-0.6076044
37	0x3d73d500	0.059529305
38	0xbf069dc4	-0.5258448
39	0x3f192c0d	0.5983284
40	0xbef47a68	-0.4774964
41	0xbe728e98	-0.23687208
42	0x3f54dd16	0.8314985
43	0xbf0f9a76	-0.56095064
44	0xbf5ef4d1	-0.8709231
45	0x3dddfd50	0.10839331
46	0x3e2f9916	0.17148241
47	0xbf335994	-0.7005856
48	0xbf3f9410	-0.748353
49	0xbe918c6c	-0.28427446
50	0xbf66792d	-0.9002865
51	0x3f1fb86c	0.6239078
52	0x3de26a03	0.110553764
53	0x3ebc8d3c	0.36826503
54	0x3f3a3dc7	0.72750515
55	0x3f3339ca	0.70010054
56	0xbf035c37	-0.51312584
57	0x3f802210	1.0010395
58	0xbf071fd2	-0.5278293
59	0xbdfe8a2a	-0.124286965
60	0x3f4f99ba	0.81093943
61	0xbf1f8984	-0.6231921
62	0x3f20eade	0.6285838
63	0xbf00a39c	-0.5024965
64	0x3ec72043	0.388918
65	0x3f3033f0	0.6882925
66	0x3ec0d8fe	0.37665552
67	0x3ddd6972	0.10811128
68	0xbe4d7bc8	-0.2006675
69	0x3d8daec8	0.069181025
70	0x3ed8f6b3	0.42375717
71	0x3f1c1f96	0.60985696
72	0xbf20fbde	-0.6288432
73	0x3e267648	0.16256058
74	0x3e951cf8	0.29123664
75	0xbf628952	-0.88490784
76	0xbefaca48	-0.48982453
77	0xbf667290	-0.9001856
78	0xbf69c826	-0.9132103
79	0x3d898190	0.06714165
80	0xbed20340	-0.41018105
81	0x3ec1b46c	0.37832963
82	0xbdf820c7	-0.12115627
83	0x3e9abf80	0.30224228
84	0x3eda54dd	0.4264287
85	0xbea91a46	-0.33027858
86	0xbf14b670	-0.5809088
87	0x3d908f10	0.07058537
88	0xbf602292	-0.8755275
89	0x3f6af5b8	0.9178119
90	0xbf6246a4	-0.8838904
91	0x3f53695e	0.8258265
92	0x3f3a65ea	0.7281176
93	0x3e37a0f0	0.17932487
94	0xbe0c2737	-0.13686834
95	0x3e673366	0.225782
96	0xbd4e12a8	-0.05031076
97	0xbe5ed8a8	-0.21762335
98	0xbf4454ae	-0.7669171
99	0xbf0b35e8	-0.5437913

linear2.weight f4 [100, 100]
0	0x3d5b5e96	0.053557
1	0x3cf682fc	0.030091755
2	0x3c63b4d0	0.0138980895
3	0xbd700880	-0.058601856
4	0x3d9b3239	0.075779386
5	0x3d6a8a72	0.057260938
6	0xbdc42623	-0.095775865
7	0xbd888194	-0.0666534
8	0x3d5cd896	0.05391749
9	0xbd2aeb83	-0.041728508
10	0xbd87bc6c	-0.066277355
11	0x3bf34220	0.007423654
12	0x3d75d89e	0.060021035
13	0xbdc20fbb	-0.094756566
14	0xbcba1718	-0.02271609
15	0x3db11099	0.08645744
16	0xbd9e6ec6	-0.07735972
17	0xbbd9de30	-0.0066488013
18	0x3d017862	0.031608947
19	0x3d676eb2	0.05650205
20	0x3d9f68e1	0.07783676
21	0x3c9e30b8	0.01931034
22	0xbd8b0c0a	-0.06789406
23	0xbd515c6d	-0.051113535
24	0x3aed8e80	0.0018124133
25	0x3da3bdc1	0.07995177
26	0xbd153a6c	-0.03643267
27	0xbda4f54a	-0.08054598
28	0x3d658c62	0.056042083
29	0xbd8f5465	-0.06998519
30	0xbd21688a	-0.039406337
31	0x3cf769c4	0.0302018
32	0x3d0e179e	0.03469049
33	0x3ce1b424	0.027551718
34	0xbc626be8	-0.013819672
35	0x3d4f9d1e	0.050686948
36	0xbc781f80	-0.015144229
37	0x3db566d9	0.08857507
38	0xbce72e14	-0.028220214
39	0x3d2c4faa	0.04206816
40	0x3d6894c6	0.056782506
41	0x3d945e1b	0.07244512
42	0xbbc1e660	-0.0059173554
43	0xbd995d7e	-0.07488535
44	0x3c2dbe58	0.0106044635
45	0xbda7ebb5	-0.081992544
46	0x3d9ee15b	0.07757827
47	0xbce8ab08	-0.028401867
48	0xbdb5861f	-0.08863472
49	0x3cc73478	0.024317011
50	0x3d831779	0.064009614
51	0x3d2c9832	0.042137332
52	0xbdb05c42	-0.08611347
53	0xbda7da8e	-0.08195983
54	0x3da2496d	0.07924161
55	0xbc5e3950	-0.013563469
56	0x3c8dffec	0.017333947
57	0xbd88ecaa	-0.06685765
58	0xbcb48aec	-0.0220389
59	0x3d3fdb16	0.046839796
60	0x3d80621d	0.062687136
61	0xbdba26df	-0.09089445
62	0x3d7f87ba	0.0623853
63	0xbc835048	-0.016029492
64	0x3d70b0ca	0.05876235
65	0x3d4f0fa2	0.050552018
66	0xbb976dd0	-0.004621245
67	0xbd34f140	-0.044175386
68	0xbda96b05	-0.082723655
69	0xbd8e3b3b	-0.06944891
70	0xbd8501d2	-0.06494488
71	0xbd813d22	-0.06310488
72	0x3db73379	0.089453645
73	0x3d87761b	0.06614324
74	0xbd9583ab	-0.07300504
75	0xbd447487	-0.04796269
76	0xbb53dfa0	-0.0032329336
77	0x3c99a9d4	0.018757738
78	0xbca78cc8	-0.020452872
79	0xbd098f76	-0.03358408
80	0x3c789e30	0.015174434
81	0xbd6ec4bd	-0.058293093
82	0xbd65bcb3	-0.05608816
83	0xbdc8063d	-0.09766815
84	0x3c93b358	0.018029854
85	0x3c4bfc30	0.012450263
86	0xbd893f8c	-0.06701574
87	0xbba26020	-0.0049553066
88	0xbc3981c0	-0.011322439
89	0x3d39e2d6	0.045382343
90	0x3d89a4ad	0.067208625
91	0x3cb62cc0	0.022238135
92	0xbd7f62d7	-0.06235012
93	0x3dada0f7	0.08477967
94	0xbc101cc0	-0.008795917
95	0x3d527fe2	0.05139149
96	0x3b907080	0.0044079423
97	0x3d0591d2	0.03260977
98	0xbdc0cd70	-0.09414184
99	0x3dc0c96b	0.094134174
100	0xbbe8d93f	-0.007105976
101	0x3d85934c	0.06522235
102	0xbf0d1152	-0.55104554
103	0x3d00fbcf	0.031490143
104	0x3d4f8cbc	0.050671324
105	0xbd05aaaa	-0.03263346
106	0xbe877dff	-0.26463315
107	0xbd717f2d	-0.058959175
108	0xbd34fe2c	-0.04418771
109	0xbce3cab9	-0.027806627
110	0xbc398dd7	-0.011325321
111	0xbea0fdcb	-0.3144363
112	0xbd8e6d56	-0.06954448
113	0xbbd74600	-0.006569624
114	0x3c9db699	0.019252108
115	0xbcbfa5fb	-0.023394575
116	0xbc1efdb4	-0.009704042
117	0x3d930593	0.071787976
118	0x3d9bae3c	0.07601592
119	0x3db2b6a9	0.08726246
120	0x3dc80313	0.09766211
121	0x3d977729	0.07395775
122	0x3d3e050e	0.04639154
123	0x3d75ad1b	0.05997954
124	0x3dc3efb9	0.09567208
125	0xbf08ebbd	-0.5348471
126	0xbc1483d8	-0.009064637
127	0xbd89a819	-0.06721515
128	0x3d8a0983	0.067400955
129	0x3d36509e	0.044510476
130	0x3d3bc76a	0.045844473
131	0x3de427d7	0.11140411
132	0xbbd76180	-0.006572902
133	0x3d994287	0.07483392
134	0xbd211c67	-0.039333727
135	0xbf0f460e	-0.5596627
136	0xbdca23bf	-0.09870099
137	0x3c96c1c0	0.018402934
138	0x3d9bffdf	0.07617163
139	0x3d5faa81	0.054605965
140	0x3db2acc7	0.08724361
141	0xbdb3c9e7	-0.08778744
142	0x3f371133	0.7151062
143	0x3c4a7618	0.012357257
144	0x3e485ce1	0.1956668
145	0xbcd756f4	-0.02628658
146	0x3d817d76	0.06322758
147	0xbd9951e5	-0.07486323
148	0xbd138dd4	-0.03602393
149	0x3cc4ba14	0.02401451
150	0xbec61f45	-0.38695732
151	0xbd364186	-0.04449608
152	0x3dc05456	0.09391086
153	0xbb8c2230	-0.0042765364
154	0xbd5a4c66	-0.053295515
155	0x3d34ecbd	0.044171084
156	0xbf003a83	-0.5008928
157	0x3dc584e4	0.096444875
158	0x3d0b0cfa	0.033947922
159	0x3dc7c9b7	0.09755271
160	0x3beb19bf	0.0071747
161	0x3dabf9f1	0.08397282
162	0xbd2aa2e9	-0.04165927
163	0xbd86363f	-0.06553315
164	0x3d191794	0.037376
165	0x3d27404a	0.040832795
166	0xbdab1910	-0.0835439
167	0x3dc6845c	0.09693214
168	0x3c72deb0	0.014823601
169	0xbbee0d02	-0.0072647342
170	0x3d95ba84	0.07310966
171	0xbd1e11d4	-0.03859122
172	0x3d35a9d6	0.04435142
173	0x3d9a1b0b	0.07524689
174	0x3d2af51e	0.04173767
175	0xbd9ab64d	-0.07554302
176	0x3d908c41	0.07058001
177	0xbc41ddd0	-0.011832669
178	0x3dc17ff5	0.09448234
179	0xbc11e7b0	-0.008905336
180	0x3d4aec1a	0.04954157
181	0x3d058d12	0.03260524
182	0xbcb513a7	-0.022104098
183	0x3c5547f3	0.013017642
184	0xbdba9134	-0.091097265
185	0xbefb4a33	-0.49080047
186	0xbd277510	-0.040883124
187	0xbda1fd60	-0.079096556
188	0xbd4ce940	-0.050027132
189	0xbb83f1ec	-0.004026642
190	0xbdbba707	-0.09162717
191	0x3db189b3	0.08668842
192	0x3d382e98	0.04496631
193	0xbd34658d	-0.04404216
194	0x3dc3951a	0.09549923
195	0xbd19b374	-0.037524655
196	0xbd45e275	-0.04831167
197	0xbcb6d694	-0.022319116
198	0x3d956d11	0.072961934
199	0x3d853cc9	0.065057345
200	0xbcb24886	-0.021763097
201	0xbc8ba20c	-0.017045043
202	0xbc0139d8	-0.007887326
203	0xbda791fc	-0.08182141
204	0x3d8fe16e	0.07025419
205	0xbdc5e8da	-0.096635535
206	0xbdc8eab7	-0.09810393
207	0x3d8cff09	0.068845816
208	0x3d478200	0.048707962
209	0xbd5f075d	-0.05445038
210	0x3d1da466	0.03848686
211	0xbb8f7715	-0.0043782094
212	0xbae69400	-0.0017591715
213	0x3d233d47	0.03985336
214	0x3cda6607	0.026659979
215	0xbd6c9300	-0.057757378
216	0xbd9d2e9e	-0.07674907
217	0x3d9d3f5b	0.076781
218	0xbd17d757	-0.0370706
219	0x3da9fb2d	0.08299861
220	0x3d97c671	0.074108966
221	0xbc859441	-0.016306045
222	0x3d6340b6	0.055481635
223	0x3d1684e2	0.03674782
224	0xbd59237a	-0.05301235
225	0x3d00a226	0.031404637
226	0xbdb51502	-0.088418975
227	0xbc8a68b6	-0.016895633
228	0xbd807cca	-0.062738016
229	0xbda3faa6	-0.08006792
230	0x3ca517c8	0.020152941
231	0xbb9cf123	-0.004789488
232	0xbd02db6a	-0.03194753
233	0x3d330b96	0.04371222
234	0xbd744c9c	-0.059643373
235	0xbd6e806f	-0.058227953
236	0x3d0b20be	0.033966772
237	0x3ca64a8c	0.020299219
238	0xbdbecf8d	-0.09316931
239	0x3d969f2b	0.07354578
240	0xbda5b92e	-0.08091961
241	0xbd93a463	-0.07209089
242	0xbdcc587c	-0.099778146
243	0xbd2f1b67	-0.042750742
244	0xbd457303	-0.048205387
245	0x3d22a67a	0.039709546
246	0xbdad0ed2	-0.084500924
247	0x3bc88e2a	0.006120463
248	0xbcceb07e	-0.025230642
249	0x3db8fce7	0.09032612
250	0xbd0fd618	-0.035116285
251	0x3dba67bc	0.09101817
252	0x3dc4c3ea	0.0960768
253	0x3ba7e7d0	0.0051240698
254	0xbb225593	-0.0024770244
255	0xbd7fbb82	-0.06243468

linear2.bias f4 [100]
0	0x3dc87ffb	0.09790035
1	0x3b1fd979	0.0024391098
2	0xbb37688f	-0.0027985906
3	0x3c230ea8	0.009952225
4	0xbd624a95	-0.05524691
5	0x3d396bef	0.04526895
6	0x3d67eb86	0.056621097
7	0x3d1d55f2	0.038412042
8	0xbc2641ea	-0.010147551
9	0x3cf7c164	0.030243583
10	0x3da2eb2f	0.07955014
11	0x3da84a29	0.0821727
12	0x3cc10b60	0.023564994
13	0x3d0d1f54	0.034453705
14	0xbda1799f	-0.078845255
15	0x3ca1d235	0.019753555
16	0xbd6bc163	-0.057557475
17	0x3c035950	0.008016899
18	0x3da1ab82	0.07894041
19	0xbc1efda1	-0.0097040245
20	0xbceb1418	-0.028696105
21	0x3d009c78	0.03139922
22	0xbd5ac70d	-0.053412486
23	0xbd88e8fc	-0.06685063
24	0xbd7ddf27	-0.061980393
25	0x3ccb1339	0.02478944
26	0x3da09884	0.0784159
27	0xbcf08ac8	-0.029363051
28	0xbd50bc0e	-0.050960593
29	0xbd2f7795	-0.04283865
30	0xbd94c91c	-0.07264921
31	0xbcc6a289	-0.024247425
32	0xbcd3f159	-0.02587192
33	0xbcd752d4	-0.026284613
34	0x3bb06860	0.005383536
35	0xbd0db7f4	-0.03459926
36	0xbd62ec2c	-0.055401012
37	0x3c9fa070	0.019485682
38	0xbd571ce7	-0.052517798
39	0xbd1f132d	-0.038836647
40	0xbdbb8b23	-0.091573976
41	0xbc313028	-0.010814704
42	0x3d1fa736	0.038977824
43	0xbdcc307b	-0.099701844
44	0xba9c6a80	-0.0011933595
45	0xba0361b8	-0.00050118146
46	0xbc8b65d4	-0.017016329
47	0x3d3d04e2	0.046147235
48	0x3d0ae6be	0.03391146
49	0x3d51a9be	0.05118727
50	0x3c0a1e00	0.008430004
51	0x3baf9025	0.0053577595
52	0x3d98ed23	0.07467105
53	0xbc646203	-0.013939383
54	0x3be1d5b0	0.0068919286
55	0x3da461b9	0.080264516
56	0xbca19ce2	-0.019728128
57	0xbdfeb2a7	-0.12436419
58	0xbd846872	-0.06465234
59	0xbdac22a3	-0.08405044
60	0x3d043395	0.032275755
61	0xbdfded43	-0.1239877
62	0x3c997f8c	0.018737577
63	0x3d8a4b43	0.06752636
64	0x3db78d25	0.08962468
65	0x3d4d1290	0.05006653
66	0xbdb75052	-0.08950867
67	0xbdbc71d1	-0.09201396
68	0x3c94b292	0.018151555
69	0xbdd437eb	-0.10362228
70	0xbd430882	-0.047615536
71	0x3d7b331d	0.061328042
72	0x3d2cc0fc	0.04217623
73	0x3d8dcf8f	0.06924354
74	0x3d828557	0.06373089
75	0xbddf0cf8	-0.108911455
76	0xbdc5f3a9	-0.09665615
77	0xbd07a809	-0.033119235
78	0x3b8d34b0	0.0043092594
79	0xbdbcfac5	-0.09227518
80	0x3d3a06b3	0.045416545
81	0xbdd09ffc	-0.101867646
82	0xbd68f357	-0.056872692
83	0xbd0b87cc	-0.034065053
84	0xbda1fafb	-0.07909199
85	0xbdbb35fa	-0.091411546
86	0xbd19f3c2	-0.03758598
87	0xbd583c3a	-0.05279181
88	0xbdd37524	-0.10325077
89	0x3d65f01e	0.056137197
90	0x3d1fda36	0.03902646
91	0xbd80d4a4	-0.06290558
92	0xbd8753ec	-0.06607804
93	0xbc8e6810	-0.017383605
94	0x3d225a1a	0.03963671
95	0x3c7d2666	0.015451049
96	0xbdc866d7	-0.0978524
97	0x3cb332f4	0.021874882
98	0xbd6d59b3	-0.057946872
99	0xbdc4d396	-0.09610669

linear3.weight f4 [1, 100]
0	0xbacaada3	-0.0015463125
1	0xbd452732	-0.048133083
2	0x39e1d962	0.00043077307
3	0x3b065a6e	0.0020500678
4	0xbd979612	-0.074016705
5	0x3df1f65f	0.1181457
6	0x3f170b3f	0.59001535
7	0x3b1c99da	0.0023895414
8	0x3ddff718	0.10935801
9	0x3b3ad794	0.0028509842
10	0xb993ac13	-0.0002816623
11	0x3ac05674	0.0014674203
12	0x39d2a008	0.00040173554
13	0x39ce8ae4	0.00039394863
14	0x3f13b5a6	0.5769905
15	0x3b05043d	0.0020296716
16	0xb99a04c0	-0.00029376708
17	0xbab16a02	-0.0013535621
18	0xba422b93	-0.0007407006
19	0x3e123b8f	0.14280532
20	0x3b07bda2	0.0020712395
21	0xbea35776	-0.31902665
22	0xba0a9648	-0.0005286676
23	0x3ef495dc	0.47770584
24	0xbadfe038	-0.0017080372
25	0xbd30c7cc	-0.04315929
26	0x38c982db	9.6088006e-05
27	0x3b2e36e4	0.002658301
28	0x3f14d744	0.5814097
29	0x3f0f8292	0.5605861
30	0x3ce1871c	0.027530245
31	0x3f0a43ec	0.5400989
32	0x3d9f2bc8	0.077720225
33	0xbb1140e1	-0.0022163915
34	0x3a6350c0	0.00086713955
35	0xba165884	-0.0005735236
36	0x3f0f38af	0.5594587
37	0x3f13dcb2	0.5775863
38	0x3a0dacbc	0.00054044626
39	0x3aaebef4	0.0013332055
40	0xbb2fccf8	-0.0026825052
41	0x3b2e0544	0.0026553432
42	0xb82f5740	-4.180451e-05
43	0x3f152313	0.58256644
44	0xba9363da	-0.0011244968
45	0x3dd36f05	0.1032391
46	0xbad61722	-0.0016333798
47	0xbacf279d	-0.0015804652
48	0x39049060	0.00012642285
49	0xba5520d0	-0.00081301946
50	0x3b0def3e	0.0021657492
51	0x3d656a9c	0.056009874
52	0x3a9a9a5c	0.001179527
53	0x3f0e5cd9	0.55610424
54	0xbb2cb0ff	-0.0026350615
55	0xbd857615	-0.06516663
56	0x3e3e6a8e	0.18595335
57	0x3f089238	0.5334811
58	0xbd15d338	-0.036578387
59	0x3b2a28e2	0.002596431
60	0x3f138581	0.57625586
61	0x3f0fe7aa	0.56212866
62	0xb942ba30	-0.00018570642
63	0x3ad6b87c	0.0016381885
64	0xbab92575	-0.0014125543
65	0x3f16e8c0	0.589489
66	0x3d0acdcf	0.03388768
67	0x39cb096d	0.000387262
68	0xb9f69f23	-0.00047039342
69	0x3f0dfa6a	0.55460227
70	0x3f06ffe6	0.5273422
71	0x3f0484d1	0.5176516
72	0x3f0a18af	0.53943914
73	0x3d411a4a	0.04714421
74	0xbb052fc5	-0.0020322662
75	0x3f132de0	0.57491875
76	0x3f0ea2e2	0.5571729
77	0xbd1cdf23	-0.038298737
78	0xbb33ae1b	-0.0027417007
79	0xbb3db381	-0.0028946104
80	0x3cdc8bdf	0.026922164
81	0x3e18117e	0.14850423
82	0x3f07bcf4	0.53022695
83	0x3eff3054	0.4984156
84	0xbb0f7ba6	-0.0021893769
85	0xbdbe9454	-0.09305635
86	0xba247795	-0.00062739226
87	0x3b1baa84	0.0023752758
88	0x3d8cf75f	0.0688312
89	0x3a1655b4	0.00057348167
90	0x39ec8660	0.00045113545
91	0xb8560e25	-5.103475e-05
92	0x3998eaf0	0.0002916674
93	0xbd386775	-0.04502054
94	0x3a9802ac	0.0011597476
95	0x3f12b08c	0.5730064
96	0xbd837ba3	-0.06420066
97	0xbad4fab8	-0.0016249036
98	0xbaa721f1	-0.0012751204
99	0x3ee9abd5	0.4563891
