saved_models/ddpg/policy_net_checkpoint_a4.pth (torch, 43883 bytes, 5 tensors)

linear1.weight f4 [100, 1]
0	0xbf3ad3ae	-0.7297925
1	0x3f4bf106	0.7966465
2	0xbf71986e	-0.94373214
3	0xbdb366d0	-0.08759844
4	0xbf6b9234	-0.92019963
5	0x3e65d8d0	0.22445989
6	0xbf1ba54e	-0.6079911
7	0xbf0154dc	-0.5052011
8	0x3f423030	0.7585478
9	0x3f364d96	0.71212137
10	0x3d9a4020	0.07531762
11	0x3e9c6624	0.30546677
12	0xbe136e1e	-0.14397475
13	0xbf1a956a	-0.6038424
14	0xbf2e5dfe	-0.6811217
15	0x3db07310	0.086156964
16	0xbf5b81b8	-0.8574481
17	0xbf5acf52	-0.85472596
18	0xbf0d5d18	-0.55220175
19	0x3f4cc92d	0.7999447
20	0xbf537486	-0.82599676
21	0x3f1c93d3	0.6116306
22	0x3df87c70	0.121331096
23	0x3f7908c2	0.9727899
24	0x3e1100f3	0.14160518
25	0xbf2f7198	-0.68532705
26	0xbf1c6250	-0.6108751
27	0x3e68bc1e	0.22728011
28	0xbf5fafe8	-0.87377787
29	0x3f039fbf	0.5141563
30	0x3f5bf96b	0.85927457
31	0xbe90b392	-0.28262
32	0x3f4ca5ac	0.79940295
33	0x3ec6fb84	0.38863766
34	0x3f42bbe8	0.7606797
35	0xbe440108	-0.19141018
36	0x3f53c813	0.82727164
37	0xbe350330	-0.17676997
38	0x3f5a4efb	0.85276765
39	0xbf3a0014	-0.7265637
40	0xbf4aba6e	-0.7919072
41	0x3e5afe90	0.2138617
42	0x3ee9ba66	0.45650023
43	0xbe7f904a	-0.24957386
44	0x3ee80b51	0.45321134
45	0xbf04c40c	-0.51861644
46	0xbedca508	-0.4309466
47	0x3f5d41ff	0.8642883
48	0x3f740a79	0.9532848
49	0xbf1b4ada	-0.6066109
50	0x3e379cc2	0.17930892
51	0x3e2cc7c7	0.16873084
52	0x3f5a887e	0.8536452
53	0x3e55e508	0.2088815
54	0xbb2b9001	-0.0026178362
55	0xbf34ea56	-0.7067007
56	0x3ed166da	0.40898782
57	0xbf56fd28	-0.83980036
58	0x3e863dfc	0.26219165
59	0x3f2847f3	0.65734786
60	0x3ead38bf	0.33832356
61	0x3e2decef	0.16984914
62	0xbedd2544	-0.43192494
63	0xbd5233db	-0.051318984
64	0xbdd619a0	-0.10454106
65	0xbdb748ba	-0.08949418
66	0xbf5f2534	-0.8716614
67	0x3de5c830	0.11219823
68	0x3f736c35	0.95086986
69	0x3e0aeda8	0.13567221
70	0xbee0ad20	-0.43882084
71	0xbf7da1e0	-0.99075127
72	0x3f3a1e3c	0.72702384
73	0x3eae6200	0.34059143
74	0x3f5ac028	0.8544946
75	0x3d744cc6	0.05964353
76	0xbf39819c	-0.72463393
77	0xbf10a6f0	-0.56504726
78	0x3c7540d6	0.014969071
79	0x3e826543	0.25467882
80	0x3f7dfd97	0.9921507
81	0xbf4534ae	-0.7703351
82	0x3f5be4bd	0.858959
83	0xbedb90e0	-0.42883968
84	0xbe65defc	-0.22448343
85	0x3eb310e2	0.34973818
86	0xbf6a5c08	-0.9154668
87	0xbf5ed24f	-0.87039655
88	0x3ea56010	0.32299852
89	0x3ee10093	0.4394575
90	0x3f59da83	0.8509905
91	0x3e9e53d3	0.30923328
92	0x3f017ae4	0.5057814
93	0xbead5fc4	-0.33862126
94	0xbeaf8358	-0.34279895
95	0x3e9182e8	0.28420186
96	0xbf630a6e	-0.8868779
97	0xbea0ec38	-0.3143022
98	0x3f0585ac	0.5215709
99	0xbd6376c0	-0.05553317

linear1.bias f4 [100]
0	0xbd6508e0	-0.055916667
1	0x3f700b0d	0.9376686
2	0xbec15160	-0.37757397
3	0xbeaa90ac	-0.333135
4	0xbe008e00	-0.12554169
5	0xbf27426a	-0.65335715
6	0xbf231670	-0.6370611
7	0xbf69e520	-0.9136524
8	0x3e14b8e7	0.1452366
9	0x3b835a4f	0.0040085684
10	0xbe9d77d8	-0.30755496
11	0x3ed0e399	0.40798643
12	0x3ee823d3	0.45339832
13	0x3e9d8010	0.30761766
14	0xbf34b164	-0.70583177
15	0xbecd435c	-0.40090454
16	0xbf2ad8a4	-0.6673682
17	0x3f3ea127	0.7446465
18	0xbf3bd9ac	-0.73379016
19	0x3f49690f	0.7867593
20	0x3f028cdc	0.50996184
21	0xbcfdbc12	-0.030973468
22	0xbee81d14	-0.45334685
23	0x3ec81c6b	0.3908418
24	0x3f2ab450	0.66681385
25	0xbf3a814e	-0.72853553
26	0xbf415b40	-0.7552986
27	0x3f73d734	0.9525025
28	0x3f29b014	0.662843
29	0x3f78096c	0.96889377
30	0xbf005354	-0.5012715
31	0x3f444167	0.76662296
32	0xbe0b4c6c	-0.13603371
33	0xbf09e25c	-0.5386102
34	0x3e641882	0.22274974
35	0xbec1f478	-0.37881827
36	0xbf478dc0	-0.7795067
37	0xbf6f295e	-0.93422496
38	0x3ef5beff	0.4799728
39	0xbf4c872c	-0.79893756
40	0xbf400b68	-0.75017405
41	0xbf190e70	-0.59787655
42	0x3bcfc634	0.0063407663
43	0x3ec6a33d	0.38796416
44	0xbf0baa35	-0.5455659
45	0x3e141d98	0.14464414
46	0x3f71bf38	0.944324
47	0xbe8ca582	-0.27470022
48	0xbf3f5145	-0.7473338
49	0xbe119820	-0.14218187
50	0x3f11952c	0.56868243
51	0x3f72f873	0.94910353
52	0xbf4e9b3f	-0.80705637
53	0x3f2cb345	0.67461044
54	0x3f6288ba	0.8848988
55	0xbf1c9492	-0.611642
56	0x3f6e7264	0.93143296
57	0xbf5df552	-0.86702454
58	0xbf6cad82	-0.9245225
59	0x3f495e12	0.78659165
60	0x3f819233	1.0122741
61	0x3eb42417	0.35183784
62	0xbeff2b74	-0.4983784
63	0x3f09847a	0.5371777
64	0xbd24f7c0	-0.040275335
65	0x3f132435	0.5747712
66	0xbe222cb0	-0.1583736
67	0xbef432f0	-0.47695112
68	0xbeca6d44	-0.39536488
69	0xbf00ac38	-0.50262785
70	0xbf14cd34	-0.58125615
71	0x3ec4ba04	0.3842317
72	0xbe227fca	-0.1586906
73	0xbe45f966	-0.19333419
74	0x3f59e60f	0.85116667
75	0x3f5d0d78	0.86348677
76	0xbea0d330	-0.31411123
77	0xbeb2f71c	-0.34954154
78	0x3edf876e	0.43658012
79	0x3f3522ce	0.7075623
80	0xbf1e6ac9	-0.6188169
81	0xbecea850	-0.40362787
82	0xbca96f1e	-0.020682868
83	0x3e7209e0	0.2363658
84	0x3e474016	0.1945804
85	0x3ce2f4b0	0.027704567
86	0x3f4c44b3	0.79792327
87	0x3f82d853	1.0222267
88	0xbf3d7298	-0.7400298
89	0xbe140549	-0.14455141
90	0xbede636e	-0.43435234
91	0x3f30319d	0.68825704
92	0x3e95f0d1	0.2928529
93	0x3e398270	0.18116164
94	0x3f7bcbf9	0.9835811
95	0xbd041864	-0.032249823
96	0x3f45e27d	0.7729872
97	0x3f43db8c	0.76506877
98	0xbf743324	-0.95390534
99	0xbf676184	-0.9038317

linear2.weight f4 [100, 100]
0	0x3c6e5810	0.014547363
1	0xbbfe749b	-0.0077653653
2	0x3dc98669	0.0984009
3	0xbd9a4776	-0.07533161
4	0x3d651d0e	0.05593591
5	0x3d5e21e2	0.054231532
6	0xbd768fda	-0.06019578
7	0xbcc3c408	-0.023897186
8	0xbd224943	-0.03962065
9	0x3dc1f2d8	0.09470147
10	0xbd84e8c4	-0.06489709
11	0x3da52197	0.080630474
12	0x3d6bc0b2	0.057556815
13	0xbc00df18	-0.00786569
14	0x3c8dcc58	0.017309353
15	0xbd3965e3	-0.045263182
16	0xbda2117d	-0.07913492
17	0x3e370612	0.1787341
18	0x3b843580	0.004034698
19	0xbd0dbc64	-0.03460349
20	0x3dc53a63	0.09630277
21	0xbcf93968	-0.030422881
22	0x3d19c902	0.03754521
23	0x3d0ebb59	0.034846637
24	0xbd833022	-0.06405665
25	0xbd631ec7	-0.055449273
26	0xbd57d50a	-0.052693404
27	0x3cccda33	0.02500639
28	0x3d70bda6	0.058774613
29	0xbcc6fe1e	-0.024291094
30	0xbc841cf5	-0.016127089
31	0x3d5a67da	0.053321697
32	0xbbbc7b49	-0.0057520014
33	0xbdb48638	-0.08814663
34	0x3c8f937b	0.017526379
35	0xbc91166c	-0.017710887
36	0xbd333170	-0.04374832
37	0x3bbc0e60	0.0057390183
38	0x3d43acf1	0.04777235
39	0xbc51e600	-0.012811184
40	0xbdc6d395	-0.09708325
41	0xbd8bab30	-0.06819761
42	0x3db08722	0.086195245
43	0xbdfaeabb	-0.122518025
44	0xbdb77eae	-0.08959709
45	0x3d42f8e6	0.04760065
46	0x3befc23c	0.0073168557
47	0x3cc0a50c	0.0235162
48	0x3e1a9dde	0.15099284
49	0xbdca8092	-0.09887804
50	0xbd225875	-0.03963514
51	0x3d688dac	0.056775734
52	0xbd76c92b	-0.060250442
53	0x3d9c4b44	0.07631543
54	0x3ca232c5	0.0197996
55	0x3d94158b	0.072306715
56	0x3c901c5b	0.017591646
57	0x3d9efd7d	0.07763193
58	0xbd6a2f9d	-0.057174314
59	0x3d27561d	0.04085361
60	0xbcaf3c57	-0.021391077
61	0xbdb80229	-0.08984787
62	0xbdaab53e	-0.083353505
63	0xbcebbcd7	-0.02877657
64	0xbd9c6863	-0.07637098
65	0x3d012540	0.031529665
66	0xbdb2da07	-0.08732992
67	0x3b068460	0.002052568
68	0xbcb5f11e	-0.0222097
69	0x3d5df402	0.054187782
70	0x3dc32e1f	0.09530281
71	0xbd9144d2	-0.070932046
72	0x3db638c6	0.088975474
73	0xbd9d8f89	-0.07693393
74	0xbd4d121b	-0.050066095
75	0x3ca98bce	0.020696547
76	0xbbfd95b0	-0.0077387914
77	0x3d671ada	0.056422092
78	0xb9d0dfee	-0.00039839692
79	0x3c805ec6	0.015670191
80	0x3ad75c44	0.0016430696
81	0xbd2be453	-0.041965794
82	0xbd860c2e	-0.06545292
83	0xbb463ea0	-0.003024973
84	0x3e389737	0.18026434
85	0xbd593c57	-0.05303606
86	0x3e885941	0.26630595
87	0xbe11689f	-0.14200066
88	0x3db8467f	0.08997821
89	0xbd878e1f	-0.06618904
90	0x3d4db39c	0.050220117
91	0xbd6bb6e9	-0.057547484
92	0xbda66dd2	-0.08126415
93	0x3c649d70	0.013953552
94	0x3d969eae	0.073544845
95	0xbdc1a128	-0.09454566
96	0x3e7688ba	0.24075595
97	0xbd8f272d	-0.06989894
98	0xbda78115	-0.08178917
99	0xbda08a10	-0.07838833
100	0xbdb73fc3	-0.089477085
101	0xbcce72ec	-0.025201283
102	0x3db64049	0.0889898
103	0xbccdc28c	-0.025117181
104	0x3d970dd5	0.07375685
105	0x3d69e2ca	0.05710105
106	0xbc790b98	-0.015200518
107	0xbd9e8b26	-0.07741384
108	0xbc804e08	-0.015662208
109	0xbd32e0e3	-0.0436715
110	0x3c138650	0.009004191
111	0x3d0a4ee2	0.033766635
112	0xbdb2c6c7	-0.0872932
113	0x3dc783d5	0.09741942
114	0xbdca0d85	-0.0986586
115	0xbc8af9b4	-0.01696477
116	0xbdbe121f	-0.092808
117	0xbca8c8a8	-0.020603493
118	0x3d1c1b1e	0.0381118
119	0xbdc53e80	-0.096310616
120	0xbdaa04eb	-0.08301719
121	0x3dc3f82f	0.09568822
122	0x3d15620e	0.036470465
123	0xbda93a5a	-0.08263083
124	0x3c28b128	0.010296144
125	0x3c59fac0	0.013304412
126	0x3d69ccd2	0.057080097
127	0x3d5d4132	0.054017253
128	0x3d1d53a2	0.038409837
129	0xbdb345f5	-0.087535776
130	0x3d84e629	0.06489212
131	0xbd72abba	-0.059245802
132	0x3d11f9ca	0.035638608
133	0xbd8dd000	-0.069244385
134	0xbdbbbee5	-0.091672696
135	0xbbbb90b0	-0.005724035
136	0x3dac5e79	0.08416457
137	0xbdbfc715	-0.09364144
138	0xbdaa1110	-0.08304036
139	0x3b48f6c0	0.0030664653
140	0xbda89ec2	-0.08233406
141	0x3d654b12	0.055979796
142	0x3d831131	0.063997634
143	0xbd5931b3	-0.053025912
144	0x3b2d8400	0.0026476383
145	0xbd3f5c5a	-0.046718933
146	0x3d863177	0.065524034
147	0x3c514cb0	0.012774631
148	0x3cec4c04	0.02884484
149	0x3d5df106	0.054184936
150	0x3d1e41ee	0.038637094
151	0x3d1246de	0.035712115
152	0x3d0b7c12	0.03405387
153	0xbcc78e98	-0.024359986
154	0xbc980cd4	-0.018560804
155	0xbd90f6c0	-0.07078314
156	0xbcd509f8	-0.02600573
157	0x3c0cb150	0.0085871965
158	0xbb7e6c00	-0.0038821697
159	0xbda30bd6	-0.07961242
160	0x3dbfc341	0.093634136
161	0xbda96aae	-0.08272301
162	0xbbee5a80	-0.007273972
163	0xbda68dfd	-0.08132551
164	0x3d8de33f	0.069281094
165	0x3d6ba952	0.057534523
166	0x3d36f90e	0.04467111
167	0x3d0137e2	0.031547435
168	0xbd1f884a	-0.038948335
169	0x3dc0fae9	0.09422857
170	0xbd8d2bc2	-0.06893112
171	0x3d43f3ce	0.047839932
172	0x3d5cc79a	0.053901292
173	0x3d658a02	0.056039818
174	0x3cb47394	0.022027768
175	0x3cefe594	0.029284276
176	0xbc5c5650	-0.013448313
177	0x3ca8c2ac	0.02060064
178	0xbd80b238	-0.062839925
179	0x3db5c2a5	0.08875016
180	0xbd1d37ed	-0.038383413
181	0x3ae1b0c0	0.0017218813
182	0x3d90de47	0.07073646
183	0xb9e64500	-0.00043920428
184	0xbd9e2b03	-0.077230476
185	0x3d0693f6	0.03285595
186	0xbc029d00	-0.007972002
187	0x3c91474c	0.017734192
188	0x3cdf8ffc	0.027290337
189	0x3cdd0934	0.026981927
190	0xbdc41ac7	-0.0957542
191	0xbd67b8d3	-0.056572746
192	0x3d077ca6	0.03307786
193	0xbc8b8680	-0.017031908
194	0xbdbcb582	-0.09214307
195	0xbad36200	-0.0016127229
196	0x3d22bbbe	0.039729826
197	0xbd705480	-0.058674335
198	0xbdb05e05	-0.08611683
199	0xbc149e68	-0.00907097
200	0x3dbbb013	0.09164443
201	0x3d9a60eb	0.07538017
202	0x3da3aed9	0.07992334
203	0x3da80773	0.08204546
204	0x3d76dfea	0.060272135
205	0xbdcb507d	-0.09927461
206	0x3da2faa7	0.079579644
207	0xbd4baf4a	-0.049727716
208	0x3b809030	0.0039234385
209	0xbd2427bd	-0.04007696
210	0x3daad753	0.08341851
211	0x3d9fed77	0.07808965
212	0xbbff58d0	-0.0077925697
213	0xbda623dd	-0.08112309
214	0xbd3b11da	-0.04567132
215	0x3d4a2842	0.0493548
216	0x3db7493f	0.089495175
217	0xbc5f97c0	-0.01364702
218	0x3d858a89	0.06520564
219	0x3d58bfde	0.052917354
220	0x3d60b632	0.054861255
221	0xbda92ce2	-0.08260514
222	0x3da515e5	0.08060817
223	0xbd52f0cd	-0.051499177
224	0xbc7c2db0	-0.015391752
225	0x3d21fa7e	0.03954553
226	0xbcd02f68	-0.02541323
227	0xbd924b32	-0.071432486
228	0xbda02f50	-0.07821524
229	0xbd578aa7	-0.052622464
230	0xbd959873	-0.07304468
231	0x3d30a9e6	0.043130778
232	0xbdbd5cca	-0.09246214
233	0xbbaaf4a0	-0.00521715
234	0x3d8c9e69	0.06866152
235	0xbcfdb334	-0.03096924
236	0x3da5d15f	0.08096575
237	0x3d904f1f	0.07046341
238	0xbccccbd8	-0.024999544
239	0x3d7a5866	0.06111946
240	0x3d945137	0.07242053
241	0x3daa8989	0.08327014
242	0xbd2998c3	-0.04140545
243	0xbbeac850	-0.0071649924
244	0x3db4036b	0.087897144
245	0xbd553f5a	-0.05206237
246	0x3d8f5e95	0.07000462
247	0xbdc711b3	-0.09720173
248	0xbd87977c	-0.0662069
249	0x3ceff61c	0.029292159
250	0x3d8f9f09	0.070127554
251	0x3d82b429	0.06382019
252	0x3a80ec80	0.0009836107
253	0xbd1ef60a	-0.03880886
254	0x3c2b7e28	0.01046709
255	0x3d913623	0.07090404

linear2.bias f4 [100]
0	0xbdb29715	-0.08720223
1	0x3d09730a	0.033556975
2	0xbda31a68	-0.07964021
3	0xbd082d0c	-0.033246085
4	0x3cb733ed	0.022363627
5	0x3c59e280	0.013298631
6	0xbda152da	-0.07877131
7	0x3d558803	0.052131664
8	0x3d1fa3a0	0.038974404
9	0xbd0a3216	-0.033739172
10	0xbd6f7bac	-0.058467552
11	0xbc83667b	-0.016040077
12	0x3c425dec	0.011863213
13	0xbcbbed62	-0.022940341
14	0x3d899e1e	0.067196116
15	0xbd733988	-0.059381038
16	0xbdc987cd	-0.09840355
17	0xb7a7e000	-2.001226e-05
18	0x3ce11d8b	0.027479907
19	0x3d9fa476	0.0779504
20	0x3da7f3f1	0.08200825
21	0xbd55b09d	-0.052170385
22	0x3d0420c4	0.03225781
23	0x3d267da2	0.040647157
24	0xbd20efd5	-0.03929122
25	0x3cd44e7f	0.025916336
26	0x3d70055e	0.05859887
27	0xbd3308d3	-0.043709587
28	0xbcd30394	-0.025758542
29	0x3db742c1	0.08948279
30	0xbd1bfb45	-0.038081426
31	0xbd2c624a	-0.042085923
32	0x3ce992a7	0.028512312
33	0x3df52fdd	0.1197202
34	0xbd7ddca7	-0.06197801
35	0x3d1e2372	0.038608022
36	0xbc859cc0	-0.016310096
37	0xbd3621c7	-0.044465806
38	0x3c832954	0.016010918
39	0xbd5c3293	-0.05375917
40	0xbdbe1b7d	-0.09282587
41	0x3d8ba659	0.06818838
42	0x3dc5927d	0.09647081
43	0xbd97e7e0	-0.074172735
44	0xbd68d4a7	-0.056843426
45	0xbd9087a6	-0.07057123
46	0x3d54a768	0.051917464
47	0xbd85fca2	-0.065423265
48	0x3d6dd8be	0.05806803
49	0x3d645266	0.055742644
50	0x3d7b3f9e	0.061339967
51	0x3db0c1bc	0.08630702
52	0x3d1a9413	0.03773887
53	0x3d6736c6	0.05644872
54	0xbd90764e	-0.07053815
55	0x3db21f05	0.08697323
56	0x3c2f5dec	0.010703545
57	0xbd4de4e7	-0.050267126
58	0xbd44ae9d	-0.048018087
59	0xbcd1d1c2	-0.025612716
60	0xbdd85658	-0.10563344
61	0xbdaf69ae	-0.08565079
62	0x3df18436	0.11792795
63	0x3dbebd77	0.09313481
64	0xbdc20033	-0.09472694
65	0xbc9f5a0c	-0.019452117
66	0xbda972fe	-0.08273886
67	0x3c32e928	0.010919847
68	0x3b5b4100	0.003345549
69	0xbcea5077	-0.028602822
70	0xbd647770	-0.055777967
71	0x3cc5f20c	0.024163269
72	0xbd351dbd	-0.044217814
73	0x3d91bf17	0.071165256
74	0x3dc95539	0.09830708
75	0xbdb9fac5	-0.090810336
76	0xbdc57d08	-0.096429884
77	0x3cb129d4	0.02162639
78	0xbce5af00	-0.028037548
79	0xbd3796d0	-0.04482156
80	0xbd68ec1b	-0.056865793
81	0xbd76f09d	-0.06028806
82	0xbdbad5ad	-0.09122787
83	0xbd1b14a9	-0.0378615
84	0x3b247a60	0.0025097355
85	0x3dc30055	0.09521548
86	0xbd88bad0	-0.06676257
87	0xbd5ed4fd	-0.05440234
88	0x3da079ee	0.07835756
89	0x3dbd40c1	0.092408665
90	0xbd5b99fc	-0.053613648
91	0x3c059c30	0.008154914
92	0x3db5cffd	0.08877561
93	0x3d0d6cb0	0.03452748
94	0xbd6e7f2d	-0.058226753
95	0xbdd9bb69	-0.10631449
96	0xbb6e9b94	-0.003640865
97	0x3db890c7	0.09011989
98	0x3bca32d0	0.006170608
99	0xbbd98526	-0.006638187

linear3.weight f4 [1, 100]
0	0x3b7a904d	0.0038232983
1	0x3a8096d4	0.0009810575
2	0x3ac5b50c	0.0015083863
3	0xbad1852b	-0.0015985122
4	0x3d97c401	0.07410432
5	0xbadae361	-0.0016699844
6	0xbdc37968	-0.09544641
7	0xbb8cc90e	-0.0042964285
8	0x3da961d1	0.0827061
9	0x39c6f868	0.0003795058
10	0x3a97ef34	0.0011591674
11	0xbcc2b6dc	-0.023768835
12	0x3c8e7daf	0.017393915
13	0xbe625788	-0.22103703
14	0x3d0e9afb	0.03481577
15	0xba888897	-0.0010416684
16	0x39f78c28	0.00047215936
17	0xba9fcbc9	-0.001219147
18	0xb99e8a8e	-0.0003023934
19	0x3c9f23ef	0.019426314
20	0xb9a62e70	-0.00031696586
21	0xba4bc634	-0.000777337
22	0x3d0b63d1	0.03403074
23	0xbb0de9f2	-0.0021654335
24	0xbd4902c1	-0.049074892
25	0xbc3a5797	-0.011373422
26	0xb98332f0	-0.00025024218
27	0x3ca6dc1e	0.020368632
28	0xba8f5d91	-0.0010937919
29	0x3aa6b148	0.0012717629
30	0xbe6cd559	-0.2312826
31	0xbb448afd	-0.002999007
32	0xbc2d02f6	-0.010559788
33	0xbe691638	-0.22762382
34	0xbaef707e	-0.0018267778
35	0xbaa38888	-0.0012476603
36	0x3a9dcc0c	0.001203896
37	0x39bd7080	0.00036132708
38	0xba1c52ec	-0.0005963284
39	0xbac608a4	-0.0015108776
40	0xbab2984d	-0.0013625711
41	0x3d30a6d1	0.04312784
42	0xba5b2d8c	-0.0008360974
43	0x3ab649c0	0.0013907477
44	0xb94fac70	-0.00019805296
45	0x3a2e65d2	0.00066527457
46	0xbc0cf9fd	-0.008604524
47	0x3e034015	0.12817414
48	0xbea7025e	-0.32618994
49	0xbe897ff4	-0.26855433
50	0xbeaa75aa	-0.33292896
51	0x3e20b3b1	0.15693547
52	0xbea0ed1e	-0.31430906
53	0xbe73990b	-0.2378885
54	0x3a697448	0.0008905572
55	0xb9e4e8a8	-0.0004366089
56	0x3cc26f41	0.02373469
57	0xbac1fea9	-0.0014800626
58	0x3a1b0340	0.0005913265
59	0xbc18d451	-0.009327964
60	0xb9a7abca	-0.00031980715
61	0xbe774990	-0.24149156
62	0xbe7b92cf	-0.24567722
63	0x3b1d6dc6	0.002402173
64	0x396a4f00	0.00022345409
65	0xbb01229e	-0.0019704471
66	0x3b098464	0.0020983452
67	0xbb4340e5	-0.0029793319
68	0x3a8d14ec	0.0010763681
69	0x3c0ee857	0.008722386
70	0x3b14f910	0.002273146
71	0xbaf84486	-0.001894132
72	0xb9a4f028	-0.00031459448
73	0xbc8461d2	-0.016159926
74	0x3cceffc0	0.025268435
75	0xbb364f39	-0.0027818216
76	0x3aa2a5b4	0.0012409003
77	0xb9c8aa78	-0.00038273982
78	0x3b0823d8	0.0020773318
79	0xbe7e5472	-0.24836901
80	0xba304828	-0.00067246193
81	0xba1c9068	-0.0005972446
82	0x3cff8cca	0.031195063
83	0x3d035652	0.032064743
84	0x3af41100	0.0018620789
85	0xbb2b34d2	-0.0026124013
86	0xbc2b19c6	-0.010443157
87	0x39bd12c8	0.00036062882
88	0xbe84a453	-0.2590662
89	0xbb3aa406	-0.0028479113
90	0xbeb5909a	-0.35461885
91	0xba0574b4	-0.00050909375
92	0x39c1f111	0.00036991437
93	0xbee2e165	-0.44312587
94	0x3a773828	0.000943067
95	0x3d635738	0.0555031
96	0xb969fe8b	-0.00022315436
97	0xbb01053a	-0.0019686953
98	0xb9dc8ec0	-0.00042068027
99	0x3caa2695	0.02077035
