saved_models/ddpg/policy_net_checkpoint_a0.pth (torch, 43883 bytes, 5 tensors)

linear1.weight f4 [100, 1]
0	0xbe96ba7c	-0.2943915
1	0xbf580efe	-0.84397876
2	0xbf1ce41c	-0.6128557
3	0x3f7c4e69	0.98557144
4	0xbf26f6a4	-0.65220094
5	0x3f1a98f7	0.60389656
6	0x3f49ee23	0.7887899
7	0x3f3ee7bb	0.7457234
8	0x3f6d5c73	0.9271919
9	0x3f65fc1e	0.89837825
10	0x3f095f0a	0.53660643
11	0xbd5b8120	-0.05358994
12	0xbe8346a0	-0.2563982
13	0xbf75dcac	-0.96039844
14	0x3f10b660	0.5652828
15	0xbe681650	-0.22664762
16	0x3e207f38	0.1567353
17	0xbe6740a8	-0.22583258
18	0x3f2556d0	0.6458559
19	0xbc91b103	-0.017784601
20	0x3f36f30e	0.7146462
21	0x3f7a1795	0.97692233
22	0x3e9e6754	0.30938208
23	0xbe2b6ca1	-0.16740657
24	0x3f0b2a2d	0.5436123
25	0xbf16ea30	-0.5895109
26	0x3f5da870	0.8658514
27	0x3f51d817	0.8197035
28	0x3cdd8fe6	0.027046155
29	0xbdcdb240	-0.10043764
30	0x3e7d71d8	0.24750459
31	0x3f8429fc	1.0325313
32	0x3ec59bef	0.3859553
33	0xbf01a2c8	-0.5063901
34	0xbe5b2bb0	-0.21403384
35	0xbf7b99d6	-0.9828161
36	0xbe5ebe41	-0.21752264
37	0xbf69650e	-0.9116982
38	0x3e66cc98	0.22538984
39	0x3d5567d3	0.052100968
40	0x3f70da6c	0.94083285
41	0xbece975d	-0.40349856
42	0xbd56d9e0	-0.052453876
43	0xbb699c00	-0.0035645962
44	0xbf00be8a	-0.5029074
45	0xbeb5d0b4	-0.3551079
46	0xbed38bc8	-0.41317582
47	0xbed81a70	-0.4220767
48	0x3deb11f0	0.11478031
49	0x3f0998c0	0.53748703
50	0x3e4077de	0.18795726
51	0x3f80aa1f	1.0051917
52	0xbe0138e0	-0.12619352
53	0x3ecad727	0.39617273
54	0xbf53eb08	-0.82780504
55	0x3f2053d2	0.626279
56	0x3f759a3c	0.9593847
57	0x3ec40140	0.38282204
58	0xbf37c2c6	-0.71781576
59	0xbe5ddac0	-0.21665478
60	0xbf559b5c	-0.83440185
61	0xbf68c29e	-0.9092196
62	0x3f5fc3f2	0.87408364
63	0x3f1042ee	0.56352127
64	0x3f69a29d	0.91263753
65	0x3f509c9f	0.81488985
66	0xbe229cb0	-0.15880084
67	0x3eed04c8	0.4629271
68	0xbf1fe07e	-0.6245192
69	0xbf505fe0	-0.81396294
70	0xbe208d58	-0.15678918
71	0xbf1735a6	-0.59066236
72	0x3f8ff484	1.1246495
73	0xbf502ed6	-0.81321466
74	0x3f8f1fb4	1.118155
75	0xbea3e990	-0.32014132
76	0x3e234eb2	0.15947989
77	0x3f8308ef	1.0237101
78	0xbf0d92b0	-0.5530195
79	0xbef6d002	-0.48205572
80	0x3ed3d410	0.41372728
81	0xbe81b768	-0.2533524
82	0x3e8d1a2f	0.2755904
83	0x3f5a9bd0	0.85394
84	0xbd666bd8	-0.05625519
85	0x3f27d40b	0.65557927
86	0xbee04fd0	-0.43810892
87	0x3f08b62a	0.5340296
88	0x3e85f654	0.26164496
89	0xbf51b4cc	-0.819165
90	0xbde48e40	-0.111599445
91	0x3efbec20	0.49203587
92	0xbf1d9884	-0.61560845
93	0x3f90dbbc	1.1317058
94	0xbf43f6eb	-0.7654864
95	0x3f05237b	0.52007264
96	0x3de776c0	0.11301947
97	0xbf210d81	-0.6291123
98	0x3f81364a	1.0094693
99	0xbece787a	-0.4032629

linear1.bias f4 [100]
0	0xbe1ef6e8	-0.15523875
1	0xbe932814	-0.28741515
2	0xbf7dda04	-0.9916079
3	0x3f1d8d0d	0.6154335
4	0xbee7f684	-0.45305264
5	0x3f2d9922	0.6781179
6	0x3f09d4ac	0.53840137
7	0x3f124047	0.5712933
8	0x3ecf57a4	0.40496552
9	0x3eb1ea6f	0.3474917
10	0xbf57dc3a	-0.84320414
11	0xbd65f4c0	-0.056141615
12	0xbed3e334	-0.4138428
13	0x3f402a54	0.7506459
14	0x3ed8524e	0.42250293
15	0x3ccc1100	0.02491045
16	0xbf67d8aa	-0.9056498
17	0xbf6b4de4	-0.91915727
18	0xbf563df6	-0.83688295
19	0x3f50deaf	0.8158979
20	0x3f31db6e	0.6947545
21	0xbf57cee7	-0.8430008
22	0xbf5c5df8	-0.86080885
23	0x3f73422d	0.9502285
24	0x3ec9fb68	0.3944962
25	0xbf21520a	-0.63015807
26	0xbe348c4e	-0.17631647
27	0x3f23ef2a	0.6403681
28	0x3f25bbad	0.64739496
29	0xbd217220	-0.03941548
30	0xbed4f664	-0.4159423
31	0xbed5654e	-0.41678852
32	0xbea27bd5	-0.317351
33	0xbf1ee276	-0.620643
34	0xbf2914e8	-0.66047525
35	0x3f353ce0	0.7079601
36	0x3e90f458	0.2831142
37	0x3ea8080c	0.3281864
38	0xbf3a09c6	-0.72671163
39	0x3e92fe2a	0.28709537
40	0x3f77cf88	0.9680104
41	0x3f296d66	0.66182554
42	0xbd332b60	-0.043742537
43	0xbeebb3b8	-0.46035552
44	0x3f8cad9b	1.099048
45	0xbeda9d70	-0.4269824
46	0xbe913640	-0.28361702
47	0x3d440860	0.04785955
48	0xbe913440	-0.28360176
49	0xbd84c9c4	-0.06483796
50	0xbe7cac36	-0.24675068
51	0xbf2aa97f	-0.6666488
52	0x3c206400	0.009789467
53	0x3ee95ad1	0.455771
54	0xbf79ecde	-0.97627056
55	0x3ed8d538	0.42350173
56	0x3db8b34a	0.09018572
57	0xbf249722	-0.6429311
58	0x3f66ea72	0.90201485
59	0x3f3ba1ea	0.73293936
60	0x3ea32fd0	0.31872416
61	0xbecc68f4	-0.39923823
62	0x3e3a20ac	0.18176526
63	0x3ed4f99c	0.41596687
64	0xbe3f5b0b	-0.18687074
65	0xbf097baf	-0.5370435
66	0x3c9cab00	0.019124508
67	0xbf57cc0c	-0.84295726
68	0x3f53241b	0.8247697
69	0x3dc92290	0.098210454
70	0xbee09108	-0.4386065
71	0x3dc312b0	0.09525049
72	0xbf19ec81	-0.601265
73	0xbe1dc0e0	-0.15405607
74	0xbf3d43f3	-0.7393181
75	0x3ed3476d	0.4126543
76	0x3f100234	0.5625336
77	0xbec21f1b	-0.37914357
78	0x3f32951c	0.6975877
79	0x3f54bdf2	0.83102334
80	0xbf667ea6	-0.90037
81	0xbf258baa	-0.64666235
82	0x3d566e9e	0.052351587
83	0xbf159261	-0.5842648
84	0x3f49da77	0.78848976
85	0x3f77b928	0.967669
86	0xbf0fd5b4	-0.5618546
87	0x3e04eade	0.1298022
88	0x3d5d68d7	0.05405506
89	0x3f838dc4	1.0277638
90	0xbf4cfbe2	-0.8007184
91	0x3ed5af8c	0.41735494
92	0xbf362bac	-0.7116039
93	0xbf543c0d	-0.8290413
94	0x3f7cc001	0.98730475
95	0x3f28572f	0.6575803
96	0xbf7ce8a6	-0.98792493
97	0x3f4af1be	0.7927512
98	0xbf38032f	-0.7187986
99	0x3f7817f5	0.96911556

linear2.weight f4 [100, 100]
0	0x3c851ca8	0.016249016
1	0xbd02df5a	-0.031951286
2	0x3c18abc0	0.009318292
3	0xbc93a0b4	-0.018020965
4	0xb97c5c00	-0.00024066865
5	0xbd8ca296	-0.06866948
6	0x3d4a1af2	0.049342103
7	0xbd8dc140	-0.06921625
8	0x3be12680	0.0068710446
9	0xbd946cdd	-0.072473265
10	0xbd5e0390	-0.054202616
11	0x3c3bfc58	0.011473738
12	0x3c1337d0	0.008985475
13	0xbdb9d63b	-0.09074064
14	0x3cde8654	0.027163662
15	0x3d038b32	0.03211517
16	0xbd3d577d	-0.046226013
17	0x3c3bd8e8	0.011465289
18	0xbd58c660	-0.05292356
19	0xbdb0f250	-0.086399674
20	0xbc8a1298	-0.01685457
21	0x3d8752f3	0.06607618
22	0x3b6f9540	0.0036557466
23	0xbd90f99b	-0.070788585
24	0x3d9f601f	0.077820055
25	0xbc816978	-0.015797362
26	0xbdb47295	-0.08810917
27	0x3d0734be	0.033009283
28	0xbda7be2e	-0.08190571
29	0x3d84d901	0.06486703
30	0x3ca50574	0.020144202
31	0x3cef51e4	0.029213853
32	0xbdb4023d	-0.087894894
33	0x3cd862c4	0.026414283
34	0xbc167270	-0.009182557
35	0xbcb17568	-0.021662429
36	0x3ce84f54	0.02835814
37	0xbdb85fe8	-0.09002668
38	0xbd9266fb	-0.07148548
39	0xbdba9aab	-0.09111532
40	0xbd104e0a	-0.035230674
41	0x3d34f512	0.04417903
42	0x3d606252	0.054781266
43	0x3cd2697c	0.025685064
44	0xbd219aa3	-0.039454114
45	0x3b804a30	0.003915094
46	0x3d21000a	0.039306678
47	0xbd371ee3	-0.04470719
48	0xbdc2e782	-0.09516813
49	0xbca5942c	-0.020212255
50	0xbd2310c3	-0.039810907
51	0x3d85605d	0.065125205
52	0x3d094fc2	0.03352333
53	0x3c6a9430	0.014317557
54	0x3d2e18b6	0.042504035
55	0xbdb51207	-0.08841329
56	0xbd570373	-0.052493524
57	0xbda77e42	-0.08178379
58	0xbcc5bcb8	-0.02413784
59	0xbd908ddb	-0.07058307
60	0xbb8d4320	-0.0043109804
61	0xbd3bb3f7	-0.045825925
62	0x3cfc903c	0.030830495
63	0xbdadbd6a	-0.084833935
64	0xbd56ae37	-0.052412238
65	0x3d8db733	0.06919708
66	0x3d92094b	0.07130679
67	0x3c30c858	0.010789953
68	0xbd3c7c7a	-0.046017148
69	0xbdb39c6b	-0.08770069
70	0x3d8ee2f3	0.06976881
71	0x3aff12c0	0.0019460544
72	0xbc8b7814	-0.017025031
73	0xbc2eaeb0	-0.010661766
74	0xbcc889f4	-0.024479844
75	0x3d5c333a	0.05375979
76	0xbd835ebe	-0.06414555
77	0xbbcf0d80	-0.006318748
78	0x3d854a9d	0.06508372
79	0xbcb51f34	-0.022109605
80	0x3d59ec26	0.053203724
81	0x3cce8eec	0.025214635
82	0xbdae42ca	-0.08508833
83	0x3c3cefd0	0.011531785
84	0xbc07fe90	-0.0083004385
85	0xbd842cc0	-0.06453848
86	0xbd3f8bc0	-0.046764135
87	0x3dab0cc1	0.08352042
88	0x3d70ef9a	0.05882225
89	0x3dc06d29	0.09395821
90	0x3dc060f9	0.09393496
91	0x3cc32414	0.023820914
92	0xbd021666	-0.031759642
93	0x3d43bf12	0.04778964
94	0xbd59036d	-0.052981783
95	0x3da0ee51	0.07857955
96	0x3db74add	0.08949826
97	0x3da8559f	0.08219456
98	0x3d885a49	0.066578455
99	0xbd1dbbfd	-0.038509358
100	0xbd24547d	-0.040119637
101	0xbd13bb0c	-0.036067054
102	0xbdb7893a	-0.08961721
103	0x3dff7c56	0.12474887
104	0xbd56c417	-0.0524331
105	0xb9991a09	-0.00029201832
106	0x3ab3994c	0.0013702302
107	0x3d3c92dd	0.046038497
108	0xbd032c18	-0.032024473
109	0x3d6e739a	0.058215715
110	0x3dab2ec5	0.0835853
111	0xbd0f25b4	-0.034948066
112	0x3c9c1ad8	0.019055769
113	0x3d1a1837	0.03762075
114	0x3dd266d7	0.102735214
115	0xbdc4ce75	-0.09609691
116	0xbd33fc67	-0.04394188
117	0xbd95f493	-0.073220395
118	0xbd93f058	-0.07223576
119	0xbe28a201	-0.1646805
120	0x3d2a3694	0.041555956
121	0x3f8801bc	1.0625529
122	0x3bd6fdb0	0.0065610036
123	0xbe07f00a	-0.13275161
124	0x3c379b35	0.011206438
125	0xbdc5cbbb	-0.09657999
126	0x3e801116	0.25013036
127	0x3d762f54	0.06010373
128	0xbe3419c4	-0.17587954
129	0x3cbe56a0	0.023234665
130	0x3d8cda3b	0.06877562
131	0x3e88033d	0.2656497
132	0x3ee00120	0.43750858
133	0x3db36b95	0.08760754
134	0x3da6ad7b	0.081385575
135	0xbcaaca74	-0.02084849
136	0xbeaf1eb7	-0.3420312
137	0x3d0ec0b6	0.034851752
138	0xbdae1d32	-0.08501662
139	0xbcb787e3	-0.022403663
140	0xbd656812	-0.056007452
141	0xbe519a72	-0.20469072
142	0x3d8bdf9f	0.06829762
143	0x3db7c5a1	0.089732416
144	0xbe19bf4b	-0.15014379
145	0x3db9cdd7	0.09072464
146	0xbdc8ff08	-0.09814268
147	0xbdad41bd	-0.08459804
148	0xbdae6b28	-0.08516532
149	0x3e5d9799	0.21639861
150	0xbd395282	-0.0452447
151	0x3ebe55a8	0.37174726
152	0x3d220e46	0.039564393
153	0x3dc02a9b	0.09383126
154	0xbd49f51a	-0.049306013
155	0x3d49cc6e	0.049267225
156	0x3bfc8dcb	0.0077073327
157	0xbda624dd	-0.081125
158	0xbef10207	-0.4707186
159	0xbdda3a1a	-0.10655613
160	0xbce3a094	-0.02778653
161	0x3c01be18	0.007918857
162	0x3e1aa631	0.1510246
163	0x3d8c0586	0.06836991
164	0x3e3e9494	0.18611366
165	0x3e764ccb	0.24052732
166	0x3d71e08e	0.059052043
167	0x3dc13791	0.094344266
168	0xbee7aadf	-0.45247552
169	0xbcb08460	-0.021547496
170	0xbd9c81e5	-0.07641963
171	0xbccd254c	-0.025042199
172	0x3e8e89b7	0.27839443
173	0xbdc0d473	-0.094155215
174	0x3e69fa3b	0.22849362
175	0xbebb6575	-0.36600843
176	0x3cdb96c5	0.026805291
177	0x3e23bf5e	0.1599097
178	0xbea9628f	-0.33083007
179	0xbeba146d	-0.3634371
180	0xbd21b4ca	-0.039479055
181	0x3d99b7b5	0.075057425
182	0x3d6ee952	0.05832798
183	0x3eb7465c	0.35795867
184	0xbe31ff5d	-0.1738257
185	0x3c8c82d7	0.017152233
186	0xbcb53ef8	-0.022124752
187	0x3d942c71	0.07235039
188	0x3dddbc95	0.10826985
189	0xbeb4d493	-0.3531843
190	0x3d8d77a9	0.06907589
191	0x3c35770c	0.011075746
192	0xbcfb9b6c	-0.03071376
193	0x3ecaf7eb	0.3964227
194	0xbeb9edaa	-0.36314136
195	0xbdb61e1f	-0.08892464
196	0xbd88b9de	-0.06676076
197	0xbea9ce4b	-0.33165202
198	0x3ebdd98a	0.37080032
199	0xbe857958	-0.2606914
200	0x3d92ae7f	0.07162189
201	0x3d46dc52	0.048549958
202	0x3d337886	0.043816112
203	0x3d12b192	0.035813875
204	0x3d42960a	0.04750637
205	0xbcd12e8b	-0.025534889
206	0xbd674271	-0.056459848
207	0xbbe0ae32	-0.006856703
208	0x3d99146a	0.07474597
209	0x3c0201b4	0.007934976
210	0x3d24ea92	0.040262766
211	0x3dbb8fbd	0.09158275
212	0x3d23d53e	0.039998285
213	0x3d7a2fe5	0.061080832
214	0x3c4369cb	0.0119270785
215	0xbb8b36e0	-0.004248485
216	0xbce9d354	-0.028543152
217	0x3db2ac31	0.08724249
218	0xbd995186	-0.074862525
219	0xbda14815	-0.07875077
220	0x3d3eda9e	0.04659521
221	0x3f8a68ee	1.0813272
222	0xbc45e670	-0.012078866
223	0xbe504980	-0.20340538
224	0x3df14c0d	0.11782084
225	0xbd90b758	-0.0706622
226	0x3e2a0781	0.16604425
227	0xbd2b6e2c	-0.041853115
228	0xbd061304	-0.03273298
229	0x3d88618d	0.06659231
230	0xbd5a0410	-0.05322653
231	0x3e5c399b	0.2150635
232	0x3ec0239b	0.37527165
233	0xbdbf0eaa	-0.09328969
234	0x3dbc5f07	0.091978125
235	0x3d2a8242	0.04162813
236	0xbec1a990	-0.37824678
237	0x3dad1859	0.084519096
238	0x3d4dec06	0.050273918
239	0xbca8f2a0	-0.020623505
240	0x3d2ffe90	0.04296738
241	0xbeb8d4fb	-0.3609999
242	0xbda4f11b	-0.080538
243	0x3d17ed86	0.037091754
244	0xbe889ab4	-0.2668053
245	0x3d4f8636	0.050665103
246	0xbd93c7bb	-0.0721583
247	0x3c1a57a8	0.009420313
248	0x3d98ff4b	0.07470568
249	0x3e2a5c7a	0.1663684
250	0xbd892713	-0.06696906
251	0x3eb30020	0.34961033
252	0x3dcab273	0.09897318
253	0xbd1fb71d	-0.03899299
254	0xbc882c4c	-0.016622685
255	0x3db7d31b	0.08975812

linear2.bias f4 [100]
0	0xbd6da187	-0.058015373
1	0xbe435f32	-0.19079283
2	0xbe2fc98f	-0.17166732
3	0x3e1f0b71	0.15531708
4	0x3e2405d5	0.1601785
5	0xbcfe6994	-0.031056203
6	0xbd5a87ba	-0.053352095
7	0x3d09d886	0.03365376
8	0x3d4ce712	0.050025053
9	0xbd75f074	-0.060043767
10	0x3c1b9544	0.009496037
11	0xbd84c974	-0.06483737
12	0xbe11bd54	-0.14232379
13	0x3da7abaf	0.08187043
14	0x3c251934	0.01007681
15	0x3e18d014	0.14923126
16	0xbdcbc3da	-0.09949465
17	0xbdac0e95	-0.08401219
18	0xbdafee53	-0.085903786
19	0xbd3c936a	-0.046039023
20	0x3e28652a	0.16444841
21	0xbd78eda1	-0.060773496
22	0x3e13d3ba	0.14436236
23	0x3d4455d6	0.047933422
24	0xbc7acc58	-0.015307508
25	0xbd2595fd	-0.040426243
26	0x3d9558b3	0.07292309
27	0x3e154ed4	0.14580852
28	0xbd4cc9b6	-0.049997054
29	0xbd6684ad	-0.056278873
30	0xbd9e60ca	-0.07733305
31	0xbd307d43	-0.04308821
32	0xbe563001	-0.2091675
33	0x3c3756f5	0.011190166
34	0x3db495b6	0.088176176
35	0xbcba3f88	-0.022735372
36	0x3d17fa8f	0.037104186
37	0x3d4cf078	0.050034016
38	0x3d6bba4a	0.057550706
39	0x3dbd7af7	0.09251969
40	0x3b940713	0.004517445
41	0xbd6a707c	-0.05723618
42	0xbcda4f68	-0.026649192
43	0xbc811a4c	-0.01575961
44	0x3d8dc056	0.06921451
45	0x3b93f1e0	0.0045149177
46	0xbd540113	-0.051758837
47	0x3d2ea817	0.04264077
48	0xbdb2d479	-0.08731932
49	0x3da7c26d	0.08191381
50	0xbdad0e4e	-0.08449994
51	0xbda2e060	-0.079529524
52	0x3cf70387	0.03015305
53	0xbdc7328b	-0.09726437
54	0x3e4c5bea	0.19956937
55	0x3d441ba2	0.047877915
56	0x3d15faee	0.03661626
57	0xbd8a6a6d	-0.0675858
58	0x3da5da2e	0.08098255
59	0xbdaf605d	-0.08563302
60	0x3ad68580	0.001636669
61	0x3d890305	0.06690029
62	0x3b97c86c	0.0046320464
63	0xbda5cf5c	-0.08096191
64	0xbc7d4930	-0.015459344
65	0xbdb6fbc0	-0.08934736
66	0xbc17c5b0	-0.009263441
67	0xbdae67f3	-0.085159205
68	0x3e072437	0.13197409
69	0x3e3aaf8a	0.18231025
70	0xbe4de4cc	-0.2010681
71	0xbd9478ab	-0.07249578
72	0x3d84bd9f	0.0648148
73	0x3d6f6ee2	0.058455355
74	0xbca02dd8	-0.01955311
75	0x3e2607cf	0.16213916
76	0xbcb9c9ac	-0.022679172
77	0x3d922eec	0.07137856
78	0xbd84c61a	-0.064830974
79	0xbde2f60e	-0.110820875
80	0x3d25e182	0.040498264
81	0xbcc9a400	-0.024614334
82	0x3daedec0	0.0853858
83	0x3e3357b9	0.17513932
84	0xbd8b6d8e	-0.06808005
85	0x3d8795bf	0.06620359
86	0xbe0c6aff	-0.13712691
87	0x3cb7da58	0.022442982
88	0xbdc24418	-0.09485644
89	0x3c88d7b2	0.016704414
90	0x3d21c8a2	0.03949798
91	0x3dd02c7b	0.10164734
92	0xbcc82654	-0.024432339
93	0xbe1dad76	-0.15398201
94	0xbd3265b2	-0.043554015
95	0x3da1df39	0.079039045
96	0xbc61547e	-0.013753055
97	0x3d992c20	0.07479119
98	0x3d8cba8f	0.06871521
99	0xbdd04d0b	-0.10170945

linear3.weight f4 [1, 100]
0	0xba3426ac	-0.00068722176
1	0x3eb26ed4	0.3485018
2	0x3ebec764	0.37261498
3	0xbe21023e	-0.15723512
4	0xbe0eb49f	-0.13936089
5	0x3e0846ef	0.13308309
6	0x3b4085b8	0.0029376578
7	0x3b1f6c62	0.0024326076
8	0xba9daffa	-0.0012030595
9	0x3ec91c38	0.39279342
10	0xbe15a3a6	-0.14613208
11	0x3ed78bb6	0.42098778
12	0x3e974dfa	0.2955168
13	0xbb1e7196	-0.002417659
14	0x3ed2d2b3	0.41176376
15	0xbe1c4726	-0.15261516
16	0x3ead1905	0.3380815
17	0x3ed875cc	0.42277372
18	0x3de78062	0.11303784
19	0x3b1ffb84	0.002441139
20	0xbde5f416	-0.11228196
21	0x39a0ce48	0.0003067127
22	0xbe1280b1	-0.14306904
23	0x3aa6f462	0.0012737627
24	0x3a324978	0.0006801109
25	0x3b267dd4	0.002540459
26	0xbe2b7249	-0.16742815
27	0xbe0ad0f3	-0.1355627
28	0xb9d4784d	-0.00040525422
29	0xbab33f2f	-0.0013675446
30	0x3a7266e0	0.0009246897
31	0xbb0764b7	-0.0020659396
32	0x3ecd30d8	0.40076327
33	0x36db2459	6.53094e-06
34	0xbe266b53	-0.16251878
35	0x3b41fda6	0.002960065
36	0x3dc529be	0.09627102
37	0xbf3ad731	-0.72984606
38	0xba08bfc0	-0.0005216561
39	0x3908c740	0.00013044197
40	0x3a5010e3	0.00079370866
41	0x39a599e3	0.00031585907
42	0xbb42682d	-0.0029664144
43	0x3b04421a	0.0020181
44	0xbe18bc31	-0.1491554
45	0xbae6b6ca	-0.0017602083
46	0x3a68a244	0.0008874277
47	0x3b4ced8a	0.0031269514
48	0x3a20394b	0.0006112053
49	0xbb19e962	-0.0023485054
50	0x3e54f6db	0.20797293
51	0x3ab749e0	0.0013983808
52	0x3e3eb42c	0.18623418
53	0xbb16682f	-0.0022950282
54	0xbe26fcbd	-0.1630735
55	0xbb046197	-0.002019977
56	0x3b1ce220	0.0023938492
57	0xbb0e8bd4	-0.0021750825
58	0xbe7865a3	-0.24257521
59	0x37b39880	2.1409476e-05
60	0x3a686784	0.00088655227
61	0x3db7866d	0.089611866
62	0x3aff5597	0.0019480464
63	0x3a07c6d8	0.00051794713
64	0xbb35e0ed	-0.0027752474
65	0xba398200	-0.00070765615
66	0x3b2fb9cc	0.0026813624
67	0xbabf507d	-0.0014596131
68	0xbde7a000	-0.113098145
69	0xbdef4366	-0.11682777
70	0x3ed4ae04	0.41539013
71	0xba8c2f11	-0.0010695179
72	0xba0e9a40	-0.0005439855
73	0x3b0a5590	0.0021108128
74	0xbb2a0efb	-0.002594887
75	0xbe1ca583	-0.15297513
76	0x3ac200f8	0.0014801314
77	0xb90d37af	-0.00013467552
78	0x3b21e042	0.0024700318
79	0x3ef66087	0.4812052
80	0x3aa55f33	0.0012616873
81	0xb96047f0	-0.00021389103
82	0x3b008ad0	0.0019613989
83	0xbe10964b	-0.14119832
84	0xb9ce0008	-0.00039291405
85	0xbac9d284	-0.0015397822
86	0x3f680979	0.90639454
87	0x3b11a408	0.0022223014
88	0x3b17f7e4	0.0023188526
89	0x3abbeb68	0.0014337124
90	0x3a3dba94	0.000723758
91	0xbe6839db	-0.2267832
92	0x39c44fc0	0.00037443452
93	0x3e9c7893	0.3056074
94	0xb9647c82	-0.00021790157
95	0x3ddfa09d	0.109193064
96	0x39b66916	0.0003479204
97	0x3a3b738e	0.0007150703
98	0xbe207625	-0.15670069
99	0x3acd21c5	0.0015650323
