saved_models/ddpg/policy_net_checkpoint_a2.pth (torch, 43883 bytes, 5 tensors)

linear1.weight f4 [100, 1]
0	0xbecdf884	-0.40228665
1	0xbf2683df	-0.6504497
2	0xbea4911c	-0.3214196
3	0x3ef6e8d8	0.4822452
4	0x3e8ef49c	0.27920997
5	0x3f1b26ea	0.60606253
6	0xbee489f8	-0.44636512
7	0xbf1370d4	-0.5759404
8	0xbe46d9d4	-0.19419032
9	0x3f2e800c	0.68164134
10	0x3f1f51aa	0.62233984
11	0x3f38a994	0.72133756
12	0x3dc249fa	0.09486766
13	0xbd8433a0	-0.06455159
14	0x3e010aa8	0.12601721
15	0xbeb7e36a	-0.3591569
16	0xbea0d2d4	-0.3141085
17	0x3ee070e6	0.43836135
18	0x3e1a5110	0.15069985
19	0xbec98f38	-0.3936708
20	0x3f2acdd8	0.6672034
21	0x3f575585	0.8411487
22	0xbeedc0ec	-0.4643625
23	0x3f7b7707	0.98228496
24	0xbf51211a	-0.81691134
25	0x3f8715a9	1.0553485
26	0x3cbe0200	0.023194313
27	0x3f58ad0c	0.8463905
28	0xbf37080c	-0.71496654
29	0xbf6dcf94	-0.92894864
30	0x3e899c1c	0.26876915
31	0x3f0e419a	0.5556885
32	0xbe5f4380	-0.21803093
33	0x3e3cf80c	0.18453997
34	0x3f4e71b0	0.80642223
35	0x3e0063ae	0.12538025
36	0x3e961858	0.29315448
37	0xbddf01c0	-0.10889006
38	0xbe9142d0	-0.28371286
39	0xbf7a2264	-0.97708726
40	0xbeef0859	-0.46686056
41	0xbf33dc0c	-0.7025764
42	0xbf785da4	-0.97017884
43	0x3dcf9e00	0.10137558
44	0x3e863292	0.26210457
45	0xbf0db470	-0.5535345
46	0x3ed5a764	0.4172927
47	0xbd114728	-0.03546825
48	0x3cbe997e	0.02326655
49	0xbf40005a	-0.75000536
50	0xbee62af8	-0.44954658
51	0x3f2e3457	0.68048614
52	0x3f2141e7	0.62991184
53	0xbf075111	-0.5285807
54	0xbf37e790	-0.7183771
55	0x3f0d1d10	0.5512247
56	0x3c088e39	0.00833469
57	0x3e3c4e53	0.18389253
58	0x3f60e7b9	0.8785358
59	0xbe42a409	-0.19007887
60	0x3f273540	0.6531563
61	0xbf10d2d3	-0.5657169
62	0x3f62d2b3	0.8860275
63	0xbf2645af	-0.6495008
64	0x3e682160	0.22668982
65	0xbbe6d500	-0.0070444345
66	0x3ed238ac	0.41058862
67	0x3e8998bc	0.2687434
68	0xbf33ec2a	-0.7028223
69	0x3f4c47c6	0.7979702
70	0xbee6e090	-0.45093203
71	0xbf288029	-0.65820557
72	0xbe1834c0	-0.14863873
73	0xbf22f5de	-0.63656414
74	0xbf578e32	-0.8420135
75	0xbe0602e8	-0.13087046
76	0xbefec9d4	-0.49763358
77	0xbf7c5ba0	-0.9857731
78	0xbeabc578	-0.33549094
79	0x3f36cf02	0.7140962
80	0xbd4249a0	-0.047433496
81	0xbec2c428	-0.3804028
82	0xbf769f42	-0.9633676
83	0xbdc70ba0	-0.09719014
84	0xbed6ed78	-0.4197805
85	0xbf702a48	-0.93814516
86	0xbf06feba	-0.5273243
87	0xbcd13cf0	-0.025541753
88	0x3f45f8dd	0.7733286
89	0xbf72c086	-0.9482502
90	0xbee72a2e	-0.45149368
91	0x3f6ef7a8	0.93346643
92	0x3f262592	0.6490108
93	0x3f301280	0.6877823
94	0xbe92bdd8	-0.28660464
95	0x3f7edb20	0.9955311
96	0x3ef98c8e	0.48740047
97	0x3cb145c9	0.021639721
98	0xbf246660	-0.6421871
99	0xbc14a6ab	-0.00907294

linear1.bias f4 [100]
0	0xbe05c758	-0.13064325
1	0x3f0608be	0.5235709
2	0x3d1c2b00	0.038126945
3	0xbf7da014	-0.99072385
4	0xbf15cb76	-0.5851358
5	0xbf59b30a	-0.85038817
6	0x3f029bbe	0.51018894
7	0xbdfeb400	-0.12436676
8	0x3eb7f24b	0.35927042
9	0xbf03b242	-0.51443875
10	0xbef50d99	-0.47861937
11	0xbef7e5b8	-0.4841745
12	0x3f52e5fc	0.8238218
13	0xbdd2b130	-0.10287702
14	0xbf514e0c	-0.81759715
15	0x3f22bbaa	0.635676
16	0xbf0f0f74	-0.55882955
17	0x3ef03900	0.46918488
18	0xbf3a317a	-0.72731745
19	0xbf4e3d9c	-0.8056276
20	0x3f22a05b	0.63525933
21	0x3f21efdb	0.63256615
22	0x3d65c180	0.05609274
23	0xbf59464b	-0.84872884
24	0x3eafef64	0.34362328
25	0xbf3785bb	-0.7168843
26	0xbf3c924c	-0.7366073
27	0x3ea6767a	0.32512265
28	0xbe5c2c40	-0.21501255
29	0x3d66d4e0	0.056355357
30	0xbe5243af	-0.20533632
31	0xbe0f90ef	-0.14020132
32	0x3d4c6740	0.049903154
33	0xbc6138e3	-0.013746473
34	0xbf2fadbb	-0.68624467
35	0x3f5422c9	0.8286558
36	0xbeda5d30	-0.4264922
37	0xbda8adf0	-0.08236301
38	0xbf196bfe	-0.5993041
39	0xbf449634	-0.7679169
40	0x3f521ead	0.8207806
41	0x3c823580	0.015894651
42	0xbe8da84c	-0.27667463
43	0xbf300716	-0.6876081
44	0x3ede4b2e	0.43416733
45	0x3e1eded8	0.15514696
46	0xbf62a3b8	-0.88531065
47	0x3ea6b193	0.32557353
48	0x3ec4b920	0.3842249
49	0x3f7144c6	0.94245565
50	0xbf1f6816	-0.622682
51	0x3e963c95	0.29343095
52	0x3f16d881	0.5892411
53	0x3ed67566	0.41886443
54	0xbe851688	-0.25993752
55	0xbed40f5b	-0.41417965
56	0x3ed91b98	0.42403865
57	0x3f1f17e2	0.6214582
58	0xbf272020	-0.65283394
59	0x3f2b430f	0.668992
60	0x3f461e80	0.7739029
61	0x3f180332	0.59379876
62	0xbf282240	-0.6567726
63	0x3f05be1e	0.5224322
64	0xbed807c4	-0.42193425
65	0xbecd359c	-0.40079963
66	0xbd83eac3	-0.064412616
67	0x3f77fce0	0.9687023
68	0xbe1c2100	-0.15246964
69	0xbf1c698d	-0.6109856
70	0xbeca3a38	-0.39497542
71	0x3f07a958	0.52992773
72	0xbf070f32	-0.5275756
73	0xbf01ef20	-0.507555
74	0x3d699840	0.057029963
75	0xbf582df8	-0.8444514
76	0x3ec1edc2	0.37876707
77	0xbf0ae5f8	-0.54257154
78	0x3f787215	0.97049075
79	0x3eb3d00c	0.35119665
80	0xbf13b7d4	-0.57702374
81	0xbec3f3d4	-0.38271964
82	0xbe73b120	-0.23798037
83	0xbebc655c	-0.3679608
84	0x3e5d3f78	0.21606243
85	0xbf7589ca	-0.95913374
86	0x3e2c55d8	0.16829622
87	0x3f6b7d61	0.9198819
88	0xbeb36c8e	-0.35043758
89	0x3e1ea0b8	0.15490997
90	0x3f2ef379	0.6834026
91	0xbebc3970	-0.3676257
92	0xbef54c41	-0.4790974
93	0x3f5c1ff2	0.85986245
94	0xbf083f72	-0.5322181
95	0x3f2b6cc6	0.6696285
96	0xbe155a47	-0.1458522
97	0x3f73b377	0.95195717
98	0x3dd946c0	0.106091976
99	0x3ed61660	0.41813946

linear2.weight f4 [100, 100]
0	0x3d87140b	0.0659562
1	0xbe599095	-0.2124656
2	0x3c6ff258	0.014645182
3	0x3dca0555	0.09864298
4	0xbd885032	-0.06655921
5	0x3daff86d	0.08592305
6	0x3f3cbf86	0.7372974
7	0xbd6d0807	-0.057868984
8	0xbc07e9a2	-0.0082954485
9	0x3d02fb8a	0.031978168
10	0x3d7a26f1	0.061072294
11	0xbdb93c44	-0.09044698
12	0x3de05008	0.10952765
13	0xbd2f4fad	-0.042800594
14	0xbdaa5640	-0.08317232
15	0x3d059685	0.03261425
16	0x3dc7586f	0.09733664
17	0x3d691e40	0.056913614
18	0x3c0cc968	0.008592941
19	0xbdafbdd8	-0.08581132
20	0x3d7b218a	0.061311282
21	0x3db0c14a	0.08630617
22	0xbd8e67a2	-0.0695336
23	0xbf85f4d4	-1.0465341
24	0x3c46cab0	0.012133285
25	0xbc0480f1	-0.008087383
26	0x3b85e220	0.004085794
27	0x3db0faea	0.08641608
28	0xbd8cc50a	-0.0687352
29	0x3cf8c4bc	0.030367248
30	0xbcea6530	-0.028612703
31	0x3d9b4b94	0.07582775
32	0x3c075130	0.008259103
33	0x3d91efa3	0.07125785
34	0xbfc25a12	-1.5183737
35	0x3b4a9f6f	0.0030917784
36	0x3d5ffebe	0.0546863
37	0xbd2256f3	-0.039633702
38	0xbd949812	-0.072555676
39	0xbd8a3db8	-0.06750053
40	0x3dfa4553	0.12220254
41	0xbdbb3b12	-0.09142126
42	0x3d0c005a	0.034180023
43	0xbc70a5b0	-0.0146879405
44	0xbb94e2f6	-0.0045436574
45	0xbd025bc0	-0.03182578
46	0xbd64b57a	-0.055837132
47	0xbd2d279b	-0.0422741
48	0x3c83e1e7	0.01609893
49	0x3d565d2a	0.052334942
50	0x3c275930	0.010214135
51	0xbd48ccf3	-0.04902358
52	0x3d486972	0.048928685
53	0xbd9f0d1e	-0.07766174
54	0x3d891bc7	0.06694751
55	0x3d0c7a94	0.034296587
56	0x3dc77ba1	0.09740377
57	0xbd3b4773	-0.045722436
58	0xbd02ce0a	-0.031934775
59	0x3c900999	0.017582702
60	0x3dc7bd3b	0.0975289
61	0x3f18aaf1	0.59635836
62	0xbe07efe9	-0.13275112
63	0xbe8a648b	-0.27029833
64	0x3d927c41	0.07152606
65	0x3c780528	0.015137948
66	0x3bcc506f	0.0062351744
67	0x3dd8e369	0.1059025
68	0xbdba9d77	-0.09112065
69	0xbb238779	-0.0024952574
70	0xbd894c05	-0.06703953
71	0xbe643358	-0.22285211
72	0x3dc98e6b	0.09841617
73	0x3d880d57	0.066431694
74	0xbd8df090	-0.06930649
75	0x3d9ba8ed	0.076005794
76	0xbe4ca8ef	-0.19986318
77	0xbd973aaa	-0.07384236
78	0x3dee8818	0.116470516
79	0x3d6e9a6b	0.058252733
80	0x3c979a54	0.018506207
81	0x3dae4dd1	0.08510936
82	0xbc1707d8	-0.009218179
83	0xbd817968	-0.063219845
84	0x3d515e92	0.05111558
85	0x3d6dd74a	0.058066644
86	0x3d577376	0.052600347
87	0xbd8a0c31	-0.067406066
88	0x3d90ca2a	0.0706981
89	0x3da8f6d5	0.082502045
90	0x3dfe43ae	0.124152526
91	0xbb9d2163	-0.00479524
92	0xbdd024e6	-0.10163288
93	0xbca57ae5	-0.020200202
94	0xbdb42c67	-0.087975316
95	0x3c95b129	0.018272953
96	0xbb9e4527	-0.004830021
97	0xbd21a8e8	-0.039467722
98	0x3dbdfae9	0.09276373
99	0xbd1b455b	-0.03790794
100	0xbda10b4e	-0.07863484
101	0x3e610ec5	0.2197829
102	0xbdb80d32	-0.08986892
103	0x3c9886f8	0.018619046
104	0xbdbb4cf0	-0.09145534
105	0x3cea4dc4	0.028601535
106	0xbf223110	-0.63356113
107	0x3ca9358c	0.020655416
108	0x3c9ff949	0.019528048
109	0x3e4e596b	0.20151298
110	0x3e063b4d	0.13108559
111	0x3dcd04cb	0.1001068
112	0xbcd7632f	-0.026292412
113	0xbd948e5b	-0.07253715
114	0x3c63df80	0.013908267
115	0xbcf0893b	-0.029362312
116	0x3dad4233	0.08459892
117	0x3dc09265	0.094029225
118	0xbdbe4707	-0.09290891
119	0xbdb33fd8	-0.087524116
120	0xbbd12a5d	-0.006383224
121	0xbc9268a8	-0.01787217
122	0x3d8d4e99	0.06899757
123	0x3f9627fa	1.173095
124	0xbda08a0a	-0.07838829
125	0x3e256e18	0.16155279
126	0x3c8e01c0	0.017334819
127	0xbd74180f	-0.059593257
128	0x3c693e28	0.014236011
129	0x3acb2980	0.0015500039
130	0x3de8c376	0.11365406
131	0xbc9da836	-0.019245248
132	0xbc370740	-0.011171162
133	0x3cc781f7	0.024353964
134	0x3fba3940	1.4548721
135	0xbcbfde22	-0.02342135
136	0x3d9265cf	0.07148325
137	0x3d3b40ea	0.045716204
138	0xbb9f45d0	-0.004860617
139	0xbdca4a45	-0.09877447
140	0xbe0ddd5a	-0.1385397
141	0x3da45097	0.08023184
142	0x3ca20dd8	0.019781992
143	0x3db3edfd	0.08785627
144	0xbd100e7a	-0.035170056
145	0x3d1d7526	0.0384418
146	0x3d36f032	0.04466266
147	0xbdd9cb20	-0.10634446
148	0xbd51e74c	-0.051245973
149	0xbe0bd6a1	-0.13656093
150	0xbd2b1607	-0.041769054
151	0x3d878452	0.06617035
152	0x3dc9cbb0	0.098533034
153	0x3db20aa6	0.08693437
154	0xbd9747b5	-0.07386724
155	0x3df4ef1f	0.11959671
156	0x3d9989bc	0.07496974
157	0xbd661657	-0.05617365
158	0x3dd40182	0.1035185
159	0xbce6e914	-0.028187312
160	0xbd125102	-0.035721786
161	0xbf1f5761	-0.62242705
162	0x3e1f6bdb	0.15568487
163	0x3dbb0149	0.091311045
164	0xbd9759e0	-0.07390189
165	0xbdae185f	-0.08500742
166	0x3d65208c	0.055939242
167	0x3d70a72c	0.058753178
168	0xbdb9d352	-0.09073509
169	0x3e1ddee2	0.15417054
170	0x3db21fc1	0.08697463
171	0x3e708d94	0.23491508
172	0x3ccb5e2c	0.024825178
173	0x3d7d2d7a	0.061810948
174	0xbd851400	-0.06497955
175	0xbd946852	-0.0724646
176	0x3e96d49a	0.29459077
177	0xbc5d3f50	-0.013503864
178	0xbc28548c	-0.010274064
179	0xbcef4f56	-0.029212635
180	0x3db0fbe1	0.08641792
181	0x3d667412	0.056263037
182	0xbdb28a50	-0.08717787
183	0x3d321af2	0.04348273
184	0x3dabbb65	0.08385352
185	0xbd07513c	-0.033036456
186	0x3b28c740	0.0025753528
187	0xbdb73dd1	-0.089473374
188	0x3d84efec	0.06491074
189	0x3da3c939	0.079973646
190	0x3b7752d4	0.0037738578
191	0xbbac9625	-0.005266922
192	0x3e3833e7	0.17988549
193	0x3c3dbed3	0.011581141
194	0x3bc67030	0.0060558543
195	0x3d923598	0.071391284
196	0xbd49fdd5	-0.04931434
197	0x3c5d04e2	0.013489934
198	0xbcbfd6e8	-0.023417905
199	0x3c7bf58f	0.01537837
200	0xbcd70194	-0.02624587
201	0x3d9d6370	0.07684982
202	0xbd93ca86	-0.07216363
203	0x3d50e92a	0.051003613
204	0xbd06e1ca	-0.032930173
205	0x3cca690c	0.024708293
206	0xbf068b45	-0.5255626
207	0x3b6fea00	0.003660798
208	0xbdb34d3f	-0.08754968
209	0x3e369cff	0.17833327
210	0x3d57fa87	0.052729156
211	0x3e07958f	0.13240646
212	0xbd425b5a	-0.0474504
213	0xbcd84218	-0.026398703
214	0xbb18afc0	-0.0023298115
215	0xbd1fed61	-0.03904474
216	0xbc7124a8	-0.014718212
217	0x3da36b9c	0.07979509
218	0x3cb1bad4	0.021695532
219	0x3dac7ec9	0.0842262
220	0x3d324f13	0.043532442
221	0xbcc1b9ff	-0.02364826
222	0xbd0fdcc0	-0.035122633
223	0x3f905cc2	1.1278307
224	0xbb928380	-0.0044712424
225	0x3e04d5f3	0.1297224
226	0x3da979bd	0.08275173
227	0xbb9e780d	-0.0048360885
228	0xbbabcc30	-0.005242847
229	0x3dc2223f	0.09479188
230	0x3e4b0774	0.19827062
231	0xbd18b83b	-0.03728507
232	0xbd0606da	-0.032721378
233	0x3da5a3f9	0.08087916
234	0x3fb6ce43	1.4281696
235	0xbde9c227	-0.11413985
236	0x3d3584c2	0.04431606
237	0xbdae4d63	-0.08510854
238	0x3d8c705d	0.06857369
239	0x3dbc7c57	0.092034034
240	0x3ce59a76	0.028027754
241	0x3ae13800	0.0017182827
242	0x3af2a0c0	0.0018511042
243	0xbd88d47e	-0.06681155
244	0x3c1b806d	0.009491068
245	0x3d875b79	0.06609244
246	0xbdabd39d	-0.083899714
247	0x3d841aa1	0.064503916
248	0xbdb8803b	-0.09008833
249	0xbd7c0bac	-0.06153457
250	0x3b3f57a0	0.0029196516
251	0xbcd81c1c	-0.026380591
252	0x3b4a5309	0.0030872247
253	0x3e23a282	0.1597996
254	0x3c81cf2c	0.015845858
255	0x3dc93b5e	0.098257765

linear2.bias f4 [100]
0	0x3dfb8e92	0.122830525
1	0xbde693a1	-0.11258627
2	0x3d4034b7	0.046925273
3	0xbdd9745b	-0.10617896
4	0xbda2ffb4	-0.07958928
5	0x3d7aa0b4	0.061188415
6	0xbc3b3b12	-0.011427658
7	0xbdc5fdf8	-0.09667581
8	0xbd8595fe	-0.06522749
9	0x3d1fda46	0.03902652
10	0x3b22e0c0	0.00248532
11	0xbd9992b0	-0.074986815
12	0x3da7bbd3	0.081901215
13	0xbd1ce2ea	-0.03830234
14	0xbd1e814d	-0.03869753
15	0x3df0342d	0.11728702
16	0xbc46c028	-0.012130775
17	0xbc28d2d0	-0.010304168
18	0xbc66ea14	-0.0140938945
19	0xbdb14bfb	-0.0865707
20	0xbd5d8b72	-0.054088064
21	0xbc187768	-0.009305812
22	0xbd26fec1	-0.040770296
23	0x3dca2801	0.098709114
24	0xbde54e66	-0.11196594
25	0x3d8b72b1	0.06808985
26	0x3d85cdb7	0.065333776
27	0xbd18516c	-0.037187025
28	0x3da0e3ba	0.078559354
29	0x3d98d798	0.07462996
30	0xbd51e613	-0.051244806
31	0xbd9a3d14	-0.07531181
32	0xbd521bb5	-0.051295955
33	0xbd905d75	-0.070490755
34	0xbdbb87c8	-0.091567576
35	0xbd18ced4	-0.03730662
36	0xbd36e0aa	-0.04464785
37	0xbcf146c0	-0.029452682
38	0x3e12c94a	0.14334598
39	0xbd9ce08e	-0.07660018
40	0x3c6bec6f	0.014399632
41	0x3d82549d	0.06363795
42	0x3ba22a80	0.004948914
43	0xbd0b772e	-0.034049205
44	0x3d72f64a	0.05931691
45	0xbcf70054	-0.030151524
46	0x3d537d7c	0.051633343
47	0xbda53066	-0.08065872
48	0xbd9c86aa	-0.07642873
49	0x3d164fe7	0.036697295
50	0xbcdb48e0	-0.026768148
51	0x3ca8a297	0.020585341
52	0x3df045cd	0.117320634
53	0x3cb105a8	0.021609142
54	0x3b6cf536	0.00361569
55	0x3d1a9a22	0.03774465
56	0xba828a43	-0.0009959418
57	0xbd3b969e	-0.045797937
58	0xbd4bc7f3	-0.049751233
59	0x3ca9d959	0.020733522
60	0x3cbc3a64	0.022977062
61	0x3d85ab87	0.06526857
62	0xbd2d3937	-0.042290892
63	0xbdb67797	-0.08909529
64	0x3ded3133	0.1158165
65	0x3d9f77a7	0.07786494
66	0x3bd10ad0	0.006379463
67	0x3c1413cb	0.009037922
68	0x3dd51557	0.10404461
69	0xbd8ab7d4	-0.06773344
70	0x3d8cf6d8	0.06883019
71	0x3c2815af	0.010259076
72	0x3d2fe88d	0.042946387
73	0x3d6a8b0a	0.057261504
74	0xbc814257	-0.015778704
75	0x3e15e825	0.14639337
76	0xbbf53960	-0.0074836463
77	0xbdb290c0	-0.08719015
78	0x3dcfd99e	0.10148929
79	0x3d04e6b2	0.03244657
80	0x3cfc2e58	0.030783817
81	0xbcd44780	-0.025913
82	0xbb8363b0	-0.0040096864
83	0xbcb1eccc	-0.021719359
84	0x3cabd6a8	0.02097638
85	0xb96fb535	-0.00022860321
86	0x3d006e6f	0.031355318
87	0xbd850ea0	-0.0649693
88	0xbca5d12b	-0.02024134
89	0xbdb14e22	-0.08657481
90	0xbd3b698a	-0.045754947
91	0xbd8fe910	-0.07026875
92	0x3d81bd5b	0.06334945
93	0x3dae1732	0.08500518
94	0xbd0146cc	-0.031561658
95	0x3e181645	0.14852245
96	0x3dbe6877	0.09297269
97	0x3db819e6	0.08989315
98	0x3c935c7a	0.017988432
99	0xbd91a783	-0.071120284

linear3.weight f4 [1, 100]
0	0xbe282a68	-0.16422427
1	0x3e6994ff	0.22810744
2	0x3e62468b	0.22097223
3	0x3e84268f	0.25810668
4	0x3e59dd7e	0.21275899
5	0x3e958cd6	0.29209012
6	0xbe48389a	-0.19552842
7	0x3e817c24	0.25290024
8	0x3e683d04	0.22679526
9	0x3b32183a	0.0027175085
10	0x39a37410	0.00031176256
11	0x39b32eb8	0.0003417635
12	0x3b269012	0.0025415462
13	0xb96b3de0	-0.00022434397
14	0xbacddb80	-0.0015705675
15	0xbe5f0a6a	-0.21781316
16	0xbaa22e4c	-0.0012373417
17	0x39ac1b30	0.00032826653
18	0x3e6fdf4f	0.23425029
19	0x3e5d8c0c	0.21635455
20	0x3e57762d	0.21041174
21	0xbb136c0b	-0.0022494819
22	0xbe25e2b9	-0.16199769
23	0xba8a5ea8	-0.0010556774
24	0x3e5a11a9	0.212958
25	0x39afb048	0.0003350994
26	0xbe671725	-0.22567423
27	0xbb02256e	-0.0019858736
28	0xbe858a7e	-0.26082224
29	0xba948696	-0.0011331614
30	0xbb3d2dcc	-0.0028866408
31	0xba013f76	-0.0004930416
32	0xb95650ff	-0.00020438804
33	0xb9ce1a98	-0.00039311196
34	0x3e552593	0.20815115
35	0x3b3f2da6	0.0029171496
36	0xba2db8b8	-0.00066269515
37	0xbb1cf2ca	-0.0023948424
38	0xbe578ce8	-0.21049845
39	0xbab0a177	-0.0013475855
40	0x38cfc9b4	9.908099e-05
41	0xba4a15a0	-0.0007708911
42	0xba753010	-0.000935317
43	0x3e63b251	0.22235991
44	0x39c47948	0.00037474395
45	0x39971038	0.00028813048
46	0x3e6ab30a	0.2291986
47	0xb999fe68	-0.00029371982
48	0xba68d240	-0.00088814273
49	0xbe41e885	-0.18936355
50	0xbb464c0e	-0.0030257734
51	0x3af530f0	0.0018706601
52	0xbe2f1591	-0.1709807
53	0xbe8164f2	-0.25272328
54	0x3e653ce6	0.22386512
55	0x3b08a820	0.0020852163
56	0x3e49d52d	0.19710226
57	0x3e5e5d78	0.21715343
58	0x39e505d8	0.00043682638
59	0x3e801bdb	0.25021252
60	0xbf2d6be3	-0.6774275
61	0x3b031402	0.002000094
62	0x3b3ce5df	0.0028823537
63	0x3e7d558e	0.24739668
64	0xbe34ea82	-0.17667583
65	0xbb35b5d7	-0.0027726793
66	0x3a3b8ce4	0.0007154478
67	0xbe32e98c	-0.17471904
68	0xbe6d83ac	-0.2319476
69	0xbaed4847	-0.0018103205
70	0x3e7c6ad1	0.24650122
71	0x3e66346a	0.22480932
72	0x3e8132ee	0.2523417
73	0xbb23b69b	-0.0024980668
74	0xbe28b83e	-0.16476533
75	0xbe3640e0	-0.17798185
76	0xbb3e9afd	-0.002908408
77	0x3e736e6c	0.23772591
78	0x3e754613	0.23952512
79	0x3eb1a4b2	0.34695965
80	0x3e9a6cd0	0.30161142
81	0xbb21d7c2	-0.0024695252
82	0xba84b474	-0.001012458
83	0xbb1ea5c6	-0.0024207695
84	0x362f3400	2.61073e-06
85	0x3e46a216	0.19397768
86	0xbe3740b7	-0.1789578
87	0x3e63df3f	0.2225313
88	0x3e686bdb	0.22697394
89	0x3a3e717c	0.00072648353
90	0xba9c8d0a	-0.0011943888
91	0x3e981601	0.29704288
92	0xbe574c73	-0.21025257
93	0xbe62d6cc	-0.22152251
94	0x3a18a554	0.00058229757
95	0xbe30c48a	-0.17262474
96	0x394dbac0	0.00019619893
97	0xbe1d05b9	-0.15334214
98	0xbe2f0473	-0.17091541
99	0x3a0106d0	0.00049219746
