saved_models/ddpg/policy_net_checkpoint_a3.pth (torch, 43883 bytes, 5 tensors)

linear1.weight f4 [100, 1]
000000 70 1b 14 3e fa 9b 1a bf 06 e3 be 3d e0 d4 f8 be
       0.14463592 -0.6039425 0.09320645 -0.4859991
000010 70 cb c0 be 90 d4 f0 3d c8 76 4f bf 8e 91 0a bf
       -0.3765521 0.11759293 -0.8104062 -0.5412835
000020 c0 e6 4d 3f 54 2d 83 3e d0 75 d4 bd 18 63 23 bf
       0.8043022 0.2562052 -0.103740335 -0.6382308
000030 f7 f4 11 3f 58 10 b5 bd 2f b6 d9 be 27 01 95 3f
       0.5701441 -0.08841008 -0.42521808 1.1640977
000040 50 04 d5 bd f6 f7 6b 3f 6c c3 9f be 58 73 70 be
       -0.10401213 0.92175233 -0.31203783 -0.234815
000050 31 ad d2 bd 72 37 f7 be e6 19 5e 3e 10 61 f7 3d
       -0.1028694 -0.4828449 0.21689567 0.1207906
000060 d4 0c 2e 3e 6c 83 e8 be fa 76 8f 3e 94 38 40 bf
       0.16997081 -0.45412767 0.2802046 -0.7508633
000070 22 5b 54 3f 80 b1 37 bc 58 58 55 be 40 66 7c bd
       0.8295156 -0.011211753 -0.20834482 -0.06162095
000080 5f 88 2c bd cd a5 e9 be 10 8c 4d be 90 c5 55 3f
       -0.04212224 -0.45634308 -0.20072961 0.8350458
000090 6c 86 b5 be 9f e7 ee be 70 ee 00 be 13 1f 25 3f
       -0.35454118 -0.46661088 -0.12590957 0.6450054
0000a0 ca cf 70 bf a1 40 be 3e 19 2f ad 3e c8 b3 24 bf
       -0.9406706 0.37158683 0.33824995 -0.64336824
0000b0 cb 87 40 3f 3e ca 09 3f 84 91 2d bf d0 16 bd be
       0.75207204 0.5382422 -0.67800164 -0.36931467
0000c0 c2 95 6f bf 15 96 7d 3f 39 65 2a 3f a6 45 16 3f
       -0.9358789 0.9905713 0.66560704 0.58700025
0000d0 c8 24 29 3f b5 8d 11 bf 78 62 81 3e 78 0a a1 3e
       0.6607175 -0.5685685 0.25270438 0.314533
0000e0 47 20 05 3f d8 87 5c 3e 10 9e 8a 3d cb 68 6d 3f
       0.52002376 0.21536195 0.06768429 0.92738026
0000f0 30 70 da bd 30 d8 a9 3d e8 8a 51 3f b6 02 8a 3f
       -0.10665929 0.082931876 0.8185258 1.0782077
000100 49 1d 19 bc 76 1a 07 3f 31 5e 89 3f 95 84 82 3f
       -0.009345361 0.5277475 1.073187 1.0196711
000110 d1 c3 f9 be 04 d6 4e 3e 9e cb 46 bf 50 c7 4c 3f
       -0.4878221 0.20198828 -0.77654445 0.79991627
000120 e0 4c cd be 04 c3 5c 3f 09 d6 08 3f 10 63 ce be
       -0.40097713 0.8623507 0.5345159 -0.40309954
000130 f0 cc 34 bf 48 62 da be 63 78 0c be 24 5b 42 bf
       -0.7062521 -0.42653108 -0.13717799 -0.7592032
000140 57 c4 3f 3f 44 62 8d 3e 14 15 7c bf 0d 1b 03 bd
       0.74908966 0.27614033 -0.9846966 -0.03200822
000150 b4 96 8a 3e 4d 90 7a be 92 75 7f bf f0 22 f0 3d
       0.27068102 -0.24469109 -0.99788773 0.11725414
000160 6e bb 1b 3e 3f fe 1d bf d1 86 3e 3f 0e 50 11 bf
       0.15208218 -0.61716074 0.74424464 -0.5676278
000170 a0 7f 6f 3d dd 46 54 bf c8 28 16 3e c3 fa 48 3f
       0.058471322 -0.8292063 0.14663994 0.7850763
000180 21 51 6d 3f 37 75 84 3f 46 1f 29 bf f8 f3 66 bf
       0.9270192 1.0348271 -0.66063344 -0.90216017

linear1.bias f4 [100]
000000 80 e2 7f bf 70 d0 e3 be 26 18 ab 3e e0 7b 1e 3e
       -0.99954987 -0.44494963 0.3341686 0.15476942
000010 37 6b dc 3e 18 5b 85 be bf 92 69 3f 36 b6 3f bf
       0.43050548 -0.26046062 0.9123954 -0.74887407
000020 9f c8 87 3e 18 b8 66 bf 34 38 f1 be e0 bb 0d be
       0.2652025 -0.90124655 -0.47113192 -0.138412
000030 e0 25 6c 3f fc de 30 3f 02 9f 2c 3f 3a c7 54 bf
       0.9224529 0.6909025 0.67430127 -0.83116496
000040 c0 bd 89 be 1d b8 69 3f d4 6c c3 be 0a a4 05 bf
       -0.2690258 0.9129656 -0.38168967 -0.5220343
000050 99 52 44 3e 9c 6b 71 3f 07 59 24 3f 10 83 5c bf
       0.19172134 0.94304824 0.64198345 -0.86137486
000060 aa 7c 64 3e 96 ca 76 3f dd 5c 74 bd 76 91 10 bf
       0.2231318 0.9640287 -0.059658874 -0.56471956
000070 26 97 04 3f 86 af 47 bf 68 7d f1 be 4c 1c cd be
       0.51793134 -0.780022 -0.4716599 -0.4006065
000080 e4 51 4f 3f 7b 79 05 3f 40 bd 4e be 7c ed 09 3f
       0.8098433 0.5213849 -0.2018938 0.53878
000090 35 9b 25 3f 44 5e 08 3f 70 3b 58 3f da 47 cc be
       0.6468995 0.5326884 0.84465694 -0.39898568
0000a0 02 35 3f bf a7 5a 39 bd 3a 19 a5 3e ec 8e 1f 3f
       -0.7469026 -0.04525247 0.3224581 0.62327456
0000b0 11 88 d5 be 02 9a 31 bf ca 33 45 3f f0 35 98 bd
       -0.41705373 -0.6937562 0.7703215 -0.07432163
0000c0 a0 3e d2 bd 35 03 6f 3d 72 a9 10 bc 56 38 a5 3e
       -0.10265851 0.058352668 -0.008829461 0.32269543
0000d0 36 a7 61 bf 5d 48 80 3f 7a 27 63 bf c0 87 2e bf
       -0.8814577 1.0022084 -0.8873211 -0.6817589
0000e0 0f c6 ac 3e a5 16 d0 3e 48 f0 54 bf c7 ea 6c 3f
       0.33744857 0.40642276 -0.8317914 0.9254574
0000f0 a2 5e 6d bf e6 27 51 bf 87 f5 ce 3e d3 f9 46 3f
       -0.92722523 -0.81701505 0.40421697 0.7772495
000100 bc 48 34 3f 04 42 56 bf 7a 2e bc 3d 79 00 f9 be
       0.70423484 -0.8369448 0.09188552 -0.48633173
000110 96 16 74 3f 0b 93 7a 3f b8 15 05 bf 5b f0 5d bf
       0.95346963 0.9788062 -0.51986265 -0.8669488
000120 30 17 e0 bd 59 12 49 3f da 3b ac be 30 56 ca 3d
       -0.10941923 0.7854362 -0.33639413 0.0987972
000130 4c e0 aa 3e d0 20 23 3e ff ef 2f 3f 60 df 5a 3d
       0.3337425 0.15930486 0.6872558 0.053435683
000140 83 4f fd 3e dc 0d b5 be 98 6a 88 be e3 f6 15 3f
       0.49474725 -0.35362136 -0.26643825 0.58579844
000150 89 25 36 3f 6d b3 5f 3f ec ff 3f 3f 0e f4 7c bf
       0.71151024 0.87383157 0.7499988 -0.988099
000160 30 8a 7a 3f 50 94 82 3f c7 40 00 bf 34 3e c0 3e
       0.9786711 1.0201511 -0.5009884 0.37547457
000170 b0 b7 e1 be af 4c 73 3f 3f e0 62 3e 8e 70 0a bf
       -0.44085455 0.95038885 0.22155856 -0.54077995
000180 dd 42 3f 3f e7 ed 6d 3f 80 86 af bd 48 9c ff 3e
       0.747114 0.92941135 -0.08570576 0.4992392

linear2.weight f4 [100, 100]
000000 9e 35 62 3d f8 14 cb bd d0 ca 4d 3c 90 b4 43 bd
       0.055226915 -0.09916109 0.012560561 -0.04777962
000010 f9 3d ab 3d 38 d2 a6 bd b4 11 99 3c b3 62 58 bd
       0.0836143 -0.08145565 0.0186852 -0.052828502
000020 18 74 c8 bc bd 77 ae bd 11 6d bb 3d 43 51 cc bd
       -0.02446942 -0.08518932 0.09151662 -0.09976437
000030 ce 97 8b bd 99 b1 85 3d 93 19 ca 3d a1 e8 b1 3d
       -0.06816064 0.06528015 0.09868159 0.086869486
000040 3d b7 31 bd 97 af c1 bd 00 62 02 3b 00 20 bf 3b
       -0.04338764 -0.09457319 0.0019894838 0.005832672
000050 77 a1 2f bd e1 07 b9 3d 18 26 73 3c 3d cf 8c bd
       -0.042878594 0.09034706 0.014840625 -0.06875465
000060 2d 5e 51 bd ac 7a a9 bc 22 ee 7e 3d d3 93 48 bd
       -0.051115204 -0.020688377 0.06223882 -0.0489691
000070 10 9d 48 3c 09 40 88 3d 2f c7 c7 bd e8 3c cf bc
       0.012244478 0.06652839 -0.09754788 -0.025297597
000080 00 cf 4f bd 98 ec 6e bc c0 f0 2f bb 60 8c 63 bd
       -0.05073452 -0.0145827755 -0.002684638 -0.055553794
000090 cb e8 a8 bd c8 cd cc bc a0 f8 82 bc 90 19 70 bc
       -0.08247527 -0.025000468 -0.015987694 -0.014654532
0000a0 26 ed 7c 3d 50 64 90 bb 23 4c 39 bd 10 83 18 bd
       0.0617496 -0.0044064894 -0.045238625 -0.037234366
0000b0 77 be 58 bd 16 84 77 3d 5b 4c 9c bd d3 a4 3d bd
       -0.052916016 0.0604287 -0.07631751 -0.046299767
0000c0 6c b9 95 3c 6f d2 a8 3d e8 49 61 3c 00 21 24 bb
       0.018276893 0.08243262 0.013750531 -0.0025044084
0000d0 90 79 0b bc c0 e8 d5 ba 12 d0 1e 3d 67 1d 64 bd
       -0.0085128695 -0.0016319975 0.03877265 -0.055692103
0000e0 32 6e 9c bd 62 6c c8 bd a8 b3 a5 bc 4b b8 c7 bd
       -0.076382056 -0.097862974 -0.020227268 -0.09751948
0000f0 b0 fa a8 bb 0a c0 4c 3d b0 75 7a bc 50 4b e7 3b
       -0.0051568374 0.04998783 -0.015286848 0.0070585385
000100 1a 3f 7d bd 62 d3 6f 3d 28 5a 1f 3c b5 96 ac bd
       -0.061827756 0.0585512 0.009726085 -0.084271826
000110 7d 6a c2 3d cb 92 af bd a7 09 a7 3d 50 29 d4 bb
       0.09492967 -0.085729204 0.08156138 -0.0064746514
000120 3b 92 b1 bd 4e 76 21 3d 2d 66 a5 bd ae d3 09 3d
       -0.086704694 0.039419465 -0.08076129 0.03364914
000130 03 9a 8d 3d a8 33 09 bc a0 bf ee bb 43 5a 8e bd
       0.06914141 -0.008374132 -0.007286027 -0.0695081
000140 77 09 40 bd ab eb bc 3d fd 41 cc bd 40 4f 8c ba
       -0.046884026 0.092246376 -0.09973524 -0.0010704771
000150 40 2b 28 bd a0 f6 e4 bb 10 9c ad bd 97 d4 7a bd
       -0.04105687 -0.006987408 -0.08477032 -0.061237898
000160 f4 82 c8 bc 0a f7 87 bd 22 92 51 3d 98 88 6e 3c
       -0.024476506 -0.06638916 0.051164754 0.014558934
000170 d5 7d 9b bd b4 ef 02 bd 80 2b d0 3a a0 f0 b4 bb
       -0.0759236 -0.03196688 0.0015882105 -0.005521849
000180 02 23 6c 3d fd 7a 28 bd 90 00 05 bc 42 35 94 bd
       0.057650574 -0.041132916 -0.00811781 -0.072367206
000190 06 ea 3b 3d f7 3a 50 bd b6 f8 5c bd 6a e2 1f bd
       0.04587748 -0.050837483 -0.053948127 -0.039034285
0001a0 1a 00 15 bd a0 a4 ba bd aa a1 c8 3c cc d7 a0 3c
       -0.03637705 -0.09113431 0.02449115 0.01963415
0001b0 d2 f8 97 3d 78 85 e5 bc 7b fb 80 3d 20 b7 c1 bc
       0.074205056 -0.028017744 0.06297966 -0.023646891
0001c0 ba 90 02 3d 6f ce c0 bc 47 58 c4 bd 2e 65 0b 3d
       0.031876303 -0.023535935 -0.0958715 0.03403204
0001d0 ca 9c 0a 3d a2 ee d0 3d ea 56 30 3d 98 2c 86 3c
       0.033840932 0.102017656 0.043051638 0.016378686
0001e0 ac 59 a8 3d 44 84 c6 bd 2b 24 95 bd 91 64 c5 3d
       0.082202286 -0.096931964 -0.07282289 0.09638322
0001f0 a7 74 06 3d 13 05 9d 3d 50 4f 6a bd 1a 60 77 3d
       0.032826092 0.076669835 -0.057204545 0.060394384
000200 67 07 ad 3d 60 0d 02 3b 26 1e 1f 3d 91 bc a4 3d
       0.084486775 0.0019844398 0.03884711 0.08043779
000210 85 30 e1 3c 6f 9d 85 3d b4 ac c1 bc 1a f0 bd 3d
       0.027488956 0.06524169 -0.023641922 0.09274311
000220 b3 cb 54 3c 02 87 89 bd 5d 46 d7 bd 4d d1 36 3d
       0.012988019 -0.06715204 -0.105114676 0.0446332
000230 70 8c 33 bd e6 4d 67 3d a8 0a 57 bd e0 3b 97 bf
       -0.043835104 0.056470774 -0.052500397 -1.1815147
000240 6c 20 cb 3d 6d 73 40 bd fb d0 45 bd bd aa c9 bd
       0.09918293 -0.04698508 -0.048295002 -0.09847019
000250 68 d9 7d 3c dc 22 db 3d 15 cc 94 3d fb fc f8 3c
       0.015493728 0.10700008 0.07265488 0.030394068
000260 1d 41 9b bd 9d 0d 4a 3d 5a 42 1c 3d 35 f7 af bd
       -0.07580779 0.04932939 0.038149215 -0.08592073
000270 24 0c 80 3c b0 b4 ba 3d 71 68 b1 3d 98 b8 4e 3d
       0.01563079 0.09116495 0.08662499 0.05046901
000280 c6 32 55 3d ff fb 8a 3d 4b 32 4a 3d 08 b0 19 bd
       0.052050374 0.06786346 0.04936437 -0.037521392
000290 0d 74 9d bd 60 f1 05 bb ed d6 fb 3c 86 f5 f5 3c
       -0.076881506 -0.002043806 0.030742133 0.030024301
0002a0 87 19 0c 3d a4 53 95 bb a4 d1 8a bd 1d 80 a1 3f
       0.034204032 -0.00455709 -0.06778267 1.2617222
0002b0 c3 89 9c bd 4d 74 94 bc ac 01 c0 3d 02 3d 5e 3d
       -0.076434635 -0.018121863 0.09375319 0.0542574
0002c0 09 f5 8d 3d 00 ba 28 bd a2 25 ba bd d2 a5 af bd
       0.06931502 -0.04119301 -0.09089209 -0.085765496
0002d0 04 ca 98 bd 35 9b bf bd 58 cf a5 3c e6 de 83 3d
       -0.074604064 -0.09355775 0.02024047 0.06438999
0002e0 ef 6f b8 bd df a1 1c 3d b9 18 cb 3d bc 38 f3 3c
       -0.09005725 0.03824031 0.09916825 0.029690139
0002f0 cf 97 28 bd 8c 53 90 bc 2f 7c 53 3d 8a 08 44 3d
       -0.0411604 -0.017617963 0.051632103 0.047859706
000300 2d 45 87 3d 17 6f 2b bd 3b 26 86 3d da 6c c5 3d
       0.06604991 -0.04185399 0.06550261 0.096399024
000310 24 2c bc bd e0 d6 41 3d 80 5c ac 3b d8 d4 0c 3c
       -0.09188107 0.04732406 0.0052600503 0.008595668
000320 60 01 86 3c 4c 19 bb 3c 2f 3e e8 3c 2a d9 73 3d
       0.016358078 0.02283921 0.028349964 0.059533276
000330 4f d8 02 bc d8 5d 49 bc 2f 7a 05 bd d1 b7 86 3d
       -0.007986142 -0.0122904405 -0.032587226 0.06578029
000340 a3 69 86 bd 1a 25 77 bd c3 6b 30 bd 41 e1 ad 3d
       -0.06563117 -0.060338117 -0.04307152 0.084902294
000350 1c 96 c9 3c 62 4d 1c bd e5 9c 7e bd 3a d4 37 bd
       0.02460771 -0.038159736 -0.062161345 -0.04488013
000360 af 71 b1 3d a7 34 5f 3d 06 de 26 3d 32 f2 4b 3d
       0.086642615 0.054493573 0.04073908 0.049791522
000370 8a 33 2e 3d 22 06 31 3d 8c 64 2a bd 1d bd c3 bd
       0.04252962 0.04321874 -0.041599795 -0.09557555
000380 9c a4 f4 bb 48 cb 15 3d 5a e3 37 3c 16 79 3d 3d
       -0.007465912 0.036570817 0.011223638 0.046258055
000390 8c 86 24 bc 13 73 91 3d b2 56 32 3d 31 8c b6 3d
       -0.010041844 0.07102027 0.04353971 0.08913458
0003a0 5a 95 bc bd 1c 02 79 bd 00 94 58 3b ea fb 2c bc
       -0.09208174 -0.060793027 0.00330472 -0.010558108
0003b0 e3 34 34 bd 8e 1e f0 bd 81 ae 6f 3b 00 ac a4 bd
       -0.04399575 -0.11724578 0.0036572518 -0.08040619
0003c0 f5 5e 8b bd b3 fc 9e bd 08 55 43 3d 61 ee 9a 3f
       -0.06805221 -0.07763042 0.047688514 1.2103997
0003d0 91 b7 d7 bd ca b6 5b bd e2 26 02 3d c6 70 53 3d
       -0.105330594 -0.053641118 0.031775363 0.05162122
0003e0 6c 91 85 bd bf d3 f6 3c 03 b6 a1 bd b4 f6 bb 3c
       -0.06521878 0.030130265 -0.07896044 0.022944786
0003f0 a0 ce e8 bc e6 14 fb 3c 43 76 5a bd 7d aa 4a bd
       -0.028418839 0.030649614 -0.05333544 -0.049478997

linear2.bias f4 [100]
000000 2a a2 53 bd 5a 8a 59 bd 99 a5 55 3d bf f8 03 bd
       -0.051668324 -0.053110458 0.05215988 -0.032219645
000010 b4 4b 9e bc 7e 71 ab 3d 3d 0a 3c 3d f0 f5 57 3c
       -0.019323207 0.08371256 0.0459082 0.013181195
000020 8a 8e 99 bd 14 60 05 bc 96 ab 52 3d 32 0e ac bc
       -0.0749789 -0.008140583 0.05143317 -0.021002863
000030 e7 56 19 3c 78 7e b1 bc 37 cf 19 3d d7 1f 18 3d
       0.009359098 -0.02166675 0.03755113 0.03713974
000040 7b 88 af bc 66 9f dd 3c 6c e2 72 bd 68 a3 49 3d
       -0.021427384 0.027053546 -0.059297964 0.049228102
000050 7b 7d 50 bd da 81 bf bd cc f8 a3 3d ea b8 8f bd
       -0.050900918 -0.09350939 0.080064386 -0.070176914
000060 ad 38 7e bd a2 be be 3d 1f fb 49 bb 38 74 ca bd
       -0.06206577 0.09313704 -0.0030819846 -0.09885448
000070 b3 bc a5 bc db 67 62 bd 6e a7 78 3d 6e f3 7d 3d
       -0.02023158 -0.055274826 0.06070655 0.06199973
000080 10 f0 75 3c 00 08 c0 39 20 4c d3 bb a3 91 cc bd
       0.015010849 0.00036627054 -0.006448284 -0.099887155
000090 95 65 9c 3d df cc 9a 3d b8 28 ac bd 10 40 57 3c
       0.07636563 0.07558607 -0.08406204 0.013137832
0000a0 c8 c2 c9 bd 80 dc a1 ba 8b d7 aa bd 5e 25 44 3d
       -0.09851605 -0.0012349039 -0.08341893 0.0478872
0000b0 1d 2f 7f bd 80 cf ad 3c e6 71 19 bd 6b b9 b5 3d
       -0.06230079 0.021217108 -0.037462138 0.08873256
0000c0 45 c9 b5 3d e6 c1 17 bd 01 fb c7 3d 69 1e ab 3d
       0.0887628 -0.03705015 0.09764672 0.0835541
0000d0 83 87 67 bd bb c9 af bd 52 1b 15 3d 30 a0 22 bc
       -0.05652572 -0.08583399 0.036403008 -0.009925887
0000e0 1f da f4 3b 0a 44 41 3c 25 a7 af 3b a3 25 cb bd
       0.007472291 0.011796007 0.0053605014 -0.09919288
0000f0 02 1a 07 bd c0 31 c3 3c 43 f3 ba bd 85 85 c9 3d
       -0.032983787 0.023827434 -0.0912843 0.0983992
000100 c7 06 93 bd 18 cf b3 bc fe 06 3f 3d 2a 34 83 3d
       -0.07179027 -0.021949336 0.046637528 0.06406434
000110 52 f4 73 3d a2 99 31 3d 6a c6 55 bd fe 54 6d 3d
       0.059559174 0.043359406 -0.052191176 0.057942383
000120 a5 40 c7 bd 47 2e b0 3b 97 5a 09 bd 71 0e a6 bd
       -0.09729127 0.0053766104 -0.03353366 -0.08108223
000130 4f 33 09 bd 12 5f 51 3d f3 c8 22 bd c7 04 bd 3d
       -0.033496197 0.051116057 -0.03974242 0.09229427
000140 9f 1f 33 bd e9 5d a9 3d 4a 57 28 3d 94 29 09 bd
       -0.043731328 0.08269865 0.04109887 -0.033486918
000150 88 14 c9 3c 8d 90 5b bd f7 17 ca 3d 96 17 5a bd
       0.024545923 -0.05360465 0.09867852 -0.05324515
000160 4b fa b3 3d 47 90 28 bd 12 61 d8 bd 2e 13 3c bd
       0.08787974 -0.04115322 -0.1056539 -0.04591673
000170 19 8d 55 bd 5a ba 9a bc 03 4c 53 3c 10 b5 4a bd
       -0.052136514 -0.018887687 0.012896541 -0.04948908
000180 7b ec 9d 3d 75 cf 58 bd ba fa 66 3c 5b 3e 28 3d
       0.07711121 -0.05293222 0.014097864 0.04107509

linear3.weight f4 [1, 100]
000000 70 2b cb 3a 22 ea cd 3d 83 54 c8 bd da c6 26 b9
       0.0015500616 0.10054423 -0.09781744 -0.00015905072
000010 c0 f9 08 39 0b de 13 be a5 fd c7 3d f0 a9 01 ba
       0.0001306301 -0.14440171 0.09765176 -0.0004946282
000020 1c 2a 9e ba 37 62 e8 b9 b0 0c a5 b9 78 b0 27 be
       -0.0012066993 -0.00044323664 -0.00031480705 -0.16375911
000030 3f cc 54 3a d4 a5 27 3a 66 15 13 be a2 0f f2 be
       0.0008117593 0.0006395255 -0.14363632 -0.47277552
000040 91 15 50 be 59 f3 dd 3d ce 83 a6 be b9 4b 2c 3e
       -0.20320727 0.108374305 -0.32522434 0.16825761
000050 49 2c 85 be 30 e1 0b 3e 7e bd 33 3e 24 cc 61 3a
       -0.2601035 0.13660121 0.17552754 0.0008613488
000060 2c 9f 96 3a c1 c0 80 be 75 1b cb 3d bf 90 65 39
       0.0011491529 -0.2514706 0.099173464 0.00021893064
000070 e3 7c a2 be 82 84 a9 be 23 b2 f0 3d 63 1d 24 bb
       -0.31735906 -0.33108908 0.11752727 -0.002504193
000080 92 b1 0e 3b ac 5a b7 ba f2 65 04 3b 3e 47 9b 3f
       0.002177332 -0.0013988814 0.0020202366 1.2131116
000090 67 1e e4 bd 64 9c 04 bb 08 00 a1 b9 c4 b4 0c bb
       -0.11138611 -0.0020234818 -0.00030708336 -0.002147005
0000a0 f3 4b 22 3e b4 41 31 3b 44 f5 b1 ba 9f d5 0b bb
       0.15849285 0.0027047219 -0.0013577123 -0.0021337045
0000b0 c5 c3 09 be 96 e6 11 3b 23 cf 06 bb 2c b1 fe ba
       -0.13453586 0.0022262684 -0.002057024 -0.0019431463
0000c0 30 e7 13 3b bc eb 3a 3b 32 75 33 3b c9 8b cf b8
       0.0022568218 0.0028521856 0.0027383086 -9.896566e-05
0000d0 58 8a 68 ba e0 c0 9b b9 bc 20 3a bb 73 b0 05 bb
       -0.00088707125 -0.00029707607 -0.002840086 -0.0020399361
0000e0 6f 14 fd ba fb 3f 58 3e 78 53 8e be 80 fa b9 3a
       -0.0019308458 0.21118157 -0.27798057 0.0014189035
0000f0 60 e0 50 b9 9a d1 03 bb a8 17 2b 3b 99 8e 99 ba
       -0.00019920012 -0.0020113946 0.002610663 -0.0011715471
000100 de a8 1b 3e df fd 4a 3c 18 67 b0 be 8d 09 0b bf
       0.15201136 0.012389629 -0.34453654 -0.5431145
000110 03 a2 14 3e 66 6d 83 3a 68 9f 0f ba 0c 6d 12 bb
       0.14514928 0.001002711 -0.00054787705 -0.002234283
000120 42 59 fc 3d 43 9a 2b 3e 59 6d c0 3a 84 bd ac be
       0.12321712 0.16758065 0.0014681026 -0.3373834
000130 82 ed d7 3d 08 3b b9 ba d0 4f 78 b9 71 53 85 be
       0.10543348 -0.0014131973 -0.00023680856 -0.26040223
000140 fc 6a 42 be 04 db 42 be f0 84 7a 3a d0 21 fe 39
       -0.18986124 -0.1902886 0.00095565524 0.00048471848
000150 f6 09 1b 3b 80 ab 55 3e b8 08 92 39 f2 a2 b6 be
       0.002365706 0.20866203 0.00027853786 -0.35671192
000160 f7 47 0a 3e fc f2 18 3b a8 b5 f0 3d ef 84 b9 be
       0.13504015 0.002333819 0.11753398 -0.36234233
000170 32 c8 0f 3e 8a a0 d0 3d 8b c6 52 be 3c f7 d9 ba
       0.14041212 0.101868704 -0.2058355 -0.0016629468
000180 b2 31 2d bb eb 4c 02 3a b2 04 c3 be 44 fc ad bd
       -0.0026427326 0.0004970568 -0.3808952 -0.084953815
