saved_models/ddpg/value_net_checkpoint_a2.pth (torch, 44267 bytes, 5 tensors)

linear1.weight f4 [100, 2]
0	0x3e3f84a2	0.18702939
1	0x3d268c7b	0.040661316
2	0xbe2b515b	-0.16730253
3	0x3f073db2	0.52828515
4	0x3f16671f	0.587511
5	0xbf9a2519	-1.2042571
6	0xbf85123d	-1.0396191
7	0xbf03d3ec	-0.5149524
8	0xbf0de4c8	-0.5542722
9	0xbe9330da	-0.28748208
10	0xbcad5898	-0.021160409
11	0x3e3b5931	0.18295743
12	0x3e8f762b	0.28019843
13	0x3e8a8fb7	0.2706277
14	0x3e61069d	0.21975179
15	0x3cf7195b	0.030163458
16	0xbf39b93a	-0.7254826
17	0x3dbe263b	0.09284636
18	0xbf6cdfc0	-0.92528915
19	0x3f13d655	0.5774892
20	0xbf6fecf1	-0.9372092
21	0xbe156756	-0.14590201
22	0xbf548471	-0.8301459
23	0xbedd9867	-0.43280336
24	0xbf21ba83	-0.6317522
25	0xbea09e3a	-0.31370717
26	0xbf2b6130	-0.6694517
27	0x3ddf6dd2	0.109096184
28	0xbf18fe40	-0.59762955
29	0x3f63a31f	0.8892078
30	0xbf2a5a5e	-0.6654414
31	0xbf53c4ea	-0.8272234
32	0xbf3aa6a7	-0.7291054
33	0xbf228480	-0.6348343
34	0x3f3a7071	0.7282782
35	0x3ee1c503	0.4409562
36	0xbed32bf2	-0.41244465
37	0x3e158e3c	0.1460504
38	0x3f05cbd2	0.5226413
39	0xbed26e88	-0.41099954
40	0x3f013c4f	0.5048265
41	0x3dc3cdef	0.09560763
42	0xbf49fb05	-0.7889865
43	0xbdf9c5f7	-0.12195962
44	0xbe87cba0	-0.2652254
45	0xbdc694a1	-0.096963175
46	0xbe180463	-0.14845423
47	0x3e0e3410	0.13887048
48	0x3eba2c92	0.3636213
49	0x3e05ac4b	0.13054006
50	0xbf87ee9e	-1.0619695
51	0xbf4f383e	-0.80945194
52	0xbef48413	-0.47757015
53	0xbd101d60	-0.035184264
54	0x3f80903a	1.0044014
55	0x3f007a74	0.5018685
56	0xbf87cc52	-1.0609229
57	0xbf4c2c10	-0.79754734
58	0xbf1d2755	-0.6138814
59	0xbe06e85d	-0.13174577
60	0x3e9beaf9	0.30452707
61	0x3e43336a	0.19062582
62	0xbde30d9d	-0.11086581
63	0xbe5f70e5	-0.2182041
64	0xbf13f914	-0.5780194
65	0x3d2dbbb0	0.04241532
66	0xbf4a099f	-0.7892093
67	0x3f2cd019	0.6750503
68	0xbf80816b	-1.0039495
69	0x3b832ebc	0.004003374
70	0xbf62fad9	-0.88664013
71	0x3f0abd62	0.54195225
72	0x3f00b106	0.50270116
73	0x3e57cd29	0.21074356
74	0xbf86755f	-1.0504569
75	0xbf2ceb6d	-0.6754673
76	0xbf2025c5	-0.6255763
77	0x3e0ac98e	0.1355345
78	0x3d0cb452	0.034351654
79	0x3e44b57b	0.19209854
80	0x3e2cc408	0.16871655
81	0x3edc6ad5	0.43050256
82	0x3f21f3b9	0.63262516
83	0x3e604134	0.21899873
84	0xbea7f4fd	-0.328041
85	0xbf74a8f1	-0.95570284
86	0xbf651a2d	-0.89493066
87	0x3f167d58	0.5878501
88	0x3f2503a1	0.6445866
89	0x3f520448	0.8203778
90	0xbefc2a86	-0.49251193
91	0xbdd0c418	-0.10193652
92	0xbef0344e	-0.46914905
93	0x3de271fe	0.110568985
94	0x3ef2530b	0.47328982
95	0x3f1645c4	0.58700204
96	0xbe00595f	-0.12534092
97	0xbdd7e6d4	-0.10542074
98	0x3ed03058	0.40661883
99	0x3e2ec56b	0.17067496
100	0x3e731a3f	0.23740481
101	0xbe82480c	-0.25445592
102	0xbdf309ef	-0.11867129
103	0xbdd1b8bc	-0.102403134
104	0xbe92032a	-0.2851804
105	0xbe131d2f	-0.14366601
106	0x3d770579	0.060307954
107	0x3e18bddf	0.1491618
108	0xbd2f2994	-0.04276426
109	0xbf008d20	-0.5021534
110	0xbf524883	-0.82141894
111	0xbd8f4287	-0.06995111
112	0x3f8524fb	1.040191
113	0xbe63473c	-0.22195143
114	0xbf46cedc	-0.7765939
115	0xbe955266	-0.29164428
116	0x3e026424	0.12733513
117	0xbe725e86	-0.2366887
118	0x3d8c212e	0.06842266
119	0xbe81ad1e	-0.2532739
120	0xbef9208d	-0.48657647
121	0xbe5bfa60	-0.21482229
122	0xbde90a00	-0.113788605
123	0xbe5aca98	-0.21366346
124	0xbf7ef491	-0.9959193
125	0xbe866459	-0.26248434
126	0x3fbad008	1.4594736
127	0xbeba674f	-0.36406943
128	0x3c28c800	0.01030159
129	0xbe66d323	-0.2254148
130	0xbf1e1f44	-0.6176646
131	0xbf2005e5	-0.62508994
132	0xbe6610ff	-0.22467421
133	0x3dfbe87c	0.12300202
134	0x3ef90195	0.4863402
135	0x3e21aa7d	0.15787692
136	0xbf693694	-0.91098905
137	0x3f16f065	0.5896056
138	0xbcad4782	-0.021152262
139	0x3e5ee17f	0.21765707
140	0xbefd21d7	-0.4943988
141	0xbe34c3d0	-0.17652822
142	0x3ee31c07	0.4435732
143	0x3df0d5ce	0.1175953
144	0xbf5bbe6b	-0.8583743
145	0x3f2c32c5	0.6726497
146	0xbf151a1d	-0.5824297
147	0xbf2748f8	-0.65345716
148	0x3f57e20b	0.8432929
149	0xbe4aea3c	-0.19815916
150	0xbe0d1072	-0.13775805
151	0x3e392bc6	0.18083104
152	0x3a58ac46	0.0008265417
153	0x3ede3125	0.4339687
154	0xbf6879f8	-0.9081111
155	0x3f39ea6c	0.72623324
156	0xbd938ee5	-0.07204989
157	0xbe0e92d1	-0.13923194
158	0xbe14f9f5	-0.14548476
159	0x3f27aab0	0.65494823
160	0xbde41351	-0.11136497
161	0xbfa65fed	-1.2998024
162	0x3e266624	0.16249901
163	0xbe835a99	-0.25655058
164	0xbdcc6f52	-0.0998217
165	0xbe219d36	-0.15782627
166	0xbd9f4d81	-0.077784546
167	0xbf163b1d	-0.5868395
168	0x3e2e4bf2	0.17021158
169	0xbe8856b8	-0.2662866
170	0x3ea36352	0.31911713
171	0xbe974b25	-0.29549518
172	0x3ef64589	0.48099926
173	0x3e5e8732	0.2173126
174	0xbee367eb	-0.4441522
175	0xbf2356bd	-0.6380423
176	0xbed77b7e	-0.42086405
177	0xbe1b8d0a	-0.15190521
178	0xbf33b622	-0.7019979
179	0xbbbe9800	-0.0058164597
180	0xbee4e244	-0.44703877
181	0x3da8dfdf	0.08245825
182	0xbf8f7b96	-1.120959
183	0xbeea15cb	-0.45719752
184	0x3ecce78d	0.4002041
185	0x3dd60e57	0.10451954
186	0x3ed4fba7	0.41598246
187	0xbe99bb84	-0.30025876
188	0xbed9d596	-0.42545766
189	0xbf0bc4d1	-0.54597193
190	0xbc37be9e	-0.01121488
191	0xbdb8fed5	-0.0903298
192	0x3e4d7727	0.20064984
193	0x3e72bc1a	0.23704568
194	0x3e1099ba	0.14121142
195	0x3e89b237	0.2689378
196	0x3f41eaca	0.75748885
197	0x3f0500d8	0.5195441
198	0xbf3e8f88	-0.7443776
199	0xbdd0fd85	-0.10204605

linear1.bias f4 [100]
0	0x3fb88817	1.4416531
1	0xbe8e69d0	-0.27815104
2	0xbe7918cf	-0.2432587
3	0xbf7d5d11	-0.98970133
4	0x3f8e9fdc	1.1142535
5	0x3fd2b4fb	1.6461481
6	0x3fab86b9	1.3400489
7	0x3fbf961a	1.4967682
8	0x3fb8156e	1.438154
9	0x3f32318a	0.6960684
10	0xbedfdd4a	-0.43723518
11	0xbf631ed0	-0.8871889
12	0x3fa01160	1.2505302
13	0x3fc5340a	1.5406506
14	0xbf57bedf	-0.8427562
15	0xbe345f8a	-0.1761457
16	0xbfbaa1e0	-1.458065
17	0x3f118925	0.5684989
18	0x3fd51784	1.6647801
19	0x3fc0a15b	1.5049242
20	0x3f02b4c5	0.5105708
21	0xbefad682	-0.4899178
22	0x3f94b2be	1.1617048
23	0x3fb25e35	1.3935
24	0x3f6e5a2b	0.93106335
25	0xbf2dbcb8	-0.67866087
26	0xbeba004e	-0.36328357
27	0xbe2d6ff5	-0.1693724
28	0xbf766602	-0.962494
29	0xbf35d761	-0.7103177
30	0x3fc01aab	1.5008138
31	0x3fcd3650	1.60322
32	0xbf01c53c	-0.5069158
33	0x3f8f629e	1.120197
34	0x3fbaa8e0	1.4582787
35	0x3fc1969c	1.5124087
36	0x3fc1570e	1.5104692
37	0xbf5b6c43	-0.8571207
38	0x3fdf4794	1.7443719
39	0x3fd669ea	1.6751072
40	0x3f85f158	1.0464277
41	0x3fa65969	1.2996036
42	0xbf218361	-0.63091093
43	0x3fd0df22	1.6318095
44	0x3e875391	0.26430944
45	0xbf0a2c9f	-0.53974336
46	0x3fb2b9ca	1.3962948
47	0x3f21931b	0.6311509
48	0x3eb5027c	0.35353458
49	0x3f9cfc9b	1.2264589
50	0x3fa41292	1.2818167
51	0x3fad504d	1.3540131
52	0x3fc50fcb	1.5395445
53	0x3fa96d5d	1.32365
54	0xbed8c9d8	-0.42341495
55	0x3f9db8a8	1.2321978
56	0x3ea0d050	0.3140893
57	0x3fb50754	1.4142861
58	0x3f9da620	1.2316322
59	0x3fc14a64	1.5100827
60	0x3fa709d5	1.3049875
61	0x3fcc9435	1.5982729
62	0xbf363bd5	-0.71185046
63	0xbec606ad	-0.38676968
64	0x3fbc6921	1.4719583
65	0xbfbb3c9d	-1.4627873
66	0x3fa8c1bd	1.3184124
67	0x3f87b952	1.060343
68	0xbed71230	-0.42006063
69	0x3fcc4727	1.5959214
70	0x3f68c843	0.90930575
71	0x3f401bd1	0.75042444
72	0x3f26d8bd	0.65174466
73	0xbfc490ea	-1.5356724
74	0x3e8b509d	0.2720994
75	0x3f92132f	1.1412104
76	0x3fda538f	1.705675
77	0xbf1341f6	-0.57522523
78	0x3fa3e96b	1.2805609
79	0xbf0997f7	-0.53747505
80	0xbf87649b	-1.0577577
81	0x3f9f3a97	1.2439755
82	0x3fae4b4f	1.3616732
83	0x3ee35337	0.44399425
84	0x3fb6f8d3	1.4294685
85	0x3f95be37	1.1698674
86	0x3fad0a01	1.3518678
87	0x3f9408a3	1.1565136
88	0x3fd86dcc	1.6908507
89	0xbf0c6652	-0.5484363
90	0x3f903822	1.126713
91	0xbf26d919	-0.65175015
92	0x3f2b0652	0.6680652
93	0x3f82ca97	1.0218076
94	0x3f42b0fc	0.76051307
95	0x3f5e410c	0.86818004
96	0x3faf2a5d	1.3684803
97	0x3fd7376c	1.6813788
98	0x3df27aa1	0.11839796
99	0xbeb156bd	-0.3463649

linear2.weight f4 [100, 100]
0	0x3edb22b6	0.4279992
1	0xbebd508e	-0.3697552
2	0xbee6b6a3	-0.45061216
3	0x3d2ea687	0.04263928
4	0x3f71461e	0.94247615
5	0x3f039777	0.5140299
6	0x3e7b399f	0.245337
7	0x3eb90424	0.36135972
8	0x3f9c0513	1.2189049
9	0x3f1eaa78	0.61978865
10	0x3c838f4c	0.01605954
11	0xbdaa12bd	-0.08304355
12	0x3f907840	1.1286697
13	0x3f952514	1.165194
14	0xbf3c91c7	-0.7365994
15	0x3d727e57	0.05920252
16	0x3d54a26c	0.05191271
17	0xbc27a215	-0.010231514
18	0x3f5af528	0.8553033
19	0x3e8f0a33	0.2793747
20	0x3de1c60c	0.110241026
21	0x3e086036	0.13317952
22	0x3f1fbb1c	0.6239488
23	0x3f2d2059	0.67627484
24	0x3e846cf3	0.25864372
25	0xbe3977e8	-0.18112147
26	0xbd06b0a6	-0.03288331
27	0xbeff3fbd	-0.49853316
28	0xbe898de0	-0.26866055
29	0x3e03b3a0	0.1286149
30	0x3ec5490e	0.385323
31	0x3f3181ad	0.69338495
32	0x3d8e96e1	0.069623716
33	0x3f302b30	0.688159
34	0x3fd56beb	1.6673559
35	0x3f4c01fb	0.7969052
36	0x3ee7ae15	0.45250002
37	0x3d8abcf2	0.0677432
38	0x3f8ac228	1.0840502
39	0x3f0054aa	0.5012919
40	0x3e50a4b9	0.20375337
41	0x3ea7849c	0.3271836
42	0xbee068da	-0.43829995
43	0x3f4094ae	0.7522687
44	0xbcd54e39	-0.026038276
45	0x3e17685d	0.14785905
46	0x3f82b41e	1.0211217
47	0x3cc29fcc	0.023757838
48	0x3e186aaf	0.14884447
49	0x3edb48bc	0.4282893
50	0x3ebef176	0.37293595
51	0x3f273dc8	0.65328646
52	0x3f4a3320	0.7898426
53	0x3edbb2e3	0.42909917
54	0xbf024030	-0.5087919
55	0x3fd29af2	1.6453536
56	0xbe32ef34	-0.17474061
57	0x3fb93770	1.4470043
58	0x3ed84213	0.4223791
59	0x3f03b308	0.51445055
60	0x3f5461ea	0.82961905
61	0x3f2a0bb3	0.664241
62	0x3def67e2	0.11689736
63	0xbf57ef6e	-0.84349716
64	0x3f235ac1	0.63810354
65	0x3c992759	0.01869552
66	0x3f2bb42d	0.670718
67	0x3e70d2b4	0.23517877
68	0xbf84d38d	-1.037706
69	0x3f0eaad2	0.557294
70	0x3f6b0d2e	0.91816986
71	0x3e7907cc	0.2431938
72	0x3f1d21bf	0.6137962
73	0xbdd75745	-0.10514692
74	0xbe773dce	-0.2414467
75	0x3ef7c849	0.48394993
76	0x3ec7148d	0.38882867
77	0xbf141740	-0.57847977
78	0x3f134732	0.5753051
79	0xbef7dc02	-0.4841004
80	0xbeee0802	-0.46490484
81	0x3eb9fff5	0.36328092
82	0x3f1beec8	0.60911226
83	0x3dc60233	0.09668388
84	0x3ede4e07	0.43418905
85	0x3ec190ad	0.3780569
86	0x3e88e031	0.26733544
87	0x3f7197ad	0.94372064
88	0x3f4d67a6	0.8023628
89	0xbcbb71b4	-0.022881366
90	0x3f5a87ea	0.8536364
91	0x3e839452	0.25699097
92	0x3e80ca8f	0.2515454
93	0x3ea92c14	0.3304144
94	0x3f754e44	0.9582255
95	0x3effb765	0.49944606
96	0x3ecbe887	0.39825842
97	0x3ef5221a	0.4787758
98	0xbe72bd1b	-0.2370495
99	0x3e5506fd	0.20803447
100	0x3ed115eb	0.40837035
101	0xbf0fc29e	-0.5615634
102	0xbea6031b	-0.32424244
103	0x3e4db225	0.20087488
104	0x3f8654aa	1.0494587
105	0x3f2e8d70	0.68184566
106	0x3e8ee941	0.27912334
107	0x3ec4a539	0.38407305
108	0x3fa3c475	1.2794329
109	0x3f13391b	0.5750901
110	0x3d869b3d	0.06572578
111	0xbd9f9ea5	-0.07793931
112	0x3fa1098d	1.258104
113	0x3fa324a5	1.2745558
114	0xbf57a1b4	-0.84231114
115	0x3e63d7c6	0.2225028
116	0x3de3130c	0.11087617
117	0x3d7edd96	0.06222304
118	0x3f5c3686	0.86020696
119	0x3ec9cdd4	0.39414847
120	0x3d965515	0.07340447
121	0x3dc5b47c	0.09653565
122	0x3f24d269	0.6438356
123	0x3f2ab28d	0.66678697
124	0x3ec4ac92	0.3841291
125	0xbdcb7069	-0.0993355
126	0x3cb9e448	0.02269186
127	0xbf0ee2c0	-0.55814743
128	0xbe17e041	-0.1483164
129	0x3d7408ed	0.059578825
130	0x3f06ebcf	0.52703565
131	0x3f3822ab	0.719279
132	0xbdaf7953	-0.08568063
133	0x3f0c2d5f	0.5475673
134	0x3fdf6c1b	1.7454866
135	0x3f3a14a0	0.7268772
136	0x3eb29a3c	0.34883296
137	0x3de00b9a	0.10939713
138	0x3f7b81b0	0.9824476
139	0x3f252761	0.6451321
140	0x3e4e7d2e	0.2016494
141	0x3ebb57c1	0.36590388
142	0xbed326aa	-0.41240436
143	0x3f37f3c2	0.7185632
144	0xbdee24de	-0.116281256
145	0x3e30efb4	0.1727894
146	0x3f7bb2ae	0.9831952
147	0xbd711cb3	-0.05886526
148	0x3e53bcee	0.2067754
149	0x3e8c207f	0.27368543
150	0x3ebc7f9e	0.36816114
151	0x3f1084d7	0.564527
152	0x3f55add2	0.83468354
153	0x3ef15de1	0.47141936
154	0xbf2fbe79	-0.68650013
155	0x3fd20566	1.6407897
156	0xbe7e479a	-0.24832001
157	0x3faed9bb	1.3660196
158	0x3f12bad4	0.5731633
159	0x3f1da6f4	0.61582875
160	0x3f477187	0.77907604
161	0x3f3160f3	0.6928856
162	0x3e197887	0.14987384
163	0xbf6751cb	-0.9035918
164	0x3f246544	0.6421702
165	0x3ddd99ad	0.10820327
166	0x3f3cb2e2	0.73710454
167	0x3ea8bc24	0.3295604
168	0xbf79158e	-0.97298515
169	0x3f0ea97b	0.55727357
170	0x3f4f905d	0.81079656
171	0x3ea0aee9	0.31383446
172	0x3f1ea0b2	0.6196395
173	0x3b973d70	0.004615478
174	0xbe01906c	-0.12652749
175	0x3ebd8673	0.3701664
176	0x3ec4c062	0.38428026
177	0xbf48bd2b	-0.7841365
178	0x3f165221	0.5871907
179	0xbefb0794	-0.4902922
180	0xbf013a2d	-0.50479394
181	0x3ec8dd4f	0.39231345
182	0x3f2fb255	0.6863149
183	0x3db5be51	0.088741906
184	0x3ed4a07d	0.41528693
185	0x3e95adc5	0.29234138
186	0x3e9a2f45	0.3011419
187	0x3f807338	1.0035162
188	0x3f69ea95	0.9137357
189	0xbd611ff7	-0.054962125
190	0x3f45739b	0.77129525
191	0x3e891ecc	0.2678131
192	0x3e3fbfb4	0.18725473
193	0x3eca15b1	0.39469674
194	0x3f736fff	0.9509277
195	0x3f0884a3	0.5332739
196	0x3ed457ca	0.41473228
197	0x3edcc48a	0.43118697
198	0xbdf35c33	-0.1188282
199	0x3e1a6a51	0.15079619
200	0x3d39e936	0.045388423
201	0xbd0da00a	-0.034576453
202	0x3cf87784	0.030330427
203	0x3d19c1f6	0.03753849
204	0x3d4da332	0.050204463
205	0xbc7ae9d0	-0.015314534
206	0xbd4765ed	-0.04868119
207	0x3cf49564	0.029856391
208	0x3d9d13b3	0.07669773
209	0xbd0140ec	-0.031556055
210	0xbc390658	-0.011293016
211	0x3c1a6f58	0.0094259605
212	0x3d5b066a	0.053472914
213	0x3ce96a64	0.028493114
214	0xbcd5d62c	-0.026103102
215	0x3cf5f404	0.030023582
216	0xbd122fa0	-0.03568995
217	0xbd08c944	-0.033395067
218	0x3da81291	0.08206666
219	0xbda542db	-0.08069392
220	0xbdb8454d	-0.08997593
221	0xbba63a00	-0.005072832
222	0xbdbb69d0	-0.091510415
223	0xbc0a65a8	-0.008447088
224	0x3d6c3282	0.057665356
225	0xbc5acfb0	-0.013355181
226	0x3c0d8e80	0.008639932
227	0x3daabad7	0.08336418
228	0xbd83f5be	-0.06443356
229	0x3d8eee41	0.06979037
230	0x3d8f84b3	0.07007732
231	0x3cf85364	0.030313201
232	0x3d807acd	0.062734224
233	0xbd946adb	-0.072469436
234	0x3c825be0	0.01591295
235	0xbc7cb980	-0.015425086
236	0xbd4941aa	-0.049134888
237	0x3cc4ee80	0.024039507
238	0xbdc89d6b	-0.0979565
239	0x3da8cd3d	0.08242271
240	0xbdc3670d	-0.0954114
241	0x3dc706e1	0.09718109
242	0x3ce80ca4	0.02832634
243	0x3d93c799	0.072158046
244	0xbd642b7a	-0.055705525
245	0xbd5ea503	-0.054356586
246	0x3c888840	0.016666532
247	0xbd8a66dc	-0.067579
248	0xbd879bb2	-0.066214934
249	0xbdc90733	-0.09815826
250	0x3d6b4a7a	0.057444073
251	0xbb852720	-0.004063502
252	0x3d948161	0.072512396
253	0x3daad383	0.08341124
254	0x3ce540e4	0.027985044
255	0x3d148fce	0.036269955

linear2.bias f4 [100]
0	0x3f45254d	0.7701004
1	0x3f2e5333	0.680957
2	0xbdb8e9ab	-0.09028944
3	0x3f2ce095	0.67530185
4	0x3f39b083	0.7253496
5	0x3f2c6db6	0.67354906
6	0xbc1a9ca1	-0.009436757
7	0x3f3434f9	0.7039333
8	0xbe6decfe	-0.23234937
9	0x3f190370	0.5977087
10	0x3f1d8811	0.61535746
11	0x3f4505b6	0.7696184
12	0x3f3c1fc6	0.7348598
13	0x3f3be8f6	0.73402345
14	0x3f23ea6b	0.6402957
15	0xbd85e36f	-0.0653752
16	0x3f2343e5	0.63775474
17	0x3f3fd372	0.74932015
18	0x3f62042b	0.8828761
19	0x3f3980ba	0.72462046
20	0x3f2fc9b2	0.6866714
21	0x3f3445e9	0.70419174
22	0x3f3ffac8	0.74992037
23	0x3f366865	0.71253043
24	0x3f3cfa0d	0.7381905
25	0x3f2a95b7	0.66634697
26	0x3f391ab6	0.7230638
27	0x3f1d25d7	0.61385864
28	0x3f130b08	0.5743871
29	0x3f40a210	0.7524729
30	0xbd005049	-0.031326566
31	0xbb0030c0	-0.0019560307
32	0x3f2864c1	0.6577874
33	0x3f2babfb	0.67059296
34	0x3f3b4ebd	0.7316702
35	0xbc99c7c4	-0.018772013
36	0x3f2c1e59	0.67233807
37	0x3f4222e3	0.7583448
38	0x3f41cf56	0.75706995
39	0x3f43ab95	0.7643369
40	0x3f207716	0.6268171
41	0x3f414c43	0.7550699
42	0x3f3f1657	0.7464346
43	0x3f38628c	0.7202537
44	0x3f4047b1	0.7510939
45	0x3f1d693c	0.614887
46	0x3f122e22	0.57101643
47	0x3f3c52f4	0.73564076
48	0x3f3f7ad7	0.74796814
49	0x3f24e28b	0.6440818
50	0x3dbaca93	0.09120669
51	0x3f318d66	0.6935638
52	0x3f2c00fc	0.67189
53	0x3f410921	0.75404555
54	0x3f35f843	0.7108194
55	0x3f3a8db1	0.72872454
56	0xbd693fe1	-0.056945685
57	0x3f22289e	0.63343227
58	0x3f4444b6	0.76667345
59	0x3f297072	0.661872
60	0x3f1e95f2	0.6194755
61	0x3f20aacd	0.6276062
62	0x3f281903	0.65663165
63	0x3f150626	0.58212507
64	0x3f24084c	0.6407516
65	0x3f351dce	0.70748603
66	0x3f3c9b0a	0.7367407
67	0x3f24c675	0.6436532
68	0x3f3c58a2	0.7357274
69	0xbd2f2fdd	-0.042770255
70	0x3f299f51	0.6625872
71	0x3f1b0afa	0.60563624
72	0x3f3c2dde	0.7350749
73	0x3f319442	0.6936685
74	0xbd86d615	-0.06583802
75	0x3f450c20	0.76971626
76	0x3f27e795	0.6558774
77	0x3f414f91	0.75512034
78	0x3f3d42e9	0.7393022
79	0xbdb18ce8	-0.08669454
80	0x3f403ed4	0.7509587
81	0x3f3a765d	0.7283686
82	0x3f34d02f	0.7063016
83	0x3f12cd6e	0.5734471
84	0x3f358005	0.7089847
85	0x3f34b4e9	0.70588547
86	0x3f33ebd9	0.7028175
87	0x3f366f01	0.7126313
88	0x3f31df73	0.6948158
89	0x3f36d520	0.7141895
90	0x3f382611	0.71933085
91	0x3f3fe1c5	0.7495387
92	0x3f292498	0.6607146
93	0x3f26deca	0.651837
94	0x3f274cce	0.6535157
95	0xbdcaceb6	-0.09902708
96	0x3f1ba9ff	0.6080627
97	0x3f37f04a	0.71851027
98	0x3f38d944	0.7220652
99	0x3f1b3ff0	0.60644436

linear3.weight f4 [1, 100]
0	0xbf251778	-0.64488935
1	0xbf31080b	-0.691529
2	0x3aa70e44	0.001274534
3	0xbf22a771	-0.63536745
4	0xbf240289	-0.6406637
5	0xbf1f4046	-0.6220745
6	0x3b8564bd	0.004070847
7	0xbf2d9a1f	-0.67813295
8	0xbe5cec49	-0.2157451
9	0xbf206b23	-0.6266348
10	0xbf201f72	-0.6254798
11	0xbf20dede	-0.6284007
12	0xbf1e1b25	-0.6176017
13	0xbf24c730	-0.64366436
14	0xbf237ea4	-0.63865113
15	0x3b06f970	0.0020595454
16	0xbf1d49a0	-0.6144047
17	0xbf200ecb	-0.6252257
18	0xbf45da53	-0.7728626
19	0xbf1c7be4	-0.6112654
20	0xbf1d4cc3	-0.61445254
21	0xbf2d495d	-0.6769007
22	0xbf2339fb	-0.63760346
23	0xbf2c6867	-0.67346805
24	0xbf1e7297	-0.618936
25	0xbf1e47b2	-0.6182815
26	0xbf1e9409	-0.61944634
27	0xbf236997	-0.6383299
28	0xbf1de971	-0.6168433
29	0xbf28f574	-0.6599953
30	0x3a80cc23	0.0009826462
31	0xbafde739	-0.0019371278
32	0xbf2d5338	-0.67705107
33	0xbf20767f	-0.6268081
34	0xbf1ce48a	-0.6128622
35	0x3ba15963	0.004923986
36	0xbf204edc	-0.6262033
37	0xbf2edd1d	-0.6830614
38	0xbf22c58f	-0.635827
39	0xbf1edac9	-0.6205259
40	0xbf268a54	-0.6505482
41	0xbf23638d	-0.6382378
42	0xbf236709	-0.63829094
43	0xbf1f9bdb	-0.6234719
44	0xbf226f73	-0.6345131
45	0xbf225b17	-0.6342024
46	0xbf1b281c	-0.6060808
47	0xbf1e55ac	-0.61849475
48	0xbf225f3f	-0.63426584
49	0xbf25229f	-0.6450595
50	0xbaedac7a	-0.0018133067
51	0xbf1b70a0	-0.6071873
52	0xbf20f3b0	-0.6287184
53	0xbf27ddbc	-0.65572715
54	0xbf228a72	-0.634925
55	0xbf248989	-0.6427236
56	0xbeb8ef98	-0.36120296
57	0xbf226ef4	-0.6345055
58	0xbf2183da	-0.63091815
59	0xbf1bf806	-0.6092533
60	0xbf2bb4bd	-0.6707266
61	0xbf2edba2	-0.68303883
62	0xbf1a193a	-0.6019474
63	0xbf1db9ad	-0.61611444
64	0xbf21932d	-0.631152
65	0xbf21dd64	-0.6322844
66	0xbf20cb88	-0.62810564
67	0xbf20ed4c	-0.62862086
68	0xbf230336	-0.63676775
69	0xba6afebc	-0.000896435
70	0xbf26bde6	-0.6513351
71	0xbf242ce2	-0.64130986
72	0xbf229ad3	-0.63517493
73	0xbf256818	-0.6461196
74	0xba444974	-0.0007487752
75	0xbf2e86a9	-0.68174225
76	0xbf23c236	-0.6396822
77	0xbf213dc9	-0.629849
78	0xbf20ffdb	-0.62890404
79	0x3ea74ec1	0.32677272
80	0xbf26426c	-0.649451
81	0xbf1d59fd	-0.61465436
82	0xbf190899	-0.59778744
83	0xbf21a2c7	-0.63139004
84	0xbf226a0b	-0.6344306
85	0xbf32a582	-0.69783795
86	0xbf22b54c	-0.6355789
87	0xbf22f7cf	-0.63659376
88	0xbf1fd49e	-0.62433803
89	0xbf1986c1	-0.59971243
90	0xbf1f62a2	-0.62259877
91	0xbf267bd3	-0.6503269
92	0xbf202d61	-0.6256924
93	0xbf2cedde	-0.67550457
94	0xbf252fb4	-0.64525914
95	0x39d22155	0.00040079156
96	0xbf25eb66	-0.64812315
97	0xbf1f6ba2	-0.6227361
98	0xbf2a5bad	-0.66546136
99	0xbf2a6473	-0.66559523
