saved_models/ddpg/value_net_checkpoint_a0.pth (torch, 44267 bytes, 5 tensors)

linear1.weight f4 [100, 2]
000000 0a 14 26 3e 73 ab 32 3e eb bd 52 bf e3 b4 ea be
       0.16218582 0.17448215 -0.8232104 -0.4584113
000010 b9 fa 14 bf 48 b7 70 3f 60 19 07 3f 51 2d 36 3e
       -0.5819507 0.94029665 0.52773094 0.17790724
000020 36 39 7d 3e c6 2b 15 3e b8 0e 88 be bf bd 4f bd
       0.24728855 0.1456748 -0.2657373 -0.050718065
000030 8f 71 20 bf 64 70 14 bf 69 d6 b6 be e0 53 b3 bb
       -0.62673277 -0.57983994 -0.35710457 -0.005472645
000040 ec 39 dc 3e da a7 7f 3e 1b 9b f1 be 92 60 60 bd
       0.4301294 0.24966374 -0.4718865 -0.054779597
000050 ce dd e8 3e 2b cb 8c 3e 0c 3c 4e 3e 7f 79 38 3e
       0.45481724 0.27498755 0.20140094 0.18015097
000060 24 1c 04 bd 2e c5 17 3e 45 86 38 3f 8e f0 3d be
       -0.0322534 0.14821312 0.7207988 -0.18548796
000070 5a 30 97 be f8 9a 0d 3d 5a 06 88 3d e0 7d 51 3e
       -0.29529077 0.034571618 0.066418365 0.20458174
000080 1d cd a5 bf 08 88 b2 be ef da 69 bf 95 de 2b bf
       -1.2953221 -0.3486941 -0.9134969 -0.6713651
000090 89 1d 65 be 6e 0a 79 3e e1 7c fc 3e 47 98 fd 3e
       -0.22374548 0.24320385 0.49314025 0.4953024
0000a0 ef 6b 91 3d f3 5a b7 bb 5f e5 01 3e 69 94 76 be
       0.07100665 -0.005595559 0.12685154 -0.24080051
0000b0 04 65 0d bf 47 f7 9b bd a5 be 1c 3f cc 6e 72 3e
       -0.5523226 -0.07615524 0.612284 0.23675078
0000c0 f6 8f a0 be 00 03 d1 bc b6 64 02 3f da 33 22 3f
       -0.31359833 -0.025514126 0.5093492 0.6336037
0000d0 21 0a 02 3f 98 75 14 3e 6a e7 05 3f 52 aa a5 bd
       0.50796705 0.14497983 0.52306235 -0.08089127
0000e0 a5 5d 29 bd 0d 23 f9 be b2 f6 25 bf 9d fe bb be
       -0.041349072 -0.48659554 -0.6482955 -0.36717692
0000f0 d6 ab eb 3e f2 c7 52 3e ae 1d b6 be ca 17 39 3e
       0.46029538 0.20584086 -0.3556952 0.18075481
000100 8b 25 b2 3e 44 33 92 bd 75 6e 31 bd 20 73 a8 3d
       0.34794268 -0.071386844 -0.04331823 0.08225083
000110 2f 0b f2 3e c4 98 21 3f 71 08 aa bf 28 0d a3 be
       0.47274157 0.63123727 -1.3283826 -0.31845975
000120 0d 21 bd 3e 35 1b e1 3e dc 7c 74 3f f0 bb 32 3f
       0.36939278 0.4396607 0.9550302 0.6981802
000130 85 15 35 bd a2 46 26 bf d6 62 b8 3d 4f 88 9c bd
       -0.044209976 -0.6495153 0.090032265 -0.07643186
000140 2a 45 88 be 4a 0f 3e 3e ed 3d 0d 3f 9b 39 84 be
       -0.26615268 0.1856052 0.55172616 -0.258252
000150 99 85 13 3e d2 60 8d 3c de c8 bb bd 3b 7e 83 bc
       0.14406432 0.017258082 -0.09169172 -0.016051402
000160 65 50 81 3e d4 b9 f1 bd 1e b1 70 3f c3 82 1b 3f
       0.2525665 -0.11803022 0.9402026 0.607464
000170 7e 2e e5 3e 31 d5 40 3e c0 0e cc bf 1a 40 cc be
       0.44762033 0.18831326 -1.5942001 -0.39892656
000180 b3 63 a1 3e bc 62 ad 3d c3 88 2c bf 01 31 e0 be
       0.31521377 0.08466098 -0.6739618 -0.43787387
000190 fc c3 55 3f e4 da e4 3e 95 33 84 be 2c 6f 03 3d
       0.83502173 0.4469825 -0.25820604 0.032088444
0001a0 fb 38 3b bf 4b 5a 79 bd 2b 5b 18 bf f7 2d 10 bf
       -0.7313382 -0.060877126 -0.5951411 -0.56320137
0001b0 8e 43 d6 be 40 6f 54 3f b7 a0 a4 3d 65 4a 19 3e
       -0.41848415 0.82982254 0.080384664 0.14969786
0001c0 ed fb 23 bf 94 d5 9f 3f 65 ff ff 3e 95 2c 35 be
       -0.64056283 1.2487054 0.49999538 -0.17692788
0001d0 24 36 34 be 60 b0 02 3d 25 a5 c5 3e 00 5a 14 3e
       -0.17598778 0.031906486 0.38602558 0.14487457
0001e0 c4 c5 e3 3e b9 bf 0f 3e 4f 44 6d be f6 c2 34 3e
       0.4448682 0.1403798 -0.23170589 0.17652497
0001f0 0f 1c 65 bf 24 6f bd be cd df 4d be af 7e d7 bd
       -0.8949594 -0.36998856 -0.20104904 -0.1052221
000200 66 ef e2 be 93 11 e8 be 1d ed d4 3d 2d 58 13 3e
       -0.44323272 -0.45325908 0.10396788 0.14389105
000210 16 db eb be 00 a3 14 bd ac 39 e9 3e 88 de e7 bd
       -0.46065587 -0.03628826 0.45551813 -0.11321741
000220 d1 33 1a bd 93 21 94 bd 19 85 92 3e 61 92 6d 3e
       -0.037647072 -0.07232966 0.2861717 0.2320037
000230 69 e3 5f 3f 55 70 c0 3e f7 54 2c 3f a7 f2 b8 bd
       0.87456375 0.37585703 0.67317146 -0.09030657
000240 c2 7b b6 bf 96 d3 c0 be 16 3e da 3e c3 4e b5 bd
       -1.4256518 -0.37661427 0.42625493 -0.08852913
000250 f8 3b 58 bf c5 81 08 bf b6 bf d5 bf 21 24 da be
       -0.84466505 -0.5332301 -1.669913 -0.4260569
000260 6f a9 19 bd 00 01 70 3e 4e c7 0a 3f f9 7d 86 bf
       -0.0375151 0.23437881 0.54210365 -1.0507194
000270 df 60 00 3f 1c 9a f2 bd 49 79 13 be 24 93 fa 3a
       0.50147814 -0.118458 -0.14401735 0.0019117338
000280 77 db 01 be c2 06 dc 3c 50 a3 d7 bf f4 63 ce be
       -0.12681375 0.026858691 -1.6846714 -0.40310633
000290 40 9b e2 bd 80 d2 15 3c a9 31 7e be 3b 0e 48 3e
       -0.11064768 0.009144425 -0.24823631 0.19536678
0002a0 8f ed 22 bf c0 76 43 bd d0 b2 18 3f 3f e4 6f be
       -0.63643736 -0.04772067 0.59647846 -0.23426913
0002b0 7d c8 51 3f ff b1 65 3e e8 db a1 be 6b 18 2c 3e
       0.81946546 0.22431181 -0.31613088 0.1680619
0002c0 ca 30 24 bb b8 6c 83 3c 50 c4 1c 3f 7c 30 10 be
       -0.0025053495 0.016043052 0.6123705 -0.14080995
0002d0 eb c3 5c 3e 2a 5f 69 3c c4 d0 ef 3e 04 ca f1 3d
       0.21559112 0.01424388 0.46838963 0.118061095
0002e0 a6 40 af 3e 1b b2 47 3e 5b f9 08 be 56 2e fa 3c
       0.3422901 0.19501536 -0.13376372 0.030539673
0002f0 b6 49 e3 be fe 4c 61 3f 65 83 27 3f 38 c4 24 3f
       -0.44392174 0.88008106 0.6543487 0.64361906
000300 26 a9 18 bf 8c 6a 7b bd 18 5a b1 bf 76 5e b9 be
       -0.596331 -0.061380908 -1.385562 -0.3620488
000310 4c 84 8b be 90 a2 22 3e 5d be d7 be 00 c2 7c bc
       -0.27249372 0.15882325 -0.42137423 -0.015427113

linear1.bias f4 [100]
000000 56 91 91 3f 30 2f a4 3f 4b e3 f6 be 97 c8 34 3f
       1.1372478 1.28269 -0.48220286 0.70618576
000010 23 cd 5a 3f 36 94 ac 3f 0b c9 7d 3f c7 0b ba 3f
       0.85469264 1.348273 0.9913489 1.4534844
000020 ee 6e aa 3f 99 e7 8d 3f 5f ba 8d 3f f5 37 91 3f
       1.3315103 1.1086303 1.1072501 1.1345202
000030 96 9c 90 3f 58 88 2e 3f 30 30 8a 3f 9b 31 af 3f
       1.1297786 0.68176794 1.0795956 1.3687013
000040 08 8a 9b bf 4a 58 f8 3e 07 6b de 3f a8 bc ec 3e
       -1.2151499 0.4850486 1.7376412 0.46237683
000050 e9 4e 59 3f 49 75 c9 3f 44 59 9b 3f 58 af 8a 3f
       0.8488603 1.5738918 1.2136617 1.0834761
000060 87 df 1c bf ab c7 a9 3f 0a 9c 16 3f 8e ff 23 3f
       -0.61278576 1.3264059 0.58831847 0.6406182
000070 97 27 fd 3e ae 33 80 3f a8 79 87 3f 4e b2 d0 3f
       0.49444267 1.0015771 1.0584002 1.6304414
000080 63 a4 64 3f 15 3e bb 3f 6b 7c b1 3f f7 26 7c bf
       0.89313334 1.4628321 1.3866094 -0.98496956
000090 19 de ab 3f 66 91 0e 3f 4a d4 d5 3e d3 cd 8c 3f
       1.3427154 0.5569061 0.41763526 1.1000313
0000a0 c7 dc ca 3f ed ad b0 3f 65 a1 23 3f c5 1b 6b 3f
       1.5848626 1.3803078 0.63918144 0.9183925
0000b0 39 e0 99 3f 11 11 93 3e 8a 22 a8 3f 23 83 a5 bf
       1.2021552 0.28723958 1.313554 -1.2930645
0000c0 6d 99 52 3f 12 ea 86 3f b8 1e 2d 3f 77 e7 86 3f
       0.8226536 1.0540183 0.67625 1.0539387
0000d0 ae aa ba 3f 75 d1 7d 3f 85 fa da be 1d 9d 85 3f
       1.4583337 0.9914773 -0.42769256 1.0438572
0000e0 ce 05 19 bf 25 3b 96 3f c1 df ad be b5 53 38 3f
       -0.5977448 1.17368 -0.33959773 0.72002727
0000f0 71 82 1f 3f 39 ca bf 3f a1 8b a4 3f ff 3e b5 3f
       0.6230841 1.4983588 1.2855111 1.415985
000100 ef 7b 81 3f 70 0b 7b 3f 94 57 4a be e1 53 80 3f
       1.0115947 0.9806433 -0.19759971 1.0025598
000110 02 af b5 3f 1f 4d a3 3f 7a 7f 3c 3f 43 ce d4 3e
       1.4194033 1.275791 0.73632014 0.41563615
000120 b8 ef a4 bf fc eb 71 3f b6 af c0 3e d5 82 b2 bf
       -1.2885656 0.9450071 0.37634057 -1.3946177
000130 db 93 d7 3f fd b5 80 bd c9 52 49 3f b9 ff 8c 3f
       1.6841997 -0.062847115 0.78641945 1.101554
000140 0a 5c 6d 3f 1d c5 9e bf 65 52 12 bf 86 f5 ce 3f
       0.92718565 -1.2403904 -0.57156974 1.6168678
000150 d0 d0 eb 3d 05 5f b4 3f e8 c2 48 3f a3 26 c2 3f
       0.11514437 1.4091498 0.78422403 1.5168041
000160 07 26 51 3f 70 86 50 3f 9e 89 10 3f 8a ff 86 3f
       0.8169865 0.81455135 0.5645999 1.0546734
000170 8b ae 8c 3f a6 bb 6a 3f 69 2a 42 3e 44 34 17 3f
       1.0990766 0.9169258 0.1896149 0.59064126
000180 b2 79 a9 3f 57 02 9d bf c5 54 b5 3f 3a 79 73 be
       1.3240263 -1.2266339 1.4166495 -0.23776713

linear2.weight f4 [100, 100]
000000 52 fe 24 3f b7 7d 59 3f ef 8d 8e bf 80 28 17 3e
       0.6445056 0.8495745 -1.1137065 0.14761543
000010 a0 c3 1d 3f 4f 82 12 3f 4a 4e 59 3f 62 2c 43 3f
       0.61626625 0.57230085 0.84885085 0.762396
000020 96 6d 13 3f c9 c5 2d 3f 81 93 b0 3e b0 0b 1a 3f
       0.5758909 0.6787992 0.34487537 0.60174084
000030 2d fc 6d 3f 3c 67 9e 3d 22 21 5a 3f 68 e0 4c 3f
       0.92962915 0.07734534 0.85206807 0.80029917
000040 92 31 69 3f 99 2b b5 3e 92 c6 78 3f 83 ba c5 3d
       0.91091263 0.35384825 0.97177994 0.09654715
000050 46 28 d7 3e 7a 7b d7 3e ed 0a 24 3f 59 b8 d1 3e
       0.42022914 0.42086393 0.6407917 0.4096096
000060 5d d1 8d 3d 29 30 f8 3e 82 5b ca 3e 5d 81 4f 3e
       0.069246985 0.48474243 0.3952294 0.20264192
000070 01 31 4a 3e 03 49 64 3f 6e 9f c7 3e 10 dc 81 3f
       0.19745256 0.8917391 0.38988823 1.0145283
000080 b8 81 d0 3e 6b fb 21 3f 3e 3e b2 3e 7c 97 7c 3f
       0.40723968 0.6327426 0.34813112 0.98668647
000090 23 77 0d 3f 8e f1 a2 3d a2 46 49 3e fb c8 00 3f
       0.55259913 0.07956229 0.1965585 0.5030667
0000a0 eb 8e 6c 3f 32 96 82 3e 5b 12 00 3f 3e 20 10 3f
       0.92405576 0.25505215 0.5002801 0.562992
0000b0 e7 79 a3 3e 9f b0 9f bd 63 08 e5 3e ec 67 5f 3f
       0.31928942 -0.0779736 0.4473296 0.8726795
0000c0 46 8a 8f 3e c9 26 82 3f ad a4 4e 3d d9 de 5a 3f
       0.28035182 1.0168086 0.050450016 0.8549629
0000d0 f1 0a 81 3f 92 d8 47 3f 1c bf 7d bf 79 5c 2c 3f
       1.0081464 0.78064835 -0.99119735 0.673286
0000e0 a6 ae 34 bf aa 8b af 3e fe 0b 8f bd 12 16 03 3f
       -0.7057899 0.34286243 -0.06984709 0.5120555
0000f0 c4 f1 9d 3e 30 3a 6f 3f 31 eb 6f 3f f5 81 28 3f
       0.30848515 0.9344816 0.9371825 0.658233
000100 a3 42 05 3f fe ad 71 3f d3 11 a4 3d 74 62 49 3e
       0.52054805 0.94406116 0.08011212 0.19666463
000110 61 f3 e6 3e 53 53 0f 3f 4d 43 6b 3d 07 4e 27 3e
       0.45107558 0.5598652 0.05743723 0.16338359
000120 c6 9b 61 3f f1 c1 70 3e 11 03 4f 3e a5 16 1b 3f
       0.88128316 0.23511483 0.20216013 0.6058143
000130 83 0a 69 3f 5f ae 8e bd 4a d6 8e 3e 57 62 2e 3f
       0.91031665 -0.069668524 0.27897865 0.68118805
000140 93 8e 45 3f d7 b9 17 3f 92 39 34 3d a3 09 8a 3f
       0.77170676 0.59267944 0.044000216 1.0784191
000150 de 80 07 3d a4 73 cb 3e 52 a0 8b 3e 3b cc 94 3f
       0.03308188 0.39736664 0.27270752 1.1624826
000160 8e f5 de 3e ae c2 78 3e f2 5b dc 3e 5b 0a a2 3e
       0.43546718 0.24293014 0.430389 0.31648526
000170 25 82 c7 3e c5 7f 1f 3f ee 58 0e bf cf 50 07 3e
       0.3896648 0.62304336 -0.55604446 0.1321442
000180 70 f4 7c 3f dd 70 5e 3f 36 a0 8e 3f 81 4a 9e 3d
       0.9881048 0.86890966 1.1142642 0.07729054
000190 49 89 7b 3d ce 9a 8d 3a 82 d5 2e bd 7d 10 b7 3d
       0.061410222 0.0010803582 -0.042684086 0.08938692
0001a0 52 7f 1d 3d d1 7b a8 bd e5 ff b6 3d 1b 20 89 3d
       0.0384515 -0.08226741 0.08935527 0.06695577
0001b0 6f c0 1f bd ad 3c 4c 3d 3e 22 73 bd 05 0f 95 bc
       -0.03900188 0.049862552 -0.059358828 -0.018195638
0001c0 1a ae a8 3d e6 8f 11 bb 2d d9 9d bd e0 41 13 bd
       0.08236332 -0.0022211014 -0.077074386 -0.035951495
0001d0 2c 5e de bc 70 17 d2 bc 90 71 e6 3b 3f 3a b8 3d
       -0.027144514 -0.025645941 0.0070325807 0.089954846
0001e0 cf e8 82 ba 74 76 8b bd a2 e4 a0 ba d7 f2 39 3d
       -0.0009987595 -0.068097025 -0.0012275169 0.045397606
0001f0 96 2d 4b 3d 9a 65 c0 bd a3 57 a7 bc ee 34 a5 bd
       0.04960402 -0.09394379 -0.02042753 -0.08066736
000200 dc ca 48 bd cc 1b f3 3c 0f aa 96 bd cd d1 0d 3d
       -0.049021587 0.02967634 -0.07356655 0.03462391
000210 cd 1b 9b 3d 3d d3 1b bb 9b b8 8d bd e6 c0 12 bd
       0.07573662 -0.002377703 -0.06919976 -0.035828494
000220 ec 00 9e 3c e5 51 a1 bd ab 78 31 3d 45 f1 c6 bd
       0.019287549 -0.07876948 0.04332797 -0.09713987
000230 67 06 ca bd d0 01 d4 bd 01 3a da bc 55 68 79 3d
       -0.098645024 -0.10351908 -0.026638987 0.060890514
000240 8a d9 ce bd 4b 11 a5 3d 0b 6e 48 bd 5a e6 bb 3c
       -0.10100086 0.08059939 -0.04893307 0.022936989
000250 22 18 8f bb dc ae c5 bd fe a1 a4 3d b0 86 42 3d
       -0.0043668905 -0.096524924 0.0803871 0.04749173
000260 3e 8f be 3d ad e9 34 3d 90 dd 8b bd 96 c7 a5 3d
       0.09304665 0.044168163 -0.06829369 0.080947086
000270 25 0a 3d 3b 96 37 28 3d f0 36 a4 bd fa 20 00 bd
       0.0028845158 0.041068636 -0.08018291 -0.03128145
000280 44 4d ce bd 41 f0 29 bd bc 5d 79 3c dc cf ad bd
       -0.10073331 -0.04148889 0.015220102 -0.08486912
000290 6d 16 d1 3c e3 c0 51 3d 90 3e 64 3c c8 86 9b bd
       0.025523389 0.05120934 0.013930932 -0.07594067
0002a0 be 54 b1 bd 6e cc 08 bd f7 5c 29 3d ab 79 b7 3d
       -0.086587414 -0.033398084 0.041348424 0.08958753
0002b0 27 87 51 3d 29 de a5 bc 51 2e eb 3c 4d ee d5 bd
       0.051154282 -0.020247536 0.028708609 -0.10445843
0002c0 81 25 b4 bd af 19 25 3d 3e 03 81 bd 26 09 2b 3d
       -0.08796216 0.040307697 -0.062994465 0.04175677
0002d0 c3 95 9d bd 85 e5 64 bd 06 b1 a8 bd a9 4e 4b 3d
       -0.076945804 -0.05588295 -0.082368895 0.049635563
0002e0 e8 f1 26 bc a3 ab 89 3d 6f 02 73 3d 3f 5b 58 3d
       -0.010189511 0.0672219 0.059328493 0.052821394
0002f0 58 97 4d bb 3e a9 18 bd 31 29 e6 bc 39 c2 8e 3b
       -0.0031370725 -0.037270777 -0.028095813 0.0043566492
000300 9a 88 40 3d a9 7d 9c bd 54 c7 a6 3d 5a c7 5b bc
       0.047005273 -0.07641155 0.081434876 -0.013414228
000310 a4 0d be bd 89 90 77 bd 1e 07 b0 3d 91 4b bb 3d
       -0.092799455 -0.060440574 0.085951075 0.091452725
000320 78 58 d8 3e 3d d4 a1 3e f2 3c 29 3f 19 66 12 3f
       0.42254996 0.31607237 0.6610862 0.5718704
000330 68 99 0f 3f e5 be bf bc 7d 4b ab be 65 42 58 3e
       0.56093454 -0.023406455 -0.3345603 0.21119078
000340 57 74 e1 3e a0 92 62 3e 17 7a e1 3e 1e 3d 17 3f
       0.44034073 0.22126245 0.4403846 0.5907763
000350 48 b1 05 3f ae 26 fd be 73 95 c9 3d be f1 17 3f
       0.52223635 -0.49443573 0.09842958 0.59353244
000360 73 1e 48 bd 9e 95 88 be 66 c8 28 3f 0e f5 cb 3e
       -0.048857164 -0.2667665 0.65930784 0.398354
000370 b4 dd 34 be 08 80 45 be 03 30 a4 3e 85 2a b8 3e
       -0.17662698 -0.19287121 0.3206788 0.3596994
000380 4a db 70 bd 87 45 d7 3e 7f ec f4 3e 51 4b d0 be
       -0.05880288 0.42045233 0.47836682 -0.40682462
000390 a9 4e 62 be e2 f1 b7 be 7b 58 0c 3f cc 63 3b 3f
       -0.22100319 -0.3592673 0.5482251 0.7319915
0003a0 2e e9 a7 be 0e fe 23 3e 54 33 cc 3e 00 da fc b9
       -0.3279509 0.16014883 0.3988291 -0.00048227608
0003b0 61 7a eb 3e f6 9a a7 3e c8 89 94 be 97 26 24 be
       0.45991805 0.32735413 -0.2901137 -0.16030346
0003c0 c5 69 16 3f 50 01 86 be e1 11 88 be c9 fc 30 be
       0.5875514 -0.26172876 -0.2657614 -0.1728393
0003d0 b8 c4 44 be 1d c8 e8 3e 11 24 11 3e 00 28 98 3b
       -0.19215667 0.45465174 0.14173914 0.0046434402
0003e0 34 00 07 3d 5d fe 6d be e4 18 93 3e 6e 61 39 bd
       0.032959178 -0.23241563 0.28729928 -0.04525893
0003f0 6f 29 03 3f 1a 66 c9 be e1 35 20 3f 89 91 0b 3f
       0.512351 -0.3933571 0.6258221 0.54518944

linear2.bias f4 [100]
000000 8e ae 2e 3f e0 19 e8 3b 45 c6 89 3e f1 c3 32 3f
       0.682351 0.0070831627 0.2690908 0.6983023
000010 cd 18 0f 3f c3 2e 33 3f 45 9a 2b 3f 17 e7 26 3f
       0.5589722 0.6999323 0.6703227 0.65196365
000020 c1 0a a3 3d 76 a5 28 3f 15 e4 05 3f af 8a 2a 3f
       0.079610355 0.65877473 0.5230115 0.66617864
000030 20 63 3a 3f 52 08 16 3f df 52 33 3f 84 f5 34 3f
       0.728075 0.58606446 0.70048326 0.7068713
000040 b7 4d 1b 3f d0 05 1f 3f fb ed 1b 3f 2a 96 9d 3d
       0.6066546 0.62118244 0.60910004 0.07694657
000050 a2 c4 2a 3f 24 2f 33 3f eb 2a 6e 3e 3d b9 2b 3f
       0.6670629 0.69993806 0.2325856 0.67079526
000060 5a 89 0b 3f e4 1b 8c 3c 4b d7 14 3f c2 8b 27 3f
       0.54506457 0.017103143 0.5814101 0.6544763
000070 26 0e 37 3f 38 0b 1b 3f 47 cf c4 3b 6b f5 96 bd
       0.71505964 0.60563993 0.0060061547 -0.073710285
000080 d0 ef 3c bc 3f e6 22 3f 49 bb 30 3f 46 14 2b 3f
       -0.011531785 0.6363258 0.69035774 0.6682781
000090 04 b7 28 3f 70 d1 2d 3f 95 ce 32 3f d4 8c 21 3f
       0.6590426 0.678977 0.6984647 0.6310551
0000a0 a8 07 3a 3f 16 d1 1e 3f a9 3c 2b 3f 3c 61 1f 3f
       0.7266793 0.6203779 0.66889435 0.6225774
0000b0 94 48 5a 3f 20 cc 05 3f c2 cb 46 3d 45 30 12 3f
       0.85266995 0.52264595 0.048534162 0.57104903
0000c0 5b db 17 3f 6e 18 1e 3f c3 4d 18 3f ce 7b 14 3f
       0.59319085 0.61756027 0.59493655 0.5800141
0000d0 d9 98 0b 3f 5e db 08 3f df a1 19 3f ed 4b 34 3f
       0.545301 0.5345973 0.6001262 0.70428354
0000e0 d7 7c 18 3f 1a 96 16 3f b8 e0 e9 bc 4d f7 b1 bd
       0.5956549 0.58822787 -0.028549537 -0.08689747
0000f0 59 77 1d 3f cc 3f 8e 3d 93 f9 c7 bd f4 61 2d 3f
       0.61510235 0.06945762 -0.097643994 0.6772759
000100 6d 0c 34 3f 28 ed 31 3f 37 20 10 3f a9 5e 22 3f
       0.7033146 0.69502497 0.56299156 0.6342569
000110 60 39 2d 3f 3a b1 08 3f b2 75 90 3d 51 0e 1d 3f
       0.6766567 0.53395426 0.070536986 0.6134997
000120 7d 59 9a 3e 4c 24 d2 bc 45 ec 63 bb 73 86 16 3f
       0.301464 -0.025652073 -0.0034778279 0.58798903
000130 04 98 16 3f 97 a1 24 3f 15 6c 27 3f ce af 39 3d
       0.5882571 0.64309067 0.65399295 0.045333676
000140 a9 cd 04 3f 60 3a d2 bb 6c 70 24 3f e6 ff 34 3f
       0.5187631 -0.0064156502 0.6423404 0.7070297
000150 2e 4b 2c 3f 5f e9 30 3f 76 87 28 3f 42 a3 1c 3f
       0.67302215 0.69106096 0.65831697 0.6118661
000160 aa 5f 62 bd c3 0e 13 3f ec 0f 27 3f c0 78 ab bc
       -0.055267014 0.574444 0.6525867 -0.020931602
000170 37 91 37 3f d7 80 0e 3f 10 fa 66 3d 93 8a 2f 3f
       0.71705955 0.55665344 0.056390822 0.6857082
000180 e3 ac 31 3f 77 94 a0 3d d9 7c 11 3f 90 22 2f 3f
       0.6940443 0.078408174 0.5683113 0.68412113

linear3.weight f4 [1, 100]
000000 5f 3c 0c bf 99 39 94 3b 77 80 6b 3f ac c7 11 bf
       -0.5477962 0.0045234677 0.91992897 -0.569453
000010 3b 06 14 bf 28 02 0e bf 35 2b 18 bf 52 f5 11 bf
       -0.57822007 -0.5547204 -0.5944093 -0.57014954
000020 47 72 5a ba dc 5b 12 bf 19 22 10 bf b2 2b 0e bf
       -0.00083330687 -0.57171416 -0.5630203 -0.55535424
000030 e5 64 1b bf 42 ef 13 bf 0b e9 0e bf a6 86 0e bf
       -0.6070083 -0.57786953 -0.55824345 -0.5567421
000040 29 5b 14 bf e6 cb 14 bf d6 ba 0f bf 1e fc 87 3b
       -0.579516 -0.58123624 -0.56144464 0.0041499278
000050 7c 2f 14 bf 59 31 1a bf b3 01 d4 bf 88 0e 23 bf
       -0.57884955 -0.6023155 -1.6563019 -0.6369405
000060 d7 04 13 bf 10 3e 0b bb c0 fb 0e bf 83 49 0c bf
       -0.5742926 -0.002124671 -0.5585289 -0.5479967
000070 48 15 1f bf e4 15 1b bf ad 0b 34 bb f0 69 ec 3a
       -0.6214185 -0.6058028 -0.002747278 0.0018036943
000080 b2 55 01 3b c8 62 12 bf 22 ee 12 bf eb 63 0f bf
       0.0019734916 -0.5718198 -0.5739461 -0.5601184
000090 b1 b6 17 bf e8 60 10 bf ef 09 14 bf b2 b0 10 bf
       -0.5926314 -0.5639787 -0.5782766 -0.56519616
0000a0 49 4e 14 bf 58 a6 1d bf fe 1b 1b bf cd 55 11 bf
       -0.57931954 -0.61581945 -0.6058959 -0.56771547
0000b0 55 b0 2d bf af d1 13 bf d1 09 0a bb 20 a2 1a bf
       -0.67847186 -0.57741827 -0.002106298 -0.60403633
0000c0 92 f6 0d bf b9 94 18 bf fd 87 15 bf 02 b3 15 bf
       -0.5545436 -0.5960193 -0.58410627 -0.5847627
0000d0 14 47 0d bf cc 98 13 bf 07 4a 11 bf b9 aa 12 bf
       -0.5518658 -0.57655025 -0.5675358 -0.5729175
0000e0 e3 90 0c bf b0 12 19 bf b2 39 03 3b 30 6b 08 bb
       -0.5490858 -0.5979414 0.0020023403 -0.0020815842
0000f0 89 ed 0e bf 47 fb 8d bb 28 d0 c7 b9 e0 ca 0a bf
       -0.558312 -0.004332933 -0.00038111326 -0.5421581
000100 fe 22 0f bf d5 0e 11 bf ee 1d 0f bf 8b 00 0f bf
       -0.5591277 -0.56663257 -0.55905044 -0.55860204
000110 d5 6a 12 bf 16 9e 13 bf 42 78 c1 bb 6e 24 14 bf
       -0.5719426 -0.57663095 -0.0059042284 -0.5786809
000120 ef 05 a3 3f 0e 61 1d 3b af a7 87 3b cf 0f 0b bf
       1.2736186 0.0024014148 0.0041398625 -0.54320997
000130 b5 00 09 bf 5f 86 18 bf c0 f3 14 bf f4 74 41 3b
       -0.53516704 -0.59580034 -0.58184433 0.0029519172
000140 23 42 13 bf 0d cc 0e bb 57 01 12 bf eb e5 0e bf
       -0.5752279 -0.0021789104 -0.57033294 -0.55819577
000150 fa 29 12 bf 43 af 0d bf 54 44 19 bf 39 56 10 bf
       -0.570953 -0.55345553 -0.59869885 -0.56381565
000160 44 33 85 3a e7 06 13 bf 61 fd 10 bf d4 97 21 bb
       0.0010162373 -0.5743241 -0.56636626 -0.0024657147
000170 8d 8b 10 bf 72 eb 10 bf f5 fd 29 3a 08 83 11 bf
       -0.5646294 -0.5660926 0.0006484681 -0.5684056
000180 b6 2e 0f bf b2 d6 2a 3b c2 13 12 bf f7 24 11 bf
       -0.5593065 0.002606791 -0.570614 -0.5669703
