saved_models/ddpg/value_net_checkpoint_a4.pth (torch, 44267 bytes, 5 tensors)

linear1.weight f4 [100, 2]
-0.2463537 0.6623047 -0.638247 -0.036878824 -0.81016344 -0.46077418 -0.3944939 0.9687829
-1.0363173 0.5455622 -0.54615426 -0.07814771 -0.09251014 -0.69519144 -0.9018555 -0.60024595
0.054230653 -0.401456 0.03423057 -0.7538759 -0.28868768 -0.73715556 -0.16979814 0.5894976
0.3804248 -0.6205096 -0.9446422 -0.63922435 -0.3341293 0.6008272 0.894525 1.1534582
0.4082822 -0.21079566 0.36370736 0.09613167 -0.2506196 0.16493106 0.27922833 0.13817288
0.20391034 0.10453366 -1.0434859 0.33925086 -0.28731617 0.7438743 -0.19140269 -0.34302044
0.5537247 0.18287648 0.14726554 -0.66358674 -0.6306388 -0.3824355 -0.2883589 -0.22587523
-0.036605123 -0.067109965 -0.909687 0.43461224 -0.6400535 -0.6137801 0.4234167 0.24925467
-0.6262514 0.13232517 -0.6649593 -0.7933696 -0.1566936 -0.8154139 -0.992437 0.42908847
0.36076275 -0.039137825 -0.6858663 -0.40512574 -0.41749218 0.6954384 -0.75686914 0.40873328
0.2700674 -0.74640006 -1.2786949 -0.68792063 -0.255478 0.6207774 0.48425362 -0.12803197
-0.3062493 0.0076234937 0.20806359 0.7147639 -0.16313 -0.25074166 -0.05007981 -0.6474626
-0.3919865 0.59626114 0.37269026 -1.2865144 0.061062176 -0.5208006 0.069121815 -0.7340411
-0.19074792 0.5475116 0.16040832 -0.28864983 -0.5423078 0.5911857 -0.8517941 0.26045272
-0.46634817 0.16209728 -0.09634345 -0.28440806 -0.0407874 0.8813681 -0.2579823 -0.10271497
-0.22191094 0.1605114 -0.5222092 -0.20970169 -0.21804465 -0.6691235 -0.7606829 0.6108065
0.47210693 0.22997604 0.08330466 -0.8814828 0.9714459 0.77110684 -0.5982732 1.0671573
-0.349527 -0.8341372 -0.34051546 0.1781207 -1.2664616 -0.7497709 0.33605495 0.021862065
-0.6399256 -0.12684414 -0.58355856 -0.7646948 -0.49385566 0.9548647 -0.18989156 0.16118504
-0.027961612 -0.83685106 -0.473087 0.13563716 0.24772537 -0.1000298 -0.30506408 0.005510717
-0.5825208 0.9438773 -0.8130483 -0.7811739 0.16753027 0.17709526 -0.4184857 -0.77795905
-0.14824115 0.43892598 -0.4220924 -0.43575555 0.25721946 -0.32532692 0.0234313 0.9168803
-0.023288727 -0.045452535 0.058943268 0.21458486 -0.5893331 0.47053298 -0.33140826 0.36806893
0.3287271 -0.28601193 0.07828679 0.16534995 -0.25116324 0.54919875 -1.1133385 -0.7728253
-1.1400108 -0.7849675 -0.3487013 0.7622135 0.11907045 -0.6268387 0.0032059955 -0.41730624
00000000: 2544 7cbe cd8c 293f 2864 23bf 400e 17bd
00000010: df66 4fbf 98ea ebbe 1bfb c9be 2802 783f
00000020: 0ca6 84bf f7a9 0b3f c4d0 0bbf e80b a0bd
00000030: f575 bdbd 11f8 31bf 01e0 66bf b8a9 19bf
00000040: f620 5e3d a48b cdbe 5b35 0c3d 03fe 40bf
00000050: dfce 93be 3ab6 3cbf 90df 2dbe 51e9 163f
00000060: 0ac7 c23e b8d9 1ebf 12d4 71bf 35a4 23bf
00000070: ff12 abbe d0cf 193f 97ff 643f 85a4 933f
00000080: 5d0a d13e d1da 57be da37 ba3e aee0 c43d
00000090: 3651 80be b0e3 283e 04f7 8e3e 317d 0d3e
000000a0: dfcd 503e be15 d63d f290 85bf 4ab2 ad3e
000000b0: 1b1b 93be 8c6e 3e3f 11ff 43be 60a0 afbe
000000c0: e7c0 0d3f f943 3b3e c7cc 163e d2e0 29bf
000000d0: 8b71 21bf 96ce c3be c7a3 93be d64b 67be
000000e0: 41ef 15bd f370 89bd 3fe1 68bf 7f85 de3e
000000f0: 8cda 23bf b120 1dbf 13ca d83e 9e3c 7f3e
00000100: 0352 20bf 4080 073e c63a 2abf 451a 4bbf
00000110: 4974 20be f7be 50bf 5a10 7ebf 7cb1 db3e
00000120: e5b5 b83e fc4e 20bd ef94 2fbf a46c cfbe
00000130: 89c1 d5be 4008 323f 2dc2 41bf 7d45 d13e
00000140: 4646 8a3e 1314 3fbf 46ac a3bf 911b 30bf
00000150: 03ce 82be 45eb 1e3f 17f0 f73e d01a 03be
00000160: b5cc 9cbe 80ce f93b 9f0e 553e c4fa 363f
00000170: 8d0b 27be 3661 80be 7d20 4dbd 1cc0 25bf
00000180: 74b2 c8be 92a4 183f 42d1 be3e 81ac a4bf
00000190: 551c 7a3d 3053 05bf bd8f 8d3d 1eea 3bbf
000001a0: 6c53 43be b829 0c3f 1442 243e e9c9 93be
000001b0: afd4 0abf f257 173f 2e0f 5abf 0f5a 853e
000001c0: 30c5 eebe d4fc 253e b74f c5bd ef9d 91be
000001d0: b010 27bd 57a1 613f 4216 84be 3a5c d2bd
000001e0: 9f3c 63be 1a5d 243e 81af 05bf 0abc 56be
000001f0: 1947 5fbe ad4b 2bbf 1dbc 42bf d15d 1c3f
00000200: 00b8 f13e d77e 6b3e a29b aa3d dba8 61bf
00000210: aeb0 783f 4267 453f 6f28 19bf 9c98 883f
00000220: 34f5 b2be 048a 55bf 0b58 aebe 4665 363e
00000230: 6a1b a2bf fcf0 3fbf 650f ac3e 1318 b33c
00000240: 2ad2 23bf 6ee3 01be 1864 15bf 0ac3 43bf
00000250: a6da fcbe 0372 743f ef72 42be b10d 253e
00000260: c00f e5bc df3b 56bf 7638 f2be 78e4 0a3e
00000270: b8ab 7d3e 6cdc ccbd 5c31 9cbe 3f93 b43b
00000280: 1520 15bf f1a1 713f ef23 50bf 03fb 47bf
00000290: 0e8d 2b3e 7658 353e c243 d6be 5328 47bf
000002a0: 87cc 17be e8ba e03e 7f1c d8be 5a1b dfbe
000002b0: 45b2 833e 4091 a6be fff2 bf3c abb8 6a3f
000002c0: 00c8 bebc 702c 3abd 7f6e 713d 22bc 5b3e
000002d0: 89de 16bf b3e9 f03e 58ae a9be 8873 bc3e
000002e0: eb4e a83e 2870 92be d354 a03d 7f51 293e
000002f0: 7898 80be 4a98 0c3f e081 8ebf e1d7 45bf
00000300: e0eb 91bf a1f3 48bf fa88 b2be 6d20 433f
00000310: 35db f33d 8078 20bf ae1b 523b 2aa9 d5be

linear1.bias f4 [100]
-0.6404568 0.07590151 -0.47405115 -0.73788226 1.57005 1.5977049 1.4657485 1.4985697
0.5566022 1.1037796 0.96034783 0.6708928 1.0764331 -0.79514897 0.9410444 0.16326535
0.9598039 0.5761666 1.4472846 0.8148574 0.7974835 1.3385388 -0.7055421 0.6874397
0.7923556 0.93148685 0.5419056 1.5994257 0.80632794 1.3259361 1.4975842 1.3868952
-0.46208337 1.5890591 0.845472 1.3867656 0.45101985 1.1010064 -0.14732566 1.1624758
0.3289577 -0.48049915 0.84902227 1.0781188 -0.07415652 0.740406 1.3696269 0.7681414
1.0164951 -0.41443694 1.6001594 0.5082753 0.68726134 0.95099527 1.1604286 1.0726615
1.6379008 1.4504901 0.7305441 1.0411919 1.6128274 1.2480645 1.2574246 1.3899281
1.2769834 0.7800972 -0.1072816 -0.040985003 1.4032363 1.627258 -0.6290954 1.5838423
1.398255 1.2711089 -0.32934248 1.3599141 0.60769236 1.4874941 0.66908 1.2084202
0.1285228 1.5368538 1.1237326 1.0935982 0.53865445 0.8251092 1.0027516 0.69135344
-0.3747357 1.4984728 1.09186 0.735596 1.1171987 1.4684039 0.85082054 -0.9018771
-0.9028477 -0.61584646 1.2111826 0.48600784
00000000: faf4 23bf 4072 9b3d d5b6 f2be dae5 3cbf
00000010: 66f7 c83f 9881 cc3f a69d bb3f 22d1 bf3f
00000020: 7b7d 0e3f a648 8d3f 5bd9 753f a1bf 2b3f
00000030: 8fc8 893f e28e 4bbf 49e8 703f 082f 273e
00000040: b5b5 753f a87f 133f 9f40 b93f 7f9a 503f
00000050: e127 4c3f 3d55 ab3f 689e 34bf 0cfc 2f3f
00000060: d1d7 4a3f ec75 6e3f 53ba 0a3f fbb9 cc3f
00000070: 826b 4e3f 46b8 a93f d7b0 bf3f c885 b13f
00000080: 3196 ecbe 4a66 cb3f da70 583f 8981 b13f
00000090: 13ec e63e c7ed 8c3f 8adc 16be 02cc 943f
000000a0: 256d a83e fc03 f6be 8659 593f ccff 893f
000000b0: 60df 97bd 3f8b 3d3f ef4f af3f eaa4 443f
000000c0: 831c 823f 1431 d4be 06d2 cc3f 541e 023f
000000d0: 5cf0 2f3f 6d74 733f ed88 943f f94c 893f
000000e0: bca6 d13f a9a9 b93f f004 3b3f c745 853f
000000f0: 2171 ce3f 94c0 9f3f 4af3 a03f 2ae9 b13f
00000100: 3174 a33f 73b4 473f 75b6 dbbd e4df 27bd
00000110: 3f9d b33f fd49 d03f 650c 21bf 58bb ca3f
00000120: 05fa b23f b2b3 a23f 949f a8be aa11 ae3f
00000130: ba91 1b3f 3566 be3f d448 2b3f 83ad 9a3f
00000140: 7b9b 033e a0b7 c43f 78d6 8f3f 07fb 8b3f
00000150: 42e5 093f 5b3a 533f 2a5a 803f 8afc 303f
00000160: 5cdd bfbe f5cd bf3f 12c2 8b3f 0550 3c3f
00000170: 5e00 8f3f a9f4 bb3f 60cf 593f 6be1 66bf
00000180: 0721 67bf 1da8 1dbf 0808 9b3f 05d6 f83e

linear2.weight f4 [100, 100]
0.6489051 -0.00061353296 -0.56647575 0.31919137 1.8023913 1.0271572 0.52500486 1.2244865
0.37592337 0.4543326 0.50568634 0.39584315 0.20899594 -0.85406774 0.79157794 -0.2353768
0.3112606 0.12411349 0.72509086 0.28041524 0.33681116 2.3852022 0.5459309 0.4490071
0.20911448 0.3366717 0.48674572 0.77076787 0.54074657 1.7439586 0.8652614 0.34785146
-0.056676056 0.9068709 0.3861684 1.9598666 0.04977015 1.0390322 0.6342622 1.5962323
0.0167222 -0.81128067 0.56075144 0.32320803 -0.0039810315 0.043826636 0.60531545 0.46318838
0.7808347 -0.8148113 0.5510799 0.18795471 0.455876 0.40375295 1.1674845 1.9673862
0.98851967 0.63617563 0.24136032 0.716887 0.6828037 1.0319761 0.65569276 1.3385428
0.35518944 0.22427392 -0.42109698 0.34183127 0.5764959 0.8175136 -0.80706483 0.4199043
1.1161728 0.84276056 0.34585398 0.74434036 0.25299135 0.89348125 0.3138447 0.7571879
0.5236164 1.0637317 0.30278346 0.66887456 0.32396367 0.45716414 0.24431105 0.2162749
-0.04402263 0.5388689 1.2663672 0.6357817 0.23284696 0.55502796 0.5725815 -1.0610608
-1.0814542 0.23484844 0.3690727 0.28275448 0.51975787 0.07563437 -0.42541108 0.45623434
1.9215728 1.0486171 0.5170991 1.1627189 0.34477794 0.38585958 0.66860896 0.32003313
0.26732603 -0.7793784 0.7953784 -0.20541008 0.33314368 0.068279855 0.8373834 0.3065095
0.42932475 2.354433 0.4471806 0.59181315 0.2325586 0.38412473 0.40267748 0.72269404
0.48135847 1.8524405 0.8849957 0.3950673 0.05895152 0.887808 0.35784745 1.9861478
0.1343011 1.168136 0.48668084 1.634431 0.09391955 -0.81473726 0.47039044 0.17894606
0.07651044 0.13445675 0.6657451 0.39621684 0.6982103 -0.7102846 0.39655316 0.2953682
0.5115432 0.28193197 1.0070038 2.0172808 0.8563476 0.6798526 0.17671716 0.75137055
0.70131934 1.0800186 0.6029469 1.286706 0.32106894 0.34382346 -0.48089063 0.40799955
0.7165679 0.84743494 -0.83869153 0.35427135 1.247542 0.9175275 0.52651393 0.74763006
0.37064886 1.0131031 0.24020201 0.8054222 0.4354611 0.96234477 0.3280086 0.6456538
0.35375673 0.4951428 0.39220533 0.13715877 -0.047825992 0.5088975 1.1818662 0.65168715
0.37023166 0.56445956 0.4605101 -0.9993566 -1.1933663 0.33354878 0.380837 0.28348917
0.5481641 -0.002097644 -0.5799759 0.47367725 1.8387047 0.9942091 0.58806646 1.1267606
0.21827976 0.50415105 0.56505054 0.40161765 0.336636 -0.709621 0.75959057 -0.3262201
0.19762485 0.20881961 0.7335282 0.36634737 0.32949066 2.389532 0.5291543 0.5446683
0.111402094 0.3971818 0.44677147 0.78827214 0.5897916 1.8192513 0.93898684 0.46844497
-0.045413937 0.83186084 0.38481808 2.05466 0.01498227 0.9901747 0.60490316 1.6733894
-0.024774643 -0.98586947 0.5090573 0.35066023 -0.092980705 0.17105694 0.5903513 0.33083045
0.8373992 -0.696724 0.4239477 0.29693994 0.51454145 0.35788998 1.0531498 1.908701
00000000: a51e 263f 80d5 20ba 8e04 11bf 0d6d a33e
00000010: c2b4 e63f e379 833f b866 063f f9bb 9c3f
00000020: 0779 c03e 489e e83e a974 013f f4ab ca3e
00000030: 0803 563e 2fa4 5abf daa4 4a3f 9e06 71be
00000040: 8d5d 9f3e 372f fe3d 8e9f 393f 9692 8f3e
00000050: 8372 ac3e 27a7 1840 21c2 0b3f 42e4 e53e
00000060: 1b22 563e 3c60 ac3e bc36 f93e 0b51 453f
00000070: 5e6e 0a3f 093a df3f c581 5d3f 9619 b23e
00000080: 2725 68bd b128 683f ddb7 c53e e9dc fa3f
00000090: c9db 4b3d 02ff 843f 025f 223f 5751 cc3f
000000a0: fffc 883c 17b0 4fbf 688d 0f3f 867b a53e
000000b0: 5073 82bb 8f83 333d f4f5 1a3f 0727 ed3e
000000c0: c8e4 473f 7997 50bf 9313 0d3f 3377 403e
000000d0: 9468 e93e b5b8 ce3e 2270 953f 50d3 fb3f
000000e0: a00f 7d3f 68dc 223f 2927 773e e885 373f
000000f0: 39cc 2e3f cb17 843f 7bdb 273f 5f55 ab3f
00000100: 64db b53e 10a8 653e 069a d7be 8204 af3e
00000110: 3c95 133f 9248 513f cd9b 4ebf b2fd d63e
00000120: c0de 8e3f 28bf 573f c613 b13e 178d 3e3f
00000130: 1588 813e 30bb 643f 41b0 a03e 11d7 413f
00000140: b90b 063f 5c28 883f 6f06 9b3e 5d3b 2b3f
00000150: 91de a53e 6b11 ea3e ad2c 7a3e 2b77 5d3e
00000160: 1351 34bd 50f3 093f 5218 a23f 97c2 223f
00000170: 6f6f 6e3e 5016 0e3f b494 123f d7d0 87bf
00000180: 176d 8abf 1c7c 703e 19f7 bc3e 32c5 903e
00000190: da0e 053f 31e6 9a3d 7bcf d9be 8c97 e93e
000001a0: 19f6 f53f 1639 863f 9b60 043f f9d3 943f
000001b0: bc86 b03e 638f c53e f529 2b3f 62db a33e
000001c0: f5de 883e 5885 47bf eb9d 4b3f 0557 52be
000001d0: cf91 aa3e 4fd6 8b3d c25e 563f d0ee 9c3e
000001e0: 74d0 db3e 08af 1640 dbf4 e43e 1181 173f
000001f0: d723 6e3e ffab c43e be2b ce3e 7a02 393f
00000200: 9e74 f63e c51c ed3f 148f 623f 4346 ca3e
00000210: 2677 713d 6347 633f c837 b73e 173a fe3f
00000220: 3a86 093e 7b85 953f 3b2e f93e 0935 d13f
00000230: e558 c03d 9f92 50bf 04d7 f03e a33d 373e
00000240: 81b1 9c3d 08af 093e 456e 2a3f efdc ca3e
00000250: e9bd 323f 36d5 35bf 0409 cb3e 803a 973e
00000260: 7ff4 023f 6359 903e 80e5 803f 211b 0140
00000270: 9939 5b3f d20a 2e3f 58f5 343e d259 403f
00000280: aa89 333f 0d3e 8a3f ba5a 1a3f c8b2 a43f
00000290: 2663 a43e a109 b03e 4c37 f6be 51e5 d03e
000002a0: fe70 373f 7ff1 583f 7db4 56bf 0e63 b53e
000002b0: 75af 9f3f 15e3 6a3f 9ec9 063f af64 3f3f
000002c0: b0c5 bd3e 5dad 813f 84f7 753e 2630 4e3f
000002d0: c2f4 de3e 3a5c 763f bef0 a73e 9149 253f
000002e0: 9a1f b53e 5b83 fd3e 23cf c83e 5973 0c3e
000002f0: 30e5 43bd 1b47 023f 6447 973f f8d4 263f
00000300: 018f bd3e 6c80 103f fbc7 eb3e d6d5 7fbf
00000310: 3ac0 98bf e8c6 aa3e 11fd c23e 7e25 913e
00000320: 7c54 0c3f a078 09bb 4d79 14bf d385 f23e
00000330: ad5a eb3f 7d84 7e3f 868b 163f b139 903f
00000340: bb84 5f3e 0b10 013f 27a7 103f d4a0 cd3e
00000350: 8e5b ac3e b9a9 35bf 8774 423f 5206 a7be
00000360: 2b5e 4a3e cfd4 553e 81c8 3b3f e291 bb3e
00000370: 00b3 a83e 18ee 1840 a876 073f 626f 0b3f
00000380: c826 e43d 6a5b cb3e 3bbf e43e 34cc 493f
00000390: 95fc 163f 3add e83f 7161 703f 05d8 ef3e
000003a0: f703 3abd d5f4 543f e006 c53e 8d7f 0340
000003b0: 3278 753c 177c 7d3f efda 1a3f a031 d63f
000003c0: 31f4 cabc f161 7cbf 9451 023f bd89 b33e
000003d0: ab6c bebd 8d29 2f3e 4321 173f 9c62 a93e
000003e0: cb5f 563f 815c 32bf ac0f d93e 8308 983e
000003f0: fdb8 033f 5b3d b73e 9dcd 863f 5050 f43f

linear2.bias f4 [100]
0.77012914 0.6457115 0.7436024 0.6944162 0.79713255 0.61162657 0.7094368 0.6871042
0.64962596 0.7668763 0.7484949 0.77640754 0.68877536 0.6369154 0.6889638 0.72631156
0.79397595 0.80956256 -0.24309921 0.662163 0.80665505 0.6501795 0.7802604 0.6128109
0.78789705 0.7414046 0.8085549 0.77692485 0.7626903 -0.09442425 0.70332617 0.6347922
-0.05660004 0.79132855 0.0728639 0.7320241 0.77343434 0.66362745 0.6629694 -0.08522636
0.6646635 0.78309596 0.79767597 0.7699937 0.6510279 0.65124613 -0.04144885 0.65695345
0.78387815 0.67308694 -0.056298114 0.79635406 0.7651607 0.72865283 0.6335273 0.6267417
-0.06927593 -0.03514399 -0.029574802 -0.04992919 0.80921215 0.73978215 0.78404915 0.69992065
-0.07679878 0.71608084 0.7928345 0.6809934 0.8145003 0.7562684 0.6355629 0.73687524
0.67997694 0.7976177 0.6732448 0.76956284 -0.06546338 0.7116003 -0.031200133 0.7570284
0.63380253 0.71305215 0.6613262 0.69370216 0.8547452 -0.07630537 0.77603567 0.7337419
0.7722662 0.8054475 0.8119667 0.795677 0.83941543 0.6914947 0.6482241 0.76646954
0.6128328 -0.09512647 0.7390675 -0.070786
00000000: 2f27 453f 594d 253f ba5c 3e3f 43c5 313f
00000010: e110 4c3f 8f93 1c3f a69d 353f 10e6 2f3f
00000020: e34d 263f 0152 443f 5d9d 3f3f a5c2 463f
00000030: 9553 303f e30c 233f ee5f 303f 8eef 393f
00000040: 0242 4b3f 7e3f 4f3f 00ef 78be 8483 293f
00000050: f280 4e3f 2a72 263f 25bf 473f 2de1 1c3f
00000060: 9fb3 493f b1cc 3d3f 74fd 4e3f 8ce4 463f
00000070: ac3f 433f 8061 c1bd 2f0d 343f be81 223f
00000080: 72d5 67bd 8294 4a3f ab39 953d ee65 3b3f
00000090: cbff 453f 7de3 293f 5db8 293f 288b aebd
000000a0: 6327 2a3f fa78 483f 7e34 4c3f 4f1e 453f
000000b0: c4a9 263f 11b8 263f 45c6 29bd 1a2e 283f
000000c0: 3dac 483f 6d4f 2c3f da98 66bd dcdd 4b3f
000000d0: 92e1 433f fe88 3a3f d82e 223f 2572 203f
000000e0: 8ae0 8dbd 25f3 0fbd db46 f2bc 8d82 4cbd
000000f0: 8728 4f3f 5d62 3d3f 72b7 483f 002e 333f
00000100: ae48 9dbd 1351 373f 34f7 4a3f 9555 2e3f
00000110: 1783 503f ce9a 413f 40b4 223f dba3 3c3f
00000120: f812 2e3f ac30 4c3f c559 2c3f 1202 453f
00000130: aa11 86bd 702b 363f 6c97 ffbc 9dcc 413f
00000140: e240 223f 968a 363f ad4c 293f 7796 313f
00000150: 95d0 5a3f fd45 9cbd 46aa 463f 82d6 3b3f
00000160: 3db3 453f cf31 4e3f 0ddd 4f3f 7db1 4b3f
00000170: eee3 563f cc05 313f 04f2 253f 5937 443f
00000180: 9ce2 1c3f abd1 c2bd 8733 3d3f 40f8 90bd

linear3.weight f4 [1, 100]
-0.7779247 -0.78456473 -0.77084666 -0.78219324 -0.8387032 -0.76209474 -0.7754012 -0.77494866
-0.7943413 -0.7622382 -0.7502589 -0.7878401 -0.7804533 -0.7655823 -0.7632095 -0.80708915
-0.7995651 -0.78054464 0.54684716 -0.7601055 -0.78335273 -0.82418644 -0.822383 -0.76771563
-0.86024797 -0.77737176 -0.7625807 -0.78811264 -0.77560294 0.00028741127 -0.76683253 -0.7392404
-0.0007009243 -0.7992551 -0.0012221074 -0.7798946 -0.7864149 -0.7949908 -0.76763064 -0.0009046155
-0.770408 -0.7583885 -0.763409 -0.84907794 -0.75522345 -0.76943696 0.0009280928 -0.8110803
-0.82820517 -0.7968404 -0.0012404283 -0.80212826 -0.8370197 -0.7390973 -0.7906187 -0.7890071
0.001809929 0.00569751 -0.0011543481 -0.0027382283 -0.75624967 -0.7879156 -0.77758133 -0.7652204
0.0002072081 -0.77003616 -0.776922 -0.76734895 -0.7547778 -0.79997367 -0.7588157 -0.7561102
-0.7476791 -0.7748508 -0.7746457 -0.76865906 -0.0019257836 -0.8015558 -7.524481e-05 -0.75211775
-0.75247836 -0.7784103 -0.8205311 -0.76544726 -0.822362 0.0007578123 -0.7795554 -0.7824321
-0.7587684 -0.77662337 -0.768048 -0.75014114 -0.8344011 -0.85684043 -0.80252534 -0.76622254
-0.77842313 -0.001981696 -0.7477831 -0.0031194256
00000000: 1326 47bf 3cd9 48bf 3556 45bf d13d 48bf
00000010: 41b5 56bf a418 43bf b180 46bf 0963 46bf
00000020: f459 4bbf 0b22 43bf f810 40bf e4af 49bf
00000030: cacb 47bf 34fd 43bf b361 43bf 659d 4ebf
00000040: 4cb0 4cbf c6d1 47bf 2dfe 0b3f 4696 42bf
00000050: ce89 48bf e2fd 52bf b187 52bf 0389 44bf
00000060: 3639 5cbf d601 47bf 7d38 43bf c0c1 49bf
00000070: ea8d 46bf b0af 9639 234f 44bf dc3e 3dbf
00000080: 3cbe 37ba fb9b 4cbf 1f2f a0ba 2ca7 47bf
00000090: 7d52 49bf 8484 4bbf 7183 44bf b823 6dba
000000a0: 7539 45bf c025 42bf c66e 43bf 2c5d 59bf
000000b0: 5356 41bf d2f9 44bf 414b 733a f5a2 4fbf
000000c0: 4105 54bf bcfd 4bbf de95 a2ba 4758 4dbf
000000d0: ec46 56bf 7b35 3dbf fd65 4abf 5ffc 49bf
000000e0: 243b ed3a 2eb2 ba3b 7f4d 97ba d973 33bb
000000f0: 9499 41bf d6b4 49bf 920f 47bf 7ce5 43bf
00000100: 0046 5939 1721 45bf 5ce4 46bf fb70 44bf
00000110: 1e39 41bf 13cb 4cbf bf41 42bf 7090 41bf
00000120: e667 3fbf 9f5c 46bf 2e4f 46bf d7c6 44bf
00000130: 936a fcba c332 4dbf c0cc 9db8 ca8a 40bf
00000140: 6ca2 40bf e645 47bf 530e 52bf 5af4 43bf
00000150: 5186 52bf eca7 463a f190 47bf 784d 48bf
00000160: a53e 42bf cad0 46bf cb9e 44bf 4009 40bf
00000170: 4f9b 55bf e559 5bbf 4d72 4dbf 2927 44bf
00000180: bd46 47bf 58df 01bb b76e 3fbf 476f 4cbb
