saved_models/ddpg/value_net_checkpoint_a1.pth (torch, 44267 bytes, 5 tensors)

linear1.weight f4 [100, 2]
0	0xbeaeaf77	-0.34118244
1	0xbdb0cc38	-0.08632702
2	0xbed8f839	-0.4237688
3	0x3ed70300	0.41994476
4	0xbf4f5840	-0.80994034
5	0xbe08ff88	-0.13378727
6	0xbe1788e0	-0.14798307
7	0x3ce82fe0	0.028343141
8	0xbe3b01b4	-0.18262368
9	0x3f1da10c	0.61573863
10	0xbf1a6308	-0.6030736
11	0x3c379740	0.011205494
12	0xbf343575	-0.7039407
13	0xbceccf20	-0.028907359
14	0xbe823849	-0.25433567
15	0xbf366406	-0.71246374
16	0x3df9c805	0.12196354
17	0xbef21824	-0.47284043
18	0xbf67d768	-0.9056306
19	0xbec643bb	-0.3872355
20	0xbf540d1c	-0.82832503
21	0xbe05f0b3	-0.130801
22	0xbf0a82dc	-0.54105926
23	0x3cdd4aa0	0.027013123
24	0x3e68ca56	0.22733435
25	0x3f191ee5	0.59812766
26	0xbe992e09	-0.29917935
27	0x3eabd54f	0.3356118
28	0x3db3d74b	0.08781298
29	0x3f4186a5	0.75596076
30	0x3ebb91d7	0.36634704
31	0xbf16deb0	-0.58933544
32	0xbf08066f	-0.53134817
33	0x3ef6e1b7	0.48219082
34	0xbe609ab8	-0.2193402
35	0x3ee17db6	0.44041222
36	0x3f178f68	0.59203196
37	0x3f3ee5d3	0.74569434
38	0xbeed9041	-0.4639912
39	0x3ecefd35	0.40427557
40	0xbe3b8570	-0.18312621
41	0x3e122ec4	0.14275652
42	0x3d0e36e0	0.0347203
43	0x3e0404cc	0.12892455
44	0xbf2efa1c	-0.68350387
45	0xbda760f5	-0.0817279
46	0x3e6b302e	0.22967598
47	0xbb7baa75	-0.003840116
48	0x3f89b970	1.0759716
49	0x3f4dce18	0.803926
50	0xbf6675f4	-0.9002373
51	0xbdc248c0	-0.09486532
52	0x3e970133	0.29493102
53	0xbd5968a2	-0.0530783
54	0x3d95692a	0.07295449
55	0x3e46fdfe	0.19432828
56	0xbe27e8f8	-0.16397464
57	0xbf08c9f3	-0.5343315
58	0x3ebe9acd	0.3722748
59	0x3d4f0a1b	0.050546747
60	0xbf533475	-0.8250192
61	0xbda16fb5	-0.078826346
62	0xbf3f3480	-0.74689484
63	0xbdc9d120	-0.098543406
64	0x3e818786	0.2529871
65	0xbef056f6	-0.46941346
66	0x3f45835c	0.77153563
67	0xbe703a0c	-0.23459643
68	0x3d867703	0.065656684
69	0x3ef25484	0.47330105
70	0x3e964eb5	0.29356924
71	0x3f63e517	0.8902144
72	0x3e954e02	0.29161078
73	0xbf11d9d3	-0.56973
74	0x3eacd956	0.33759564
75	0x3d37ea46	0.044901155
76	0x3ead597a	0.33857328
77	0x3f34c9f9	0.70620686
78	0xbe2580b2	-0.16162375
79	0x3f1f5768	0.62242746
80	0x3f162c01	0.58660895
81	0x3f4419de	0.7660197
82	0x3dcdd5d1	0.10050548
83	0x3f439008	0.7639165
84	0x3e4519be	0.19248101
85	0xbf0558eb	-0.52088803
86	0xbf14bff3	-0.5810539
87	0xbe8e4aaf	-0.27791354
88	0x3e9e8c9a	0.30966645
89	0xbdc975a3	-0.098368905
90	0xbf1bf9d2	-0.6092807
91	0xbee22a35	-0.44172826
92	0xbef94480	-0.48685074
93	0xbf190277	-0.59769386
94	0x3e19d56a	0.15022817
95	0x3e4e9c39	0.20176782
96	0x3dcecb9a	0.10097428
97	0x3decae75	0.115567125
98	0xbe9032a4	-0.28163636
99	0x3e1350c7	0.14386283
100	0xbef1eede	-0.47252554
101	0x3d9cdd22	0.07659365
102	0x3e877254	0.26454413
103	0x3bb3ee80	0.005491078
104	0xbdf40cfd	-0.1191654
105	0xbf42a29d	-0.7602938
106	0xbf479ef7	-0.77976936
107	0xbe8cfdce	-0.27537388
108	0x3da35aa2	0.07976271
109	0x3e2084a2	0.15675595
110	0xbf36e128	-0.7143731
111	0x3ef9cdd1	0.48789838
112	0xbe594a35	-0.21219714
113	0x3ed55084	0.4166299
114	0xbf1cdcbd	-0.6127432
115	0x3f5416d6	0.82847345
116	0xbef87394	-0.4852568
117	0x3ca84019	0.020538377
118	0xbf1fc78d	-0.62413865
119	0xbdf946f8	-0.12171739
120	0x3e6a440a	0.22877517
121	0xbeeb31af	-0.45936343
122	0xbf2de6e3	-0.6793043
123	0xbea1c8c6	-0.3159849
124	0xbec1aa94	-0.37825453
125	0x3eebb0a4	0.46033204
126	0x3e1845ab	0.14870326
127	0xbf00fb19	-0.50383145
128	0xbdf6dcaf	-0.12053811
129	0x3ec683de	0.38772482
130	0x3f388f35	0.72093517
131	0x3f84f825	1.0388228
132	0x3d52a3dc	0.0514258
133	0x3d47d1ec	0.04878418
134	0x3e4a1e56	0.19738135
135	0x3f27f322	0.65605366
136	0xbf220b01	-0.6329804
137	0x3e0c5c80	0.13707161
138	0x3f273135	0.6530946
139	0xbe89ae29	-0.26890686
140	0xbf097cc3	-0.53705996
141	0xbd3c40e1	-0.04596031
142	0xbf0542e2	-0.5205518
143	0x3d35b7f2	0.044364877
144	0xbe938e4b	-0.28819498
145	0xbe94e777	-0.29082844
146	0xbbbf1819	-0.00583173
147	0xbeec8a9e	-0.46199507
148	0x3f4ae322	0.7925283
149	0x3f0dccf4	0.5539086
150	0xbf8276f3	-1.019255
151	0xbda3fab8	-0.08006805
152	0x3f1344c8	0.57526827
153	0x3f4c2307	0.7974095
154	0xbeff5a67	-0.4987366
155	0xbebf3ed2	-0.37352616
156	0xbf2dc6d2	-0.678815
157	0x3f45a5ca	0.772061
158	0x3e4611fc	0.19342798
159	0x3f2841fa	0.6572567
160	0xbeadfec9	-0.33983448
161	0xbe2c3252	-0.1681607
162	0x3e8b822c	0.2724775
163	0xbe070c84	-0.13188368
164	0x3ec09300	0.37612152
165	0x3e773762	0.2414222
166	0xbed585cd	-0.41703644
167	0x3df79d4b	0.12090548
168	0xbf109121	-0.5647145
169	0xbf18ed8e	-0.5973748
170	0x3e4b81ec	0.1987378
171	0x3f417a23	0.7557699
172	0x3e33443b	0.17506497
173	0xbf0a63d6	-0.5405859
174	0x3eae486e	0.34039634
175	0xbde232c9	-0.11044843
176	0x3f89f3c1	1.0777513
177	0xbd6d9f37	-0.058013167
178	0xbe206dd3	-0.15666895
179	0x3cd70623	0.026248043
180	0x3e6f8de4	0.2339397
181	0xbf8e5157	-1.1118573
182	0xbf62ff92	-0.8867122
183	0xbdce48ce	-0.1007248
184	0x3ddf4ca7	0.10903292
185	0x3f0f8ba3	0.56072444
186	0x3c5753a7	0.013142503
187	0x3f3cf023	0.7380392
188	0xbdb9e906	-0.09077649
189	0x3e585a1a	0.21128121
190	0x3da6fd2c	0.081537575
191	0x3f05bf48	0.52245
192	0x3c9fe7f4	0.019519784
193	0xbedfb9c7	-0.43696424
194	0xbd8a8839	-0.06764264
195	0xbeca1bda	-0.39474374
196	0xbc9cb335	-0.019128421
197	0x3eeb7488	0.45987344
198	0xbe62a25a	-0.22132245
199	0xbf0de590	-0.5542841

linear1.bias f4 [100]
0	0xbf1c56b9	-0.6106983
1	0x3fab9842	1.340584
2	0x3fbce20b	1.4756483
3	0xbf158ab0	-0.58414745
4	0x3f9a2e39	1.2045356
5	0x3e90f00e	0.28308147
6	0xbf304cd9	-0.6886726
7	0x3f691322	0.9104482
8	0x3f975d89	1.182542
9	0xbf91f85a	-1.1403916
10	0x3fcc91f6	1.5982044
11	0x3e89564c	0.26823652
12	0x3eb2d4bb	0.34927925
13	0x3f8432c2	1.032799
14	0x3f889ba8	1.0672503
15	0x3f7061a5	0.93898994
16	0x3fc8a683	1.5675815
17	0x3f8fc89d	1.1233097
18	0xbdff411b	-0.1246359
19	0x3fabbd98	1.3417234
20	0xbf2585f4	-0.6465752
21	0x3f72269b	0.9459016
22	0x3f90f5a1	1.132496
23	0x3fa19994	1.2624993
24	0xbed4df65	-0.41576687
25	0x3fba9646	1.457711
26	0x3f9e0ffa	1.2348626
27	0x3fc58055	1.5429789
28	0x3f4e07cc	0.8048065
29	0x3f8bfddb	1.0936846
30	0x3fad029f	1.3516425
31	0x3fb134e6	1.3844268
32	0x3ed8260f	0.42216536
33	0x3e738e5e	0.23784778
34	0x3f086894	0.53284574
35	0x3f6c85b9	0.92391545
36	0x3f88cb66	1.0687072
37	0x3fb1423e	1.384834
38	0x3ecb2f69	0.3968461
39	0x3fb41c05	1.4071051
40	0x3e64d3d9	0.22346438
41	0x3f8506f5	1.0392748
42	0x3f9eda37	1.2410344
43	0x3fde53c2	1.7369311
44	0x3f731ed6	0.94968927
45	0x3fa02dd2	1.2513983
46	0x3f9276cc	1.1442504
47	0x3fc02aac	1.5013022
48	0x3f93bea3	1.1542553
49	0x3fbdb00b	1.4819349
50	0x3fd58bbf	1.6683272
51	0xbea9e2ca	-0.3318084
52	0x3f77ef13	0.96849173
53	0x3fcaf805	1.585694
54	0x3f93c91d	1.154575
55	0x3fe3c4bb	1.7794412
56	0x3f8a6f77	1.0815266
57	0xbc10aa83	-0.008829716
58	0x3fb41200	1.4067993
59	0x3fa7af17	1.3100308
60	0x3ea8e927	0.3299038
61	0xbf817ed2	-1.0116827
62	0x3fadea82	1.3587191
63	0x3fa289fa	1.2698357
64	0x3f501871	0.81287295
65	0xbe2c98fd	-0.16855235
66	0x3f80e83e	1.0070875
67	0x3f0bcfcf	0.54613966
68	0xbf0f90e8	-0.56080484
69	0x3ecc1f7f	0.3986778
70	0x3fd53e0c	1.665956
71	0x3fdb24eb	1.7120641
72	0x3fb662c0	1.4248886
73	0x3fd19ff2	1.6376936
74	0xbe77606d	-0.24157877
75	0x3fd66366	1.6749084
76	0x3e86483e	0.2622699
77	0x3e8bf2d9	0.27333716
78	0x3e154ed5	0.14580853
79	0x3f02f205	0.5115054
80	0x3f84db53	1.0379432
81	0x3f17c662	0.59287083
82	0x3fbd5a09	1.4793102
83	0x3fa375bb	1.2770303
84	0x3badf4a8	0.0053087063
85	0x3f4aff34	0.7929566
86	0x3fc14ced	1.5101601
87	0x3fb6ad30	1.4271603
88	0x3dbf14f5	0.09330169
89	0x3fdc2605	1.7199103
90	0xbee9092a	-0.45514804
91	0x3fc61ac3	1.5476917
92	0x3f12e74f	0.573842
93	0x3f972ab4	1.1809907
94	0x3fd1f6bc	1.6403422
95	0x3f2522cb	0.64506215
96	0x3fb7ff89	1.4374858
97	0x3f45b205	0.7722476
98	0x3f474aa9	0.778483
99	0x3f3a1ea7	0.7270302

linear2.weight f4 [100, 100]
0	0xbda08b7b	-0.07839104
1	0x3f7bd4a0	0.98371315
2	0x3fa77ec2	1.3085558
3	0xbd06d45a	-0.032917358
4	0x3f072a64	0.5279906
5	0xbd42c933	-0.04755516
6	0xbd9200b2	-0.07129039
7	0x3ee9807b	0.45605835
8	0x3ef20735	0.47271124
9	0xbf0b6ddb	-0.544645
10	0x3fabe24e	1.3428438
11	0xbd231c23	-0.039821755
12	0xbcd2dcef	-0.025740115
13	0x3f618337	0.8809084
14	0x3ea7932b	0.32729468
15	0x3e56c9ed	0.20975466
16	0x3f741fee	0.9536122
17	0x3f3b956c	0.73274875
18	0xbec1def6	-0.37865418
19	0x3f5852b7	0.8450121
20	0x3d527b2e	0.051387005
21	0x3ec6a04b	0.3879417
22	0x3f980f12	1.1879599
23	0x3e97b1ef	0.2962794
24	0xbf32373b	-0.69615525
25	0x3fc22e17	1.5170316
26	0x3eb601e7	0.35548326
27	0x3f126fa4	0.572016
28	0x3ede39be	0.4340343
29	0x3ea7c828	0.32769895
30	0x3fb94166	1.4473083
31	0x3fb58a9e	1.4182928
32	0xbc59f324	-0.013302598
33	0xbe4dcf65	-0.20098646
34	0x3e8835d3	0.26603565
35	0x3e04d1ff	0.12970732
36	0x3e8d22d5	0.27565637
37	0x3eb98898	0.36237025
38	0xbd860917	-0.065447025
39	0x3f27bb08	0.6551976
40	0x3c89ee77	0.016837342
41	0x3ee75411	0.45181325
42	0x3ee96a5c	0.45588958
43	0x3f8459aa	1.0339863
44	0x3ea28562	0.31742388
45	0x3f4eb785	0.8074878
46	0x3f398cec	0.72480655
47	0x3f08efce	0.5349091
48	0x3eeedffb	0.4665526
49	0x3f375da8	0.71627283
50	0x3f81a8bc	1.0129619
51	0xbae97780	-0.0017812103
52	0x3ee24ac7	0.44197676
53	0x3fa24a35	1.2678896
54	0x3f0565c4	0.5210841
55	0x3f8baaa0	1.0911446
56	0x3f2c9edc	0.674299
57	0x3ecddb71	0.40206483
58	0x3f821aed	1.0164467
59	0x3f8f3962	1.1189387
60	0x3df65335	0.12027589
61	0xbefcf1f4	-0.49403346
62	0x3f498330	0.787158
63	0x3eb97cf7	0.36228153
64	0x3ef58403	0.4795228
65	0xbef286a7	-0.47368357
66	0x3eca8578	0.39554954
67	0x3e10d3e6	0.14143333
68	0x3d17556a	0.03694669
69	0xbd9ee101	-0.0775776
70	0x3f701c69	0.9379335
71	0x3f676217	0.9038405
72	0x3f4537c9	0.77038246
73	0x3f1b8786	0.6075367
74	0xbf0112a7	-0.50419086
75	0x3fe96ade	1.8235738
76	0x3cdd915d	0.027046854
77	0x3d001792	0.03127248
78	0x3f27c685	0.6553729
79	0x3e0c1403	0.13679509
80	0x3f41c2f5	0.75688106
81	0x3d9dc5f4	0.07703772
82	0x3eb2c8ca	0.34918815
83	0x3f7e79f0	0.9940481
84	0xbcbfc78b	-0.02341058
85	0x3e404330	0.1877563
86	0x3efba830	0.49151754
87	0x3e90b487	0.2826273
88	0xbe8e66a9	-0.27812698
89	0x3f3d02b9	0.7383228
90	0xbef3a743	-0.47588548
91	0x3fd0b880	1.6306305
92	0x3e6a603d	0.22888274
93	0x3ec86b31	0.3914428
94	0x3f2b6b48	0.66960573
95	0x3e935813	0.28778133
96	0x3ef86e54	0.48521674
97	0x3eccb56c	0.39982164
98	0x3ef933c6	0.48672312
99	0x3f033f24	0.5126822
100	0x3dabdd03	0.08391764
101	0x3d41bf72	0.047301717
102	0x3cc61934	0.02418194
103	0xbdc8482d	-0.097793914
104	0xbda2e5e5	-0.07954005
105	0xbd9f831a	-0.077886775
106	0x3d5e1d62	0.05422724
107	0xbdb207a3	-0.08692863
108	0x3d5922be	0.05301165
109	0xb9021600	-0.00012405962
110	0x3cc8aa74	0.02449534
111	0xbca213ec	-0.01978489
112	0x3d4facbe	0.05070185
113	0x3d9358a3	0.071946405
114	0xbd95a3f6	-0.07306664
115	0x3dc7b363	0.09751012
116	0x3d3fd71a	0.046835996
117	0xbd91fab2	-0.071278945
118	0xbd0e68a4	-0.03476776
119	0x3dc9aeb3	0.09847774
120	0xbcf2684c	-0.029590748
121	0xbd819685	-0.063275374
122	0x3d4584be	0.048222296
123	0x3ca38fb8	0.019965991
124	0xbdc20bfd	-0.09474943
125	0xbd332613	-0.043737482
126	0xbdbfa26d	-0.09357152
127	0x3d54bf16	0.051940046
128	0xbbbcbda0	-0.0057599097
129	0x3d1a9962	0.037743933
130	0x3dbe94f9	0.09305758
131	0x3d7e0c1a	0.06202326
132	0x3ca7262c	0.020403944
133	0xbcfd7a4c	-0.030942105
134	0x3d16a8f2	0.036782213
135	0xbd8f12f8	-0.0698604
136	0xbd7e8e6a	-0.062147535
137	0x3d2a0c82	0.041515835
138	0x3cbbfe88	0.022948518
139	0xbd5957fd	-0.053062428
140	0xbd9224f2	-0.07135953
141	0x3d5c3d4e	0.053769402
142	0x3d4f843a	0.05066321
143	0xbbfab400	-0.007650852
144	0x3d751bba	0.059840895
145	0xbd56d557	-0.05244955
146	0x3d21b402	0.03947831
147	0xbdbcaab3	-0.09212246
148	0xbcac5560	-0.021036804
149	0xbdcc3e87	-0.09972864
150	0x3dc6003f	0.09668016
151	0x3dca7aff	0.09886741
152	0x3c3151d8	0.010822736
153	0xbd0ad840	-0.03389764
154	0xbd4c7a1a	-0.049921133
155	0x3cba82e0	0.022767484
156	0xbccc3f54	-0.024932541
157	0xbb820f80	-0.003969133
158	0x3da97d49	0.08275849
159	0xbd8308a0	-0.063981295
160	0xbc366380	-0.011132121
161	0x3d9cf969	0.07664759
162	0x3d6bb26a	0.057543196
163	0xbd8f2976	-0.0699033
164	0x3d71f42a	0.059070744
165	0xbdbf0b1d	-0.093282916
166	0xbbd46930	-0.006482266
167	0xbd58d87d	-0.052940834
168	0x3d98af67	0.0745533
169	0x3dc9413d	0.09826896
170	0xbda6be4b	-0.08141764
171	0xbdaff95b	-0.08592483
172	0xbdacc660	-0.084362745
173	0x3dc07d87	0.093989424
174	0x3d979429	0.07401306
175	0x3d61cdfa	0.055128075
176	0xbd9b38c0	-0.075791836
177	0xbda49f1d	-0.08038161
178	0xbcd07b68	-0.02544947
179	0x3d155aba	0.036463477
180	0xbd5a0fca	-0.053237714
181	0x3cad9880	0.021190882
182	0xbd953fd3	-0.07287564
183	0x3d3da3be	0.046298735
184	0x3d17033e	0.036868326
185	0xbcae74cc	-0.021295927
186	0x3cb019e8	0.021496728
187	0xbdc7c2af	-0.0975393
188	0x3db9d9fd	0.09074781
189	0x3c52b980	0.012861609
190	0xbd58ec1d	-0.05295955
191	0xbd6150d0	-0.05500871
192	0x3db34f91	0.087554105
193	0xbd27bbc0	-0.040950537
194	0xbc511928	-0.012762345
195	0xbbb6d5a0	-0.0055796653
196	0xbb6e8fc0	-0.00364016
197	0x3d3ecf3e	0.04658436
198	0x3dbba3cb	0.091621004
199	0xbcdd7948	-0.02703537
200	0x3db7fa47	0.089832835
201	0x3f7d501e	0.98950374
202	0x3fb36fe0	1.4018517
203	0xbc6cc010	-0.014450088
204	0x3f291194	0.6604245
205	0xbd379583	-0.04482032
206	0x3d0b7bc2	0.03405357
207	0x3f11d1c6	0.56960714
208	0x3eccc95a	0.3999737
209	0xbf28f906	-0.6600498
210	0x3fb281b6	1.3945835
211	0x3db42459	0.08795995
212	0xbd567213	-0.052354883
213	0x3f656034	0.8959992
214	0x3ecba910	0.39777422
215	0x3e1349d3	0.1438363
216	0x3f86fc3d	1.0545727
217	0x3f35a8e9	0.7096086
218	0xbed741e1	-0.4204245
219	0x3f4be165	0.796408
220	0x3d327a96	0.04357394
221	0x3ee5192e	0.44745773
222	0x3f9cf595	1.2262446
223	0x3eb85fe5	0.36010662
224	0xbf3e0102	-0.7422029
225	0x3fc8860f	1.5665911
226	0x3e953e60	0.2914915
227	0x3ef285b0	0.4736762
228	0x3ed76cb6	0.42075127
229	0x3e7d6e84	0.2474919
230	0x3fc3f057	1.5307721
231	0x3fa85ada	1.3152726
232	0x3da75937	0.08171313
233	0xbd4866bf	-0.04892611
234	0x3e2d7665	0.16939695
235	0x3e31197f	0.17294882
236	0x3ea77446	0.32705897
237	0x3ecf0f2d	0.40441266
238	0x3a983c0e	0.0011614577
239	0x3f0ce8b2	0.55042565
240	0xbcc05576	-0.023478251
241	0x3ec6716d	0.38758412
242	0x3e98342f	0.29727313
243	0x3f6f882e	0.9356717
244	0x3e9e22e4	0.30885994
245	0x3f6aa3fc	0.9165647
246	0x3f39d24f	0.7258653
247	0x3ed3d5bb	0.41374
248	0x3eb8841c	0.3603829
249	0x3f3cd23e	0.73758304
250	0x3f7163ad	0.9429272
251	0x3d435cd6	0.047695957
252	0x3f0c4da6	0.5480598
253	0x3f97ae82	1.185013
254	0x3ede4239	0.434099
255	0x3f97df8d	1.1865097

linear2.bias f4 [100]
0	0x3f5883b9	0.8457599
1	0x3d7f5162	0.062333472
2	0x3f51d928	0.8197198
3	0x3da085e6	0.07838039
4	0xbdc9bf15	-0.09850899
5	0x3f568652	0.83798707
6	0x3f36a456	0.71344507
7	0x3f39ed60	0.7262783
8	0x3f47b89d	0.7801607
9	0xbd6dfe87	-0.058104064
10	0x3f533856	0.82507837
11	0x3f587e3f	0.84567636
12	0x3f37bb6d	0.71770364
13	0x3f32d8d1	0.69862086
14	0x3f3bef63	0.7341215
15	0x3f4c0a60	0.7970333
16	0x3d211879	0.03932998
17	0x3f5c8e66	0.8615478
18	0x3f4ea8eb	0.807265
19	0x3f58b96d	0.8465794
20	0x3f42d88c	0.76111674
21	0x3f627113	0.8845379
22	0x3f5f2343	0.8716318
23	0x3f56a0e9	0.8383928
24	0x3d01e992	0.03171689
25	0x3f5115ca	0.8167387
26	0x3f543e39	0.82907444
27	0xbf073c78	-0.52826643
28	0x3f4677f9	0.77526814
29	0xbd66f4ea	-0.056385912
30	0x3f537771	0.8260413
31	0x3f518ec5	0.81858474
32	0x3d8e1761	0.06938053
33	0x3f5ddf39	0.86668736
34	0x3f3233eb	0.6961047
35	0x3f5e57f8	0.8685298
36	0x3f5b226a	0.85599387
37	0x3f57ff6d	0.84374124
38	0x3f5cd011	0.86254984
39	0x3f55054f	0.83211225
40	0x3f5f2f7e	0.8718184
41	0xbbca5cd0	-0.006175615
42	0xbd4c1633	-0.04982586
43	0x3c15d222	0.009144338
44	0x3f4042e0	0.75102043
45	0x3c8a6f6c	0.016898833
46	0x3f5ed660	0.8704586
47	0xbc0f1d70	-0.008735046
48	0x3f4cd5ae	0.8001355
49	0x3f4134c0	0.75471115
50	0x3f609c55	0.87738544
51	0x3f47b2ca	0.78007185
52	0x3f38b86e	0.7215642
53	0x3f3e2dd2	0.74288666
54	0x3f63eef8	0.8903651
55	0x3f4b0af8	0.7931361
56	0x3f516ea2	0.8180944
57	0x3f40e683	0.7535173
58	0x3f53d533	0.8274719
59	0x3f5f62dc	0.8726022
60	0x3f42015b	0.7578332
61	0xbdd6896c	-0.1047543
62	0x3f479019	0.7795425
63	0x3f684bcb	0.9074065
64	0x3f46ab44	0.7760508
65	0x3f3b2ea9	0.7311807
66	0x3f5aeaa1	0.85514265
67	0xbcfaa30c	-0.030595325
68	0x3f556eeb	0.8337237
69	0x3f384de9	0.7199388
70	0x3f386a0a	0.720368
71	0x3f59fb95	0.8514951
72	0x3f30ee42	0.6911355
73	0x3f48bac9	0.7841001
74	0x3f443e95	0.7665799
75	0x3f301390	0.6877985
76	0x3c9faf40	0.019492745
77	0x3f686986	0.90786016
78	0x3f5582a8	0.8340249
79	0x3f344d41	0.7043038
80	0x3f4fabf7	0.8112177
81	0x3f578098	0.84180593
82	0x3f423f84	0.7587817
83	0x3f38754d	0.72053987
84	0x3f6c2d12	0.9225627
85	0x3f3c3fe5	0.73534995
86	0x3f324439	0.6963535
87	0x3f52c00c	0.8232429
88	0xba9884c0	-0.0011636242
89	0x3f4e3b27	0.8055901
90	0x3f3483b1	0.70513445
91	0x3f68a375	0.90874416
92	0x3f4441bd	0.7666281
93	0x3f59bade	0.8505076
94	0x3d75e0e6	0.060028933
95	0x3f3438ec	0.70399356
96	0x3f533467	0.82501835
97	0x3f5e8969	0.8692842
98	0x3d3f7abb	0.046747904
99	0x3f3908e9	0.7227922

linear3.weight f4 [1, 100]
0	0xbf3707ff	-0.71496576
1	0x3a4d5a10	0.000783355
2	0xbf46f123	-0.77711695
3	0xbb2248be	-0.0024762596
4	0xbb497e8a	-0.003074559
5	0xbf3fd14a	-0.74928725
6	0xbf39376d	-0.723502
7	0xbf40af28	-0.7526727
8	0xbf4013ed	-0.75030404
9	0xbb38edfc	-0.0028218022
10	0xbf397816	-0.7244886
11	0xbf3e2b8b	-0.7428519
12	0xbf4717fe	-0.77770984
13	0xbf41383c	-0.7547643
14	0xbf40b69a	-0.7527863
15	0xbf3d2a63	-0.738928
16	0xbb28d986	-0.002576442
17	0xbf382e35	-0.71945506
18	0xbf40a1ec	-0.75247073
19	0xbf4188d8	-0.7559943
20	0xbf37e62d	-0.71835595
21	0xbf47f7fd	-0.78112775
22	0xbf42a5b3	-0.76034087
23	0xbf4cc7e4	-0.7999251
24	0xba6fd280	-0.00091484934
25	0xbf4a268b	-0.7896506
26	0xbf47d347	-0.7805676
27	0x3f55a9c0	0.8346214
28	0xbf456ae4	-0.7711623
29	0x3aab10f0	0.0013051312
30	0xbf49a2b8	-0.78763914
31	0xbf54acf7	-0.83076423
32	0x38029bc0	3.113947e-05
33	0xbf3f7810	-0.74792576
34	0xbf44d321	-0.7688466
35	0xbf3a6e65	-0.728247
36	0xbf44b362	-0.76836216
37	0xbf3d9100	-0.7404938
38	0xbf3741b8	-0.71584654
39	0xbf40ba2c	-0.75284076
40	0xbf412cc2	-0.7545892
41	0x3922cfa0	0.0001552687
42	0x39cbf200	0.0003889948
43	0x3f669b98	0.9008117
44	0xbf3f1b27	-0.74650806
45	0xba8e76a1	-0.0010869094
46	0xbf40fa4c	-0.7538192
47	0x3b254d40	0.0025223047
48	0xbf460a41	-0.77359396
49	0xbf42d8bd	-0.76111966
50	0xbf3a2d1c	-0.7272508
51	0xbf401a6b	-0.7504031
52	0xbf4596fe	-0.7718352
53	0xbf3d0a84	-0.7384417
54	0xbf450317	-0.7695784
55	0xbf414343	-0.7549326
56	0xbf3ff0f8	-0.74977064
57	0xbf3e9b2e	-0.74455535
58	0xbf4ac1d3	-0.79202
59	0xbf41b39e	-0.756647
60	0xbf4583b9	-0.7715412
61	0xbba2a787	-0.0049638185
62	0xbf47fd97	-0.7812132
63	0xbf473b3b	-0.77824754
64	0xbf47be34	-0.780246
65	0xbf3ddf42	-0.7416879
66	0xbf4196da	-0.75620806
67	0x3af1d26c	0.0018449551
68	0xbf3bfc4f	-0.7343187
69	0xbf4a8e66	-0.7912353
70	0xbf42e4cf	-0.76130384
71	0xbf3f2c78	-0.7467723
72	0xbf43b54d	-0.7644852
73	0xbf4265cb	-0.75936574
74	0xbf463d6b	-0.77437466
75	0xbf43040f	-0.7617807
76	0x3b0a5bf4	0.0021111937
77	0xbf574b76	-0.8409952
78	0xbf414052	-0.7548877
79	0xbf40a1e6	-0.7524704
80	0xbf40f456	-0.7537283
81	0xbf437486	-0.76349676
82	0xbf4168c4	-0.75550485
83	0xbf427187	-0.7595448
84	0xbf4c5a86	-0.7982563
85	0xbf4241ae	-0.7588147
86	0xbf4361c5	-0.7632106
87	0xbf3c064c	-0.7344711
88	0x3ab1fe60	0.0013579838
89	0xbf3ff4eb	-0.7498309
90	0xbf3e47b6	-0.7432817
91	0xbf548f5a	-0.8303124
92	0xbf40432d	-0.751025
93	0xbf463670	-0.77426815
94	0x3aef6ae0	0.0018266104
95	0xbf3facb8	-0.7487292
96	0xbf4100d9	-0.7539192
97	0xbf40743c	-0.7517736
98	0x39f6d343	0.0004707818
99	0xbf3c2316	-0.73491037
