saved_models/ddpg/value_net_checkpoint_a3.pth (torch, 44267 bytes, 5 tensors)

linear1.weight f4 [100, 2]
0.20139422 -0.47011515 1.1058229 0.48761967 -0.42642796 -0.18856499 -0.06164414 0.3440666
1.1658845 -0.6401997 -0.5781403 0.35484558 0.06341949 -0.33980346 0.0050689755 -0.34762824
0.14114074 -0.24674895 0.21402845 0.6726239 -0.6407451 0.34533054 0.53329617 0.39533755
-0.045611385 0.06359236 0.5420262 -0.28369758 -0.19237134 0.25107864 -0.42240286 0.0045012236
0.40792504 -0.38129622 -0.051119797 0.21153247 1.1059104 0.640475 0.31026497 -0.3397941
0.104985856 -0.32816064 0.13894844 -0.4221148 -0.03117591 -0.28789213 0.04686768 0.4628577
-0.48085806 0.25605917 -0.050167765 -0.32887498 0.45636234 -0.31308 0.90518254 0.38770947
0.43776295 -0.46209797 -0.7834725 -0.64393485 0.08897559 0.85649824 0.1798027 0.99303955
0.026601609 0.40514606 -0.44268999 0.37342858 -0.5886347 -0.28245297 -0.5985076 0.30047873
-0.81332755 0.24341506 0.42483786 0.56720185 0.41228127 -0.4196905 0.046979893 -0.30631125
-0.57237643 -0.14212193 0.11985633 0.62689817 0.4885539 0.40281057 0.18717508 0.9448575
-0.29817244 -0.28199968 -0.22923636 -0.25180036 -0.41923672 -0.08373886 0.25741848 -0.4766637
-0.37471363 0.39964074 0.36402455 0.040399887 0.57985127 -0.3758363 -0.65128845 -0.37301588
0.9145315 0.8008709 -0.090136856 -0.2791745 -0.13734038 -0.3560545 0.22521517 -0.3815377
-0.9125835 -0.65390456 -0.8950061 0.27300575 -0.22451904 0.23193663 -0.27504072 -0.5949452
0.15932435 -0.34471545 -0.1760047 0.37862366 -0.065028265 0.107746616 0.006867133 -0.4163386
-0.25566998 -0.32991514 -0.5406369 -0.6174697 0.7776517 0.3052044 -0.54647255 0.025532845
-0.25929686 0.23706208 -0.7554082 0.4156683 -0.7039605 -0.05215925 0.11652976 0.50121105
0.4423686 -0.424525 -0.5097641 -0.2926814 -0.46388906 0.24555671 0.5350056 -0.39033177
0.4631012 -0.2396759 -0.34041017 0.2963045 -0.6483491 0.3384727 0.08256282 -0.32749665
0.013360184 0.224072 -0.5711869 -0.20374696 0.2376854 0.2795368 -0.47199708 -0.2998487
-0.02029095 -0.33220914 0.031104274 -0.37426716 -0.19954681 -0.20491073 0.24806567 -0.25947636
0.04077691 0.8168209 0.26780474 0.12121249 -0.29764163 -0.03346306 -0.07792745 0.23032323
0.33005765 0.8364018 0.34399438 -0.30566397 0.2241792 -0.288824 -0.5473189 -0.24107432
-0.4272657 0.24222013 -0.38630754 -0.22500642 -0.73927724 -0.23130077 0.24842265 0.49251166
00000000: 493a 4e3e efb2 f0be 9b8b 8d3f 49a9 f93e
00000010: c454 dabe 2e17 41be 917e 7cbd 7f29 b03e
00000020: b43b 953f 21e4 23bf 0101 14bf 52ae b53e
00000030: 14e2 813d b8fa adbe a619 a63b 54fc b1be
00000040: 3387 103e c2ab 7cbe 462a 5b3e 1431 2c3f
00000050: df07 24bf 2acf b03e 1986 083f af69 ca3e
00000060: 01d3 3abd b63c 823d 3bc2 0a3f cf40 91be
00000070: fefc 44be 618d 803e 3045 d8be 007f 933b
00000080: 8ddb d03e 4239 c3be fe62 51bd f89b 583e
00000090: 798e 8d3f 2bf6 233f 0ddb 9e3e 7ef9 adbe
000000a0: d302 d73d ac04 a8be 8048 0e3e 6e1f d8be
000000b0: 9f64 ffbc 9966 93be 53f8 3f3d affb ec3e
000000c0: 0733 f6be 301a 833e b77c 4dbd 4d62 a8be
000000d0: 53a8 e93e 064c a0be 0bba 673f db81 c63e
000000e0: 7722 e03e 1b98 ecbe a791 48bf ead8 24bf
000000f0: d638 b63d 7843 5b3f 331e 383e d737 7e3f
00000100: 9eeb d93c 4e6f cf3e 43a8 e2be 0832 bf3e
00000110: c4b0 16bf ad9d 90be cb37 19bf 59d8 993e
00000120: 3c36 50bf cc41 793e 5984 d93e 2434 113f
00000130: 8816 d33e ace1 d6be fd6d 403d d4d4 9cbe
00000140: 4387 12bf 6988 11be 3c77 f53d 667c 203f
00000150: bd23 fa3e 303d ce3e d3aa 3f3e 2ee2 713f
00000160: 0faa 98be 4362 90be f0bc 6abe faeb 80be
00000170: 32a6 d6be 487f abbd 5bcc 833e 440d f4be
00000180: 77da bfbe b69d cc3e 6d61 ba3e 5a7a 253d
00000190: 2271 143f 9e6d c0be d7ba 26bf f0fb bebe
000001a0: bd1e 6a3f e005 4d3f ac99 b8bd f6ef 8ebe
000001b0: f5a2 0cbe c74c b6be ce9e 663e e958 c3be
000001c0: 129f 69bf 4a66 27bf 1f1f 65bf 69c7 8b3e
000001d0: 52e8 65be cc80 6d3e 23d2 8cbe 544e 18bf
000001e0: ec25 233e 8b7e b0be 933a 34be f6da c13e
000001f0: 8a2d 85bd 42aa dc3d b005 e13b 552a d5be
00000200: 2de7 82be a3ea a8be 2e67 0abf 7f12 1ebf
00000210: 2f14 473f c043 9c3e a0e5 0bbf 422a d13c
00000220: 8fc2 84be 67c0 723e 6f62 41bf 7ad2 d43e
00000230: c136 34bf f0a4 55bd 28a7 ee3d 5e4f 003f
00000240: 237e e23e 575b d9be e67f 02bf 56da 95be
00000250: de82 edbe 3873 7b3e 21f6 083f 91d9 c7be
00000260: 9a1b ed3e 996d 75be 3e4a aebe 39b5 973e
00000270: 35fa 25bf 4b4c ad3e b216 a93d a4ad a7be
00000280: ace4 5a3c 2173 653e 4e39 12bf 0ba3 50be
00000290: cd63 733e 731f 8f3e 9aa9 f1be c585 99be
000002a0: 3539 a6bc 5117 aabe 64ce fe3c f29f bfbe
000002b0: 0056 4cbe 1ed4 51be ed04 7e3e 16da 84be
000002c0: b005 273d 2d1b 513f b41d 893e 413e f83d
000002d0: 7c64 98be 9010 09bd 6d98 9fbd dad9 6b3e
000002e0: 51fd a83e 6e1e 563f 0820 b03e fd7f 9cbe
000002f0: 3b8f 653e bde0 93be 171d 0cbf 30dc 76be
00000300: 92c2 dabe 8e08 783e 1aca c5be 1568 66be
00000310: 4641 3dbf 1cda 6cbe 8262 7e3e 7d2a fc3e

linear1.bias f4 [100]
1.4983721 -0.04483737 1.1544384 1.2164208 -0.60849535 1.6152322 1.1339473 1.1173056
0.7103292 1.6175 1.6225895 0.9147827 1.3884696 0.39796653 0.9922046 0.09428477
0.9030001 0.759752 0.14008534 0.9110065 1.036498 1.3757356 1.0554925 1.5271009
1.1895524 1.2431815 0.5821376 -0.09338726 1.1749914 1.0422089 0.56753707 -0.4013666
1.3505847 1.5799812 1.5464379 1.4222668 1.199433 1.5819912 1.0380471 1.0193534
1.135125 1.4399625 0.3108449 0.5022337 1.3247852 1.1504574 -0.52924454 0.53822863
1.6365354 1.1312865 0.20152618 0.9499062 -0.1547739 1.1019665 1.4331876 1.1054518
0.4905492 1.4741013 0.94772476 -0.48225892 1.0915653 1.4224148 1.3182575 1.5082247
1.4658046 0.74187636 -0.1424655 1.2619289 0.98423725 -0.54116 0.11780304 1.3976855
1.0244371 1.6107785 1.1367803 0.7979592 0.3309022 1.2449841 1.5988885 1.046563
0.75262094 1.2478647 0.76141876 1.5906477 1.223052 1.3236583 0.9467531 0.64254075
1.2766886 1.3769628 -0.60434735 0.8429996 0.15467525 0.7080189 0.76946884 1.4778777
1.1112798 1.2285552 1.6409447 1.4702665
00000000: a8ca bf3f 64a7 37bd a3c4 933f adb3 9b3f
00000010: 5ac6 1bbf eebf ce3f 2f25 913f df03 8f3f
00000020: 22d8 353f 3d0a cf3f 03b1 cf3f 332f 6a3f
00000030: 5fb9 b13f 45c2 cb3e 1f01 7e3f 6018 c13d
00000040: 042b 673f 1b7f 423f 8872 0f3e b937 693f
00000050: f7ab 843f 1b18 b03f 611a 873f 0b78 c33f
00000060: 4143 983f 9220 9f3f f806 153f d241 bfbd
00000070: 1e66 963f 1a67 853f 1c4a 113f ec7f cdbe
00000080: f6df ac3f d33c ca3f adf1 c53f d70c b63f
00000090: 0587 993f b07e ca3f bade 843f 2c7a 823f
000000a0: c74b 913f b150 b83f 1027 9f3e 6392 003f
000000b0: 9092 a93f 3042 933f 927c 07bf 5ac9 093f
000000c0: fe79 d13f ffcd 903f e15c 4e3e 0d2d 733f
000000d0: 0d7d 1ebe 3d0d 8d3f b172 b73f 727f 8d3f
000000e0: 4429 fb3e 5aaf bc3f 179e 723f a4ea f6be
000000f0: 69b8 8b3f b011 b63f a9bc a83f 820d c13f
00000100: 7c9f bb3f 9ceb 3d3f 7ae2 11be e386 a13f
00000110: f9f6 7b3f 7689 0abf b842 f13d 5ce7 b23f
00000120: c120 833f fd2d ce3f 0482 913f 0e47 4c3f
00000130: 036c a93e a45b 9f3f 61a8 cc3f c7f5 853f
00000140: c4ab 403f 08ba 9f3f 57ec 423f 589a cb3f
00000150: f88c 9c3f a36d a93f 695e 723f 8d7d 243f
00000160: 886a a33f 5140 b03f 82b6 1abf d2ce 573f
00000170: 3063 1e3e ba40 353f e9fb 443f 192b bd3f
00000180: 6b3e 8e3f 4c41 9d3f 7a0a d23f b131 bc3f

linear2.weight f4 [100, 100]
0.44897386 -0.2857933 0.94173145 0.5398845 -1.0154512 1.1199971 0.5337806 0.3837054
0.28432494 0.4038598 1.1883928 0.09242942 0.38510564 0.13800177 0.78223956 -0.094444275
0.18403727 0.5467006 -0.35475874 0.31168753 0.33058253 0.51434326 0.49527895 0.5180507
1.1702251 0.4856932 0.052450784 -0.2841618 0.25661567 0.7853277 0.25497794 -0.42474958
0.5042438 0.8837162 0.772905 1.2964051 1.5875152 0.31534508 0.25724992 0.5002813
0.9683147 0.46094236 -0.061220523 0.06307939 0.6600161 0.66657186 -0.08171207 -0.052545696
0.99469495 0.28934097 0.03354745 1.147413 -0.48109117 0.57799584 0.6246 0.44657683
0.4998667 1.6355051 0.5586538 0.76403975 0.28992105 0.7977345 0.4783044 0.500729
0.64689845 0.2881548 -0.32798082 0.8435293 0.66882217 0.5899137 0.01815752 0.36361256
0.31119767 0.7416186 1.1856792 0.15323341 0.028675698 0.8389261 1.1403556 0.39974284
0.43909732 0.8113417 0.19595833 0.78657275 0.557506 0.5591749 0.60316944 0.30063596
0.2797333 0.38001296 -0.08430843 0.68015903 -0.59363467 0.29702073 0.24652576 0.95744675
1.1787114 0.86223346 1.065876 0.48896295 0.42838243 -0.36796492 0.99015963 0.5419892
-0.96964365 1.1685396 0.53863597 0.33169067 0.41340223 0.32359648 1.0618644 0.18698551
0.36498827 0.04747115 0.83382964 0.058015294 0.26447392 0.62637717 -0.19455178 0.17433745
0.38304543 0.43475497 0.49392733 0.62592554 1.1406416 0.5945276 -0.0036223328 -0.36576822
0.32169276 0.80047303 0.21278325 -0.45316708 0.6211803 0.9056419 0.76072997 1.1224803
1.5241703 0.28861114 0.38722286 0.5081203 0.9171225 0.43989417 0.006885 0.087435156
0.6779844 0.5926459 -0.08040397 0.028524335 0.8679114 0.23580171 0.0019259832 1.1943411
-0.35501674 0.49477693 0.5080966 0.3765679 0.58720505 1.7533094 0.6329716 0.7737816
0.37078938 0.7738564 0.4564336 0.47536775 0.62587327 0.28966534 -0.44982263 0.7991073
0.70653176 0.54980534 -0.007164322 0.5028753 0.2962979 0.8134958 1.2863874 0.22837561
0.08250586 0.98287183 1.2005638 0.3622251 0.4321466 0.80267215 0.26362702 0.7895978
0.48303562 0.42635772 0.6420027 0.18499044 0.44089246 0.27553067 0.00037632138 0.64849746
-0.52526474 0.15918466 0.28337842 0.95571846 1.0710778 0.8621995 0.938519 0.44447628
0.48307607 -0.27792618 0.9696255 0.59595144 -0.99790394 1.0453517 0.4659009 0.41626966
0.38891008 0.4236179 1.1732029 0.16953003 0.43932253 0.11546533 0.70361567 0.027606137
0.33598867 0.6263166 -0.38843924 0.23674586 0.46185136 0.37592104 0.53480184 0.48547056
1.1520121 0.63695395 0.04879316 -0.25968865 0.22401412 0.78349525 0.13668066 -0.48695278
0.58414614 0.8933032 0.86149305 1.1797355 1.6141984 0.37093332 0.3814781 0.3618542
0.8007982 0.45652533 -0.13630012 0.19160563 0.6525213 0.74107724 -0.06089877 0.028133392
0.90547293 0.23953137 -0.019893704 1.242278 -0.42444846 0.6178972 0.5777204 0.2792088
00000000: e7df e53e 8053 92be 5015 713f df35 0a3f
00000010: 4efa 81bf 115c 8f3f d8a5 083f 0975 c43e
00000020: 0a93 913e b6c6 ce3e 411d 983f a34b bd3d
00000030: 912c c53e 5650 0d3e da40 483f 006c c1bd
00000040: 4474 3c3e 92f4 0b3f f0a2 b5be 8295 9f3e
00000050: 1d42 a93e 00ac 033f 3495 fd3e f89e 043f
00000060: f0c9 953f c7ac f83e a2d6 563d a87d 91be
00000070: 2163 833e 3c0b 493f 788c 823e c778 d9be
00000080: 1f16 013f 3a3b 623f 1add 453f 9af0 a53f
00000090: b333 cb3f e974 a13e 43b6 833e 6f12 003f
000000a0: 79e3 773f a300 ec3e 5fc2 7abd c42f 813d
000000b0: d1f6 283f 74a4 2a3f a858 a7bd 283a 57bd
000000c0: 54a4 7e3f 8024 943e 0d69 093d 6ede 923f
000000d0: 9551 f6be 89f7 133f c9e5 1f3f b8a5 e43e
000000e0: 87ee ff3e 3b58 d13f ef03 0f3f 1c98 433f
000000f0: 8870 943e 5438 4c3f 50e4 f43e c72f 003f
00000100: 239b 253f 0789 933e 1aed a7be 89f1 573f
00000110: ee37 2b3f 9604 173f 14bf 943c 6d2b ba3e
00000120: 4d55 9f3e b7da 3d3f 56c4 973f 38e9 1c3e
00000130: 4ce9 ea3c dcc3 563f 2cf7 913f 18ab cc3e
00000140: 5dd1 e03e 17b4 4f3f 4da9 483e d55c 493f
00000150: b7b8 0e3f 1626 0f3f 5069 1a3f f5ec 993e
00000160: 3439 8f3e 0f91 c23e e6a9 acbd e71e 2e3f
00000170: 71f8 17bf 1a13 983e 4071 7c3e 3b1b 753f
00000180: 04e0 963f 55bb 5c3f a06e 883f 5a59 fa3e
00000190: f154 db3e e665 bcbe 1a7b 7d3f cebf 0a3f
000001a0: 913a 78bf b592 953f 0ce4 093f 5cd3 a93e
000001b0: 75a9 d33e 70ae a53e 2ceb 873f 2179 3f3e
000001c0: bedf ba3e 1c71 423d dc75 553f 72a1 6d3d
000001d0: 2069 873e 415a 203f 9538 47be 8485 323e
000001e0: 881e c43e 3498 de3e 0be4 fc3e a83c 203f
000001f0: 8b00 923f f632 183f a964 6dbb f945 bbbe
00000200: eab4 a43e cdeb 4c3f dae3 593e 8405 e8be
00000210: ac05 1f3f 26d8 673f 33bf 423f 6fad 8f3f
00000220: 0318 c33f d7c4 933e 1342 c63e 2c14 023f
00000230: 8ac8 6a3f cf39 e13e 919b e13b 3411 b33d
00000240: 6390 2d3f a4b7 173f d6aa a4bd deab e93c
00000250: 712f 5e3f 0176 713e 4671 fc3a 2be0 983f
00000260: c1c4 b5be 6753 fd3e 9e12 023f 82cd c03e
00000270: 1253 163f 716c e03f 6d0a 223f 8d16 463f
00000280: 1bd8 bd3e 741b 463f aab1 e93e 6763 f33e
00000290: 3b39 203f 044f 943e 274f e6be 4c92 4c3f
000002a0: 44df 343f 0bc0 0c3f b0c2 eabb 70bc 003f
000002b0: 5cb4 973e 4341 503f 58a8 a43f 4cdb 693e
000002c0: d5f8 a83d 7d9d 7b3f 13ac 993f 9175 b93e
000002d0: 5242 dd3e ec7b 4d3f 1ffa 863e 1523 4a3f
000002e0: 7250 f73e 8f4b da3e 4a5a 243f 226e 3d3e
000002f0: a8bc e13e 5b12 8d3e 004d c539 ee03 263f
00000300: c077 06bf 4e01 233e fa16 913e f7a9 743f
00000310: 1419 893f 1bb9 5c3f c842 703f 6592 e33e
00000320: bf55 f73e 574c 8ebe 6039 783f 4690 183f
00000330: a276 7fbf 16ce 853f 908a ee3e 4c21 d53e
00000340: 391f c73e 72e4 d83e 832b 963f 4899 2d3e
00000350: e2ee e03e 1679 ec3d 2820 343f 4426 e23c
00000360: b506 ac3e 4956 203f 82e1 c6be 826d 723e
00000370: c877 ec3e b978 c03e c6e8 083f 998f f83e
00000380: 2275 933f 6a0f 233f 56db 473d e9f5 84be
00000390: f563 653e 2593 483f 04f6 0b3e e051 f9be
000003a0: 9a8a 153f 85af 643f cf8a 5c3f 9301 973f
000003b0: 0e9e ce3f f9ea bd3e 1951 c33e f444 b93e
000003c0: 1c01 4d3f b0bd e93e 4292 0bbe 4434 443e
000003d0: a30b 273f 3db7 3d3f fd70 79bd 0078 e63c
000003e0: 13cd 673f b647 753e 1ff8 a2bc f702 9f3f
000003f0: 4f51 d9be 832e 1e3f 7ce5 133f 75f4 8e3e

linear2.bias f4 [100]
0.68478286 0.5814304 0.54924774 0.659215 -0.10307151 0.639969 0.5220842 0.593696
0.5569255 0.53337675 0.59041864 0.6697404 0.68228394 0.65730715 0.589312 0.5945996
0.52664226 -0.07128183 0.5659266 0.5068555 0.5162131 -0.027778657 0.68285286 0.51289713
0.7018454 0.5865676 0.5408891 0.70061564 0.6414516 0.65400016 0.70423937 -0.029846398
0.68812644 0.6018685 0.6475414 0.5386829 0.6737548 0.68048334 0.64889985 -0.019205786
0.572459 0.57377255 0.6744309 0.5425058 0.6398398 0.6120529 0.5329459 0.58919245
0.5767665 0.6443053 0.615492 0.5940651 0.5774701 0.81507623 0.6036077 0.7070652
0.6438992 0.6087689 -0.0067674667 0.5780136 0.5658881 0.65830684 -0.084856056 0.6935853
0.563615 0.5730856 0.6641374 -0.048143804 0.6128435 0.5326776 0.65367335 0.63709664
0.6754867 0.60840493 0.6206056 0.6381452 0.5995829 0.67673755 0.5622567 0.6544627
-0.086893104 0.6870866 -0.053450383 0.5581315 -0.081192754 0.005122743 0.57859737 -0.022471812
0.6775953 0.56410104 0.6559522 0.5316922 -0.05668057 0.632544 -0.0926572 0.5426579
0.09500516 0.6840947 0.6339093 -0.099916056
00000000: ee4d 2f3f 9fd8 143f 809b 0c3f 50c2 283f
00000010: 2817 d3bd 02d5 233f 4fa7 053f 76fc 173f
00000020: ab92 0e3f 618b 083f ad25 173f 1b74 2b3f
00000030: 29aa 2e3f 4845 283f 27dd 163f ae37 183f
00000040: 07d2 063f 35fc 91bd 91e0 103f 48c1 013f
00000050: 8b26 043f 1190 e3bc 72cf 2e3f 3a4d 033f
00000060: 24ac 333f 4b29 163f b577 0a3f 8c5b 333f
00000070: 2c36 243f 8e6c 273f 0849 343f 6f80 f4bc
00000080: 0e29 303f 0e14 1a3f 46c5 253f 1fe7 093f
00000090: 327b 2c3f 2834 2e3f 4d1e 263f 7455 9dbc
000000a0: ac8c 123f c2e2 123f 81a7 2c3f a9e1 0a3f
000000b0: 8bcc 233f 80af 1c3f 246f 083f 51d5 163f
000000c0: f8a6 133f 31f1 243f e290 1d3f a714 183f
000000d0: 15d5 133f d6a8 503f 0986 1a3f 3a02 353f
000000e0: 94d6 243f 47d8 1b3f a0c1 ddbb b3f8 133f
000000f0: 0bde 103f cc86 283f 03c9 adbd ce8e 313f
00000100: 1349 103f bdb5 123f e904 2a3f 7032 45bd
00000110: 50e3 1c3f 8f5d 083f 2357 273f c418 233f
00000120: b2ec 2c3f 6dc0 1b3f 02e0 1e3f 7c5d 233f
00000130: 447e 193f ac3e 2d3f 0ef0 0f3f de8a 273f
00000140: 03f5 b1bd e8e4 2f3f caee 5abd b5e1 0e3f
00000150: 6348 a6bd afdc a73b f51e 143f ce16 b8bc
00000160: e376 2d3f ed68 103f 7cec 273f fb1c 083f
00000170: e329 68bd 67ee 213f 0fc3 bdbd a1eb 0a3f
00000180: 1192 c23d d520 2f3f e147 223f caa0 ccbd

linear3.weight f4 [1, 100]
-0.6637624 -0.6713952 -0.6637525 -0.6538608 0.0035975496 -0.6510888 -0.66713715 -0.6787036
-0.68242437 -0.65708476 -0.6385402 -0.65386826 -0.6299777 -0.6680687 -0.70645005 -0.6768476
-0.64302284 0.0005008271 -0.661981 -0.6583027 -0.65264606 -0.0005885926 -0.64186025 -0.62561953
-0.6639419 -0.6420994 -0.6361669 -0.67672664 -0.66360414 -0.686696 -0.6273486 -0.0022519936
-0.65478754 -0.7035947 -0.64967996 -0.67279243 -0.6354653 -0.6308161 -0.6846374 -0.0020781253
-0.68884206 -0.64191985 -0.62366486 -0.6603806 -0.6686387 -0.6339914 -0.66037613 -0.63462156
-0.6661015 -0.6721693 -0.6467965 -0.70139945 -0.6592948 -0.77901524 -0.632314 -0.6472694
-0.66059107 -0.64852256 0.001738301 -0.67461306 -0.645972 -0.66042984 0.0013886574 -0.6514973
-0.6993274 -0.65694606 -0.6531545 -0.007171632 -0.6530856 -0.6574544 -0.65858203 -0.7216356
-0.6610974 -0.6599426 -0.68472904 -0.7077392 -0.6608399 -0.64289653 -0.67295796 -0.65687215
-0.0020141448 -0.70554644 -0.00047749584 -0.6545593 0.0004907234 -0.0024619948 -0.64783484 -0.005890292
-0.6823744 -0.64942425 -0.6460885 -0.6655288 0.0018542521 -0.655336 -0.0003372389 -0.6538971
-0.0001783222 -0.6614373 -0.68556607 -0.0003244803
00000000: 55ec 29bf 8ee0 2bbf afeb 29bf 6c63 27bf
00000010: dec4 6b3b c1ad 26bf 80c9 2abf 85bf 2dbf
00000020: 5db3 2ebf b536 28bf 5f77 23bf e963 27bf
00000030: 3846 21bf 8d06 2bbf e9d9 34bf e245 2dbf
00000040: 259d 24bf f049 033a 9677 29bf 8786 28bf
00000050: d013 27bf c84b 1aba f450 24bf 9a28 20bf
00000060: 19f8 29bf a060 24bf d5db 22bf f53d 2dbf
00000070: f6e1 29bf 4fcb 2fbf eb99 20bf 2f96 13bb
00000080: 28a0 27bf c81e 34bf 6d51 26bf 203c 2cbf
00000090: dbad 22bf 2a7d 21bf 6644 2fbf 2831 08bb
000000a0: f457 30bf dc54 24bf 80a8 1fbf b40e 29bf
000000b0: e82b 2bbf 434d 22bf 690e 29bf 8f76 22bf
000000c0: a185 2abf 4a13 2cbf 7594 25bf ea8e 33bf
000000d0: 8bc7 28bf 8b6d 47bf 55df 21bf 73b3 25bf
000000e0: 7f1c 29bf 9305 26bf b4d7 e33a 71b3 2cbf
000000f0: 6c5e 25bf ee11 29bf 9c03 b63a 87c8 26bf
00000100: 1f07 33bf 9e2d 28bf 2235 27bf 0200 ebbb
00000110: 9e30 27bf ee4e 28bf d598 28bf 1cbd 38bf
00000120: ae3d 29bf 00f2 28bf 674a 2fbf 652e 35bf
00000130: ce2c 29bf de94 24bf f946 2cbf c628 28bf
00000140: beff 03bb b19e 34bf 6858 fab9 3391 27bf
00000150: e4a3 003a 6b59 21bb 81d8 25bf 5a03 c1bb
00000160: 17b0 2ebf ab40 26bf 0e66 25bf 1860 2abf
00000170: 600a f33a 1ac4 27bf 70cf b0b9 cd65 27bf
00000180: 00fc 3ab9 f453 29bf 4281 2fbf 021f aab9
